enhanced_model_checkpoints/enhanced_params_round_17.npz (npz, 26570 bytes, 6 tensors)

arr_0 f8 [64, 15]
0.1520740482175407 -0.2658681990196776 0.32716715567664195 -0.28715032132957896 0.45352010578127383 -0.2377825264839981 0.19428283391283369 -0.21173768529349735
0.22717994910689834 -0.2349171200085922 -1.240885867111904 -0.0887138354010824 -3.7655643519211366 -0.009973311407633717 0.7759730186603101 0.11735584680110997
-3.2084593625852396 -0.017339123748486063 4.816990734271477 -0.02564443685529562 -6.38451652946004 -0.06731257493816463 -2.2594025147398082 -0.21470550425973278
-0.029528881173817308 -0.7012084571120772 -0.47360770420972154 -0.5627824620330606 -3.9392788817488826 -0.34762641681048495 -5.315349258982103 -0.5786384054374012
-2.1947513106359704 -0.4034156838977204 -0.9435530409801356 -0.7314181692602879 -4.521396841722541 -0.54673578636104 -2.6647043994643473 -0.9093740988122341
-2.2691102873132807 -0.6797824215266364 -5.627406257073192 -0.9904970149258701 -23.224880023505513 -0.7418869770386773 -9.32987773097439 -0.529805710655071
-3.758559335833021 -0.6232848953125829 -2.567939046782655 -0.8550392094674608 -6.630528387204119 -0.9248891275058021 -4.825970199427749 -0.4385402780880935
-16.6880725572442 -0.5318174543538847 -24.78261266336017 -1.09834636324093 -3.3153800123069885 -0.6911155337821593 -24.085181089073515 -0.5376864794086123
-21.975980261457064 -0.3335536199026097 -2.396795808209916 -0.431172194833389 -0.6037167806903363 -0.28972533396637146 -8.917325877621035 -0.2796405677813715
-1.1065094486759555 -0.19010893028218176 -7.837342055666225 -0.16281409872057168 -4.323834060707179 0.02717882139214768 -2.253768421731504 0.2364345339922222
-0.7547662873511245 -0.2797349927426891 -1.4076327737250638 -0.29761101448639204 -0.2466820056806156 -0.24532661536523906 -0.623563170978986 -0.3950044627596283
-0.057081125258502 -0.32030962755188075 -2.847082743957074 -0.6198858614267921 -1.8549277922431378 -0.5100095847627062 -4.4016732384700665 -0.7851317035251224
-8.78116681866288 -0.5175620482019427 -46.8945212002548 -1.148633636209246 -1.4054684751751148 -0.5068197376756404 -6.135276463569163 -1.0236402396496
-7.330532551891347 -1.288946963942529 -2.202722678072182 -0.7894944951911809 -16.505712857274688 -0.7015445972347195 -1.2911469862477911 -1.2105218695863975
-9.015997825353448 -0.7491514351025671 -33.2179889032894 -0.6061900675190852 -26.58981380849344 -0.9794785306171008 -3.1933246766429937 -0.44494336132882406
-5.762417756304589 -1.802067370892406 -0.933541288697427 -0.3963600311558914 -1.5996743075558157 -0.27092698729779335 -2.038040552132675 -0.20016094974643156
-1.1076384117007565 -0.690779803277553 -1.5157313208821772 -0.26008200943229975 -3.906946331549552 -0.5732112720745667 -0.17317575598101592 -0.5711926652235293
-1.519550126612426 0.004892001478960344 1.7942060281461094 -0.2040287826273402 -2.030356125487218 -0.41640715233597925 -0.5120210230493396 -0.15711408351185047
-0.059114677829290446 -0.12652661474194088 1.1290535154097103 -0.14978849003435732 0.7851122087233333 -0.5677965332791912 -0.9746669682821006 -0.574976247909252
-3.7289577055817142 -0.566606235597037 -1.0840393344951558 -0.49914748510136026 -26.846982820602616 -0.5025363430089453 -15.011207595461713 -0.6252112263494769
-1.6008403996910323 -1.6054393017202835 -1.6351052569301623 -0.33133088433152613 -1.6676672724652835 -0.5036509104968072 -82.03838426397937 -0.6559410566767849
-2.309280614701347 -0.5996088380693099 -2.70585162259546 -1.0356452008746455 -25.27568794636942 -0.5980178834442651 -10.522573854146007 -1.3620263122668892
-8.926210041233283 -0.6195244998726067 -60.13861878917591 -0.5263095727740337 -6.356967447194599 -0.9728285709461033 -5.4840151255916005 -0.49614028626307727
-6.496531744037243 -0.516550175443313 -24.016881493496967 -0.9975943965195799 -6.776504807187427 -0.5111715130272092 -1.4192960405366528 -0.886502200755833
-2.6651681971449905 -0.7331282375141819 -20.24342993060533 -0.25514970940654624 -1.6883249526579127 -0.2163204620283163 -1.588970798320402 -0.019107929911285966
-0.5856506081639479 -0.20544666280702173 0.6352364716546759 -0.28439910994782774 -10.730086563513037 -0.1461892408192259 -0.6210384130688412 -0.19344969942697784
-0.5916062067443137 -0.35551895550523815 0.16019787346009376 -0.5714097112287959 0.24839990533835377 -0.3234306160653754 -4.789054504122914 -0.269777444652082
2.4422674377776348 0.1824173556666046 0.5694873663131901 -0.5041939485452775 -6.056348587036011 -0.2611850234331471 -6.206691822700089 -0.8199604268739401
-3.544816488737059 -0.39332925621919884 -4.9264930736210575 -0.3730969535584042 -3.345857419153002 -1.1968581891837489 -5.568193779951134 -1.1769120770220527
-4.311878575420604 -1.332299530161696 -1.9503087680026479 -0.5760816166081674 -14.651174473192576 -0.4250168702436462 -18.54640403993652 -0.7936626230404671
-29.747096634804443 -1.2324067505964373 -33.92802856086473 -0.33801946134470057 -13.635702645188928 -0.7391824367193621 -0.48335367004833085 -0.6120255849757315
-1.3473417660777056 -0.3799976593907354 -6.739517632231399 -0.6571133346151984 -4.422980952404059 -0.4518893421252247 -2.29285016511718 -0.45889535447103424
00000000: b913 d593 2977 c33f f47f f50c fc03 d1bf
00000010: 9737 7d82 4ef0 d43f 285f c9bd ab60 d2bf
00000020: 932d 9a31 7906 dd3f 288e 6767 a86f cebf
00000030: 8e37 ea88 42de c83f b049 d570 381a cbbf
00000040: 1d4c dc89 3b14 cd3f 6f8c daa1 c311 cebf
00000050: 1607 9523 abda f3bf a318 c02d f3b5 b6bf
00000060: b3e0 f333 e01f 0ec0 90fe a032 e36c 84bf
00000070: 872e 375e c5d4 e83f be51 0164 080b be3f
00000080: f4c9 06be ecaa 09c0 30a1 c3e5 58c1 91bf
00000090: f752 1338 9944 1340 e4a8 7806 8942 9abf
000000a0: 8c35 7bb3 be89 19c0 2d0e f89b 653b b1bf
000000b0: 0976 2aa0 4113 02c0 f88a 884f 787b cbbf
000000c0: d24f b7ab d13c 9ebf 1f33 dfb7 4c70 e6bf
000000d0: a8b8 2db0 964f debf 2c38 a65d 5002 e2bf
000000e0: ae7a 77a5 a483 0fc0 034f dbde 823f d6bf
000000f0: 7895 88ea ea42 15c0 f405 72b0 3484 e2bf
00000100: ec46 70c6 d98e 01c0 0e30 4204 90d1 d9bf
00000110: 0aa2 a125 9631 eebf 468a 9513 c767 e7bf
00000120: 77be bd0d e915 12c0 fe26 3f0c dc7e e1bf
00000130: 4ea7 498a 5051 05c0 ec4b c7b5 9719 edbf
00000140: bd38 584b 2327 02c0 6a48 9b10 c7c0 e5bf
00000150: 92bd 2dc9 7682 16c0 328d bccb 26b2 efbf
00000160: da7a babc 9139 37c0 96b3 f6c1 89bd e7bf
00000170: 696d e4bb e5a8 22c0 15ec 0f1b 2bf4 e0bf
00000180: 92d3 9b8e 8711 0ec0 9eaa 2e2a f3f1 e3bf
00000190: 606c 80a0 238b 04c0 e8bb 2e30 7b5c ebbf
000001a0: 1cf7 c83b a985 1ac0 5307 6215 b198 edbf
000001b0: 160d c821 cb4d 13c0 ae7e 173e 0b11 dcbf
000001c0: 91a3 ea85 25b0 30c0 828a bc09 a604 e1bf
000001d0: 4091 b24d 59c8 38c0 28ce dca2 d392 f1bf
000001e0: 605d b5f4 e585 0ac0 3c43 eb52 9e1d e6bf
000001f0: f4ce 876d ce15 38c0 b8f6 9146 ba34 e1bf
00000200: e77f a8d7 d9f9 35c0 846c 3c48 f158 d5bf
00000210: a09c db47 a32c 03c0 a640 f042 5398 dbbf
00000220: 9490 a3da a551 e3bf dc53 8d20 dc8a d2bf
00000230: 4e50 c8bc abd5 21c0 0a60 508d a1e5 d1bf
00000240: 9673 6c40 43b4 f1bf 6ba8 1e4b 7d55 c8bf
00000250: 7e9b 2232 7059 1fc0 ae91 aaa6 17d7 c4bf
00000260: d945 f027 9b4b 11c0 64a7 17d4 c3d4 9b3f
00000270: 38c1 00bd b707 02c0 c61f 929f 7c43 ce3f
00000280: 427c 09a1 0b27 e8bf fc1a 5899 2de7 d1bf
00000290: a7d4 7ef1 a985 f6bf fa7f 8911 0f0c d3bf
000002a0: 9878 74a5 4693 cfbf 5d81 eace dc66 cfbf
000002b0: 9c08 4bc0 3af4 e3bf e4e7 54cc c047 d9bf
000002c0: c785 68bc bc39 adbf 2279 bbf3 f37f d4bf
000002d0: a069 5251 d3c6 06c0 6896 c2df 1ad6 e3bf
000002e0: 1c03 c2c3 c8ad fdbf c279 e69e ff51 e0bf
000002f0: 1fa1 bb3a 509b 11c0 702e b685 cc1f e9bf
00000300: 3fc1 e518 f58f 21c0 28b3 d548 de8f e0bf
00000310: 2656 b2ab 7f72 47c0 1aab e9a9 cd60 f2bf
00000320: 4afa 0683 cc7c f6bf f517 c906 de37 e0bf
00000330: d8ca cbe9 858a 18c0 58a2 8296 d460 f0bf
00000340: 0a8c 1220 7752 1dc0 2296 06da 869f f4bf
00000350: 0ad2 4311 2d9f 01c0 18fb a6f5 8943 e9bf
00000360: 5829 d765 7681 30c0 27e0 b9a7 0d73 e6bf
00000370: 2b36 04be 89a8 f4bf 3076 0f2e 4c5e f3bf
00000380: 7e66 f1dd 3008 22c0 338b 306e 0cf9 e7bf
00000390: 6b42 750f e79b 40c0 b0f1 64b6 e865 e3bf
000003a0: 6235 aa09 fe96 3ac0 804e 045c e357 efbf
000003b0: 0e88 ddce ed8b 09c0 f0b1 5eb8 f379 dcbf
000003c0: 23df 843d b70c 17c0 d1be 7298 44d5 fcbf
000003d0: 027a 0dfb 91df edbf db63 d076 f65d d9bf
000003e0: 4042 3316 4498 f9bf a50f 8325 de56 d1bf
000003f0: 2aa7 7a34 e84d 00c0 ce71 8cbe df9e c9bf
00000400: 27c5 200e e3b8 f1bf 980f fa3e de1a e6bf
00000410: ab63 4b7c 6f40 f8bf 4c8a 3203 2fa5 d0bf
00000420: 28dc 0914 6d41 0fc0 4548 682a bf57 e2bf
00000430: 5a03 3388 9f2a c6bf 4e34 1bd7 3547 e2bf
00000440: b0ed 26cb 1350 f8bf b86d d3a5 a209 743f
00000450: 0cc7 5261 11b5 fc3f 0adf 697a 9d1d cabf
00000460: 649b 315a 2b3e 00c0 16a0 462f 6aa6 dabf
00000470: 6490 9be9 7962 e0bf 1653 3675 501c c4bf
00000480: ec12 fb6f 4744 aebf faf2 312c 0632 c0bf
00000490: 88e5 416b 9a10 f23f 87e4 01ed 442c c3bf
000004a0: 7e06 85a3 a31f e93f f2eb a6a2 632b e2bf
000004b0: 3f6b 28c8 7830 efbf a2e7 9796 3466 e2bf
000004c0: 1220 0dc7 e7d4 0dc0 8f2a 7366 a321 e2bf
000004d0: b0bf 13a1 3958 f1bf f905 194b 08f2 dfbf
000004e0: 17c3 badd d3d8 3ac0 a4cb c818 c714 e0bf
000004f0: 20f3 7f00 bd05 2ec0 f66a 48f9 ba01 e4bf
00000500: e99d acd2 0a9d f9bf 8aa0 091f e1af f9bf
00000510: 0a86 4021 6429 fabf 58f4 1674 8634 d5bf
00000520: 0e91 bde0 c3ae fabf b0e6 a583 e81d e0bf
00000530: 3c9e 45e3 7482 54c0 a4f9 5019 78fd e4bf
00000540: b86e 6b1d 6879 02c0 d0ce bcdf fe2f e3bf
00000550: 1f02 1789 95a5 05c0 5841 c0b3 0092 f0bf
00000560: dd8e 397c 9346 39c0 ca1e 7a66 f622 e3bf
00000570: 829a dacc 8e0b 25c0 f5a4 371a dcca f5bf
00000580: c4a5 d833 38da 21c0 59c1 400b 25d3 e3bf
00000590: 920f af42 be11 4ec0 ce5b 542c 87d7 e0bf
000005a0: e8bf dddf 886d 19c0 667e 1a62 6921 efbf
000005b0: b4bd 3ca9 a1ef 15c0 7897 ee2f c3c0 dfbf
000005c0: 6243 48d1 72fc 19c0 fab4 c83b 9487 e0bf
000005d0: 247a 7658 5204 38c0 b62e 7715 4bec efbf
000005e0: 263a 8013 241b 1bc0 9028 635c 845b e0bf
000005f0: ca27 d7c3 6fb5 f6bf ac81 02dd 395e ecbf
00000600: ba9d 28b4 4352 05c0 94b8 7c59 c975 e7bf
00000610: 44d1 866c 513e 34c0 900a 5f72 5f54 d0bf
00000620: d6fb 8a06 6103 fbbf 5701 ef8e 63b0 cbbf
00000630: ba5c d1a4 6c6c f9bf 42c0 4078 0791 93bf
00000640: 184b 1e58 a6bd e2bf 380c ea84 134c cabf
00000650: e676 df6f db53 e43f 0732 0f53 9833 d2bf
00000660: 3613 f3e7 cd75 25c0 0c3e 2c3c 54b6 c2bf
00000670: db17 36f3 8bdf e3bf ffdd 3ab2 f5c2 c8bf
00000680: 687a c223 70ee e2bf 6a32 c093 d2c0 d6bf
00000690: 412e b329 5d81 c43f 0006 cb04 fd48 e2bf
000006a0: 24fd e06e 91cb cf3f aaa8 a153 16b3 d4bf
000006b0: aee0 67e7 fd27 13c0 44aa 7e9d 0844 d1bf
000006c0: aab9 aa82 c389 0340 7eca 67b0 7359 c73f
000006d0: 409c b991 3d39 e23f 76fa fa58 5b22 e0bf
000006e0: 5efb a971 b339 18c0 4e6c 7663 41b7 d0bf
000006f0: da63 6b05 a7d3 18c0 3b02 2ea6 1d3d eabf
00000700: e893 4bbf c85b 0cc0 a95f 0179 4e2c d9bf
00000710: 1db1 ac99 bab4 13c0 2251 710b d2e0 d7bf
00000720: 97ba 02e5 50c4 0ac0 5ae7 c7c5 5426 f3bf
00000730: 14b9 1a97 d445 16c0 013c 11c2 a1d4 f2bf
00000740: ac04 e718 5d3f 11c0 9554 e84f 1951 f5bf
00000750: 58c6 7af7 7634 ffbf 9f15 e5b6 426f e2bf
00000760: 4cb4 94bd 664d 2dc0 8e76 7cf5 7933 dbbf
00000770: fced 9922 e18b 32c0 3486 4028 af65 e9bf
00000780: ce6f 9db9 41bf 3dc0 b7e6 1224 f0b7 f3bf
00000790: 8055 cfa3 c9f6 40c0 05c5 f860 1ca2 d5bf
000007a0: 6022 2ed1 7a45 2bc0 8d97 efec 61a7 e7bf
000007b0: 0296 503b 44ef debf 3427 f9ad b695 e3bf
000007c0: 056b 5d3d b68e f5bf c2f1 e8b3 e151 d8bf
000007d0: 32ff 341c 44f5 1ac0 4f02 3e8b 1207 e5bf
000007e0: 1ea0 35eb 21b1 11c0 d2ae 7546 c1eb dcbf
000007f0: b073 ced3 c157 02c0 a652 ef9e 8a5e ddbf

arr_1 f8 [64]
2.367176833610069 0.704768856586297 1.331174195147649 -0.10770119183070828 -0.12856943875394636 0.10374953755429081 0.6175589347625998 -0.007407208531494111
-2.377666861517259 0.06213833502999928 -9.085741349689199 0.10706733389652934 1.6144498411868582 0.17121933670465858 12.68907548039473 0.36297578005231934
3.260605971751027 0.10072953885034722 9.303252554137295 0.3837228315066111 32.78159977673658 0.20182252407877962 -0.2931071205532465 0.06761875021595905
6.819388027711403 0.1478631619740216 0.8715946545665468 -0.021322305976128306 -0.8066445160898243 0.15540897872570736 1.7114998461847124 0.08463511040251714
-142.00459682607507 -0.02031793395809859 -1.9024821270801304 0.33064568330916766 -22.482359554497027 0.3502474099544722 -11.145869117604699 -0.4451192802692243
-9.366457960042636 -0.34002935761064357 -65.33572381084588 -0.2467887943400776 -6.42100581976796 -0.943873342865043 -8.286565011427586 -0.3834352680887005
-6.631002551498826 -0.15941375528192392 -4.12363938182355 0.13690756934338363 -26.01089828054978 -0.4143191337894069 -2.782115415754445 -0.4877143878486742
-9.306049387570537 -0.5531625697410936 -10.20286696384526 -0.24586503921802497 -4.43834041476994 -0.16056636239119987 -2.435579042794813 -0.5954118634153571
00000000: f5a1 6168 faef 0240 f3e0 c86a 778d e63f
00000010: 2c03 1750 7d4c f53f 8232 a728 4e92 bbbf
00000020: 954c 5b9f f674 c0bf 5653 c566 548f ba3f
00000030: 0a0e 85f4 0ac3 e33f 70d4 5b66 0557 7ebf
00000040: 28ff 1734 7605 03c0 f93f 9089 98d0 af3f
00000050: f7a8 494a e62b 22c0 a035 8ec9 c368 bb3f
00000060: 13e1 4e5b c9d4 f93f df6e cbe5 83ea c53f
00000070: ad8a 5980 ce60 2940 b225 24c4 fe3a d73f
00000080: f280 6e95 b815 0a40 9a78 1a3b 69c9 b93f
00000090: 74e5 34eb 439b 2240 9529 0335 ea8e d83f
000000a0: 7fd2 2376 0b64 4040 27dc 410a 52d5 c93f
000000b0: 200f 405e 44c2 d2bf bd20 c660 764f b13f
000000c0: 8604 b7a7 0d47 1b40 d814 7b1a 2eed c23f
000000d0: 616a 1779 1ae4 eb3f c900 5fbb 83d5 95bf
000000e0: 3650 0329 08d0 e9bf a8da 9000 71e4 c33f
000000f0: d48e a7a9 4d62 fb3f 50ac 4587 a5aa b53f
00000100: 0d35 3ea8 25c0 61c0 ca41 7d77 39ce 94bf
00000110: f089 5019 9170 febf ba17 1883 4c29 d53f
00000120: 557a 6fea 7b7b 36c0 a9d7 d01c 746a d63f
00000130: 9537 635b af4a 26c0 f8d2 e493 d57c dcbf
00000140: e77b b360 a0bb 22c0 ce86 a77e 0ac3 d5bf
00000150: 9404 b97f 7c55 50c0 1cde 5a74 c696 cfbf
00000160: f550 4d26 1caf 19c0 607d 65de 3534 eebf
00000170: c984 30a6 b892 20c0 c7bb 2414 348a d8bf
00000180: 2285 6988 2586 1ac0 e0f4 bb80 ab67 c4bf
00000190: 1fb8 7552 9b7e 10c0 b7cc 73ee 2f86 c13f
000001a0: 408b ce3a ca02 3ac0 1ee2 6e66 3484 dabf
000001b0: fce6 22ba c541 06c0 5b51 6668 b636 dfbf
000001c0: 0f27 5d81 b29c 22c0 1e19 4dfd 81b3 e1bf
000001d0: f44e be2d de67 24c0 0de9 556f 8178 cfbf
000001e0: d1ce 474f dcc0 11c0 de68 a745 708d c4bf
000001f0: 7f03 7ddd 107c 03c0 be9e 202e 9d0d e3bf

arr_2 f8 [32, 64]
-1.1110706337556389 -0.5214427987545138 -0.41910579185370883 -0.47216941615444985 -0.28894363350799934 -0.6101289593337993 -0.3879594724228055 -0.6246279132636359
0.17144314553422768 -0.6130749464836598 -0.49192771620251124 -0.5251796619631153 17.092447656971267 -0.4525182642528553 3.37078321514005 -0.16309359262001014
0.685055490688312 -0.20518974343925886 1.2720923967527735 -0.4631642380996141 -2.256548721014574 -0.45400442741919816 9.105972236213846 -0.4874685334541288
-1.1880784226116652 -0.7570705452914329 -4.031056278459922 -0.720256397481993 -0.9805410105164045 -0.7534946201418447 -5.448030967044605 -1.413700228928981
-20.5243621099426 -0.6432244623969025 -39.31865148673835 -2.0687412488677897 -3.46731254848467 -1.0453697336081584 -11.951056357550822 -0.688621494710647
-10.124121271576325 -0.6232861155987924 -14.573992596711559 -0.7378872501903776 -12.726805324496402 -1.6750603194023044 -4.2472356542740535 -3.2785891972765895
-18.327759643284814 -1.0593073218332574 -14.027052902500905 -1.9995390767494037 -10.405604350719335 -1.1302094075962281 -10.572214066179104 -2.396327419540186
-9.199647081422551 -0.9267299628913396 -13.164418750339136 -0.8149254744439134 -2.0477652307401533 -0.6482411803793039 -1.3258562871068482 -1.2053676624313487
-26.574365598674643 -0.41668308362352335 -11.61424286856246 -0.37390080333392506 -1.3551277088736198 -0.40704380657175676 -0.1879899738976362 -0.3132668587914358
-0.29532894047734726 -0.25211013123058523 9.223254937038103 -0.4285003569395437 7.387018664928654 -0.20955405331818383 2.0918822846140506 -0.2635834642557855
8.273511503807967 -0.27244768317011214 0.6167957723374169 -0.3705132553029642 -1.6618338563193358 -0.3194172676397537 0.3732289460503977 -0.3316791741007682
-0.6139715794851013 -0.6576619266025374 -1.3517326015237363 -0.6671698945305952 -1.8405306552908984 -0.44661456500117724 -49.49868452887087 -0.6456395481334686
-2.3897336259616044 -1.3701017564869165 -8.872842543652936 -1.0813491505224446 -1.4615392282374309 -1.950786262912532 -15.588909533646468 -1.2691242786241586
-7.412155031910441 -1.0309426321387862 -1.8059721500004253 -1.054263335602558 -5.710956182817462 -1.6851116324348336 -13.149103691798585 -1.339704097556141
-14.338065256571255 -0.6652819570116891 -33.933185335782134 -0.9010263068159025 -12.003107122454296 -0.5911094768561023 -15.886124062678643 -1.1131779790709528
-10.183096087324241 -1.5202494023534097 -24.504715103630907 -0.5666283510912303 -6.4651141264857666 -1.128860424520019 -13.115917331049857 -0.860045614994944
-6.146819993183669 -1.0291634537093648 -0.7820106997244024 -0.41599715786465574 -0.4871623540800357 -0.523750670854395 4.119056976884785 -0.43071040024665846
13.630000993125154 -0.4117490395532555 1.0113157472554386 -0.1442194471830655 7.836326122784408 -0.586657390209161 -0.4420171881379167 -0.07192662048902504
-1.2159039664123918 -0.24336309020397012 1.8416900814665949 -0.1491913736935583 -1.0409616638987351 -0.4900310487806603 1.0767233648651475 -0.25792123566284275
-1.0731791290527337 -0.49686007684540495 -2.536570683745575 -0.9176804868950991 -3.6284404487031416 -0.9597354903313161 -3.7290378195719405 -0.8967903855751083
-0.5562206646735229 -1.2198040247505706 -2.936886385104174 -0.9539816337558381 -8.720847008116365 -1.5563101765252236 -11.689299882024692 -2.797600518463703
-2.0345673662435977 -1.8269741705202742 -8.246653485617973 -1.7261978231140298 -37.746285128915495 -1.1571689378242729 -2.4672913813476756 -1.6998602223534258
-36.421937117586594 -1.2274166642902187 -6.674231767264102 -1.83203859807273 -11.013292846977823 -1.351373790455386 -5.131318063408671 -1.4924324678433787
-1.716569113300091 -1.1325977787510217 -9.407066217036977 -0.9678053204481101 -1.358047386930253 -0.9330942982596716 -1.2138566706682565 -0.8883552265956753
-0.5100805703889258 -0.566310086921878 -0.5595252926031316 -0.4659281322448149 0.12626969910950492 -0.12869022900795285 0.4290098983921673 -0.27030241522041376
-0.17388529697644584 -0.09844957238796918 2.725593454756717 -0.10541156224736437 1.8013571611797632 -0.15481133674266842 1.2248936183592445 0.11266110773187168
4.403861937554895 -0.061410226543886934 -1.2668795440678333 -0.28812221807231236 -1.3237381364988692 -0.5156135827638854 -0.7467231736525904 -0.5013240018734111
-2.6510762919816298 -0.6304270914378984 -0.7154606466693851 -0.6397514020021118 -2.568937397429928 -0.741598720314916 -3.115094775253154 -0.6875420885226414
-1.4361164248716902 -0.9950974959773643 -7.860829507297657 -1.2194963566602612 -1.7664142373226532 -1.5815054100238801 -2.3209261685013916 -2.4267806865490877
-5.422310183469176 -1.7675140387845438 -38.476670160203334 -2.336808857937772 -8.823351019656966 -1.0148327542351065 -14.958856681423637 -1.4361782836626293
-32.47075920097841 -1.6888307438210204 -13.616256841272396 -0.6687237216083304 -6.13724259631592 -1.7784512621029924 -14.973013777417382 -1.2568048113573385
-24.81250604205411 -0.8260555134133744 -6.141332523140986 -1.0539637868349154 -2.807184356912626 -0.42036537834755466 -1.2806926686888005 -0.42384565412943165
00000000: 646c 3800 f2c6 f1bf c254 ecce a8af e0bf
00000010: efda 6419 a1d2 dabf 7481 2312 0638 debf
00000020: 1c79 1370 0d7e d2bf 3ecc d52a 2d86 e3bf
00000030: e4ad 8ef7 53d4 d8bf 725a 74ad f3fc e3bf
00000040: 2cb0 9857 d9f1 c53f da9d a459 4f9e e3bf
00000050: 037d 4563 be7b dfbf 42fd 1494 45ce e0bf
00000060: 8e48 4fa6 aa17 3140 bbc1 732a 0ff6 dcbf
00000070: 3e75 b730 5df7 0a40 49bb 3e37 40e0 c4bf
00000080: f472 0e7e f9eb e53f 6feb c552 a843 cabf
00000090: d8b1 988e 7d5a f43f 6722 d49d 7ba4 ddbf
000000a0: aeb4 746a 690d 02c0 614c 0096 680e ddbf
000000b0: 19a5 31fe 4136 2240 a3ee 4038 af32 dfbf
000000c0: b634 2385 5e02 f3bf b754 1902 ec39 e8bf
000000d0: 8948 9137 cd1f 10c0 1f70 fd24 570c e7bf
000000e0: 82c0 918a 9760 efbf ca13 e7bf a01c e8bf
000000f0: 1435 3ca1 c8ca 15c0 2090 9921 849e f6bf
00000100: 0c77 6198 3c86 34c0 8b6b bf77 4b95 e4bf
00000110: 762e 6992 c9a8 43c0 d42f 3e36 c88c 00c0
00000120: 3e04 865c 0ebd 0bc0 5134 219d d5b9 f0bf
00000130: d6aa e0db f0e6 27c0 105b e3f1 2f09 e6bf
00000140: 0651 c4d2 8c3f 24c0 ab86 51b9 f5f1 e3bf
00000150: 660b 8e5b e225 2dc0 517f f6b8 c59c e7bf
00000160: 9b8a d6d3 1f74 29c0 3a90 aa0c 0ccd fabf
00000170: 840c e657 2bfd 10c0 2393 1af9 8c3a 0ac0
00000180: 5edb 540e e853 32c0 b8fe fa3b ecf2 f0bf
00000190: ac01 c7e0 d90d 2cc0 5067 dbaf 1cfe ffbf
000001a0: e3e8 9a5f abcf 24c0 0a1e b475 5615 f2bf
000001b0: d219 f93d f924 25c0 2277 cbb5 ad2b 03c0
000001c0: 46e7 6a24 3866 22c0 5dee 5a98 c5a7 edbf
000001d0: 8f1c c7b1 2e54 2ac0 9a3e ad96 de13 eabf
000001e0: 9e51 bfbc d261 00c0 17c9 b449 64be e4bf
000001f0: 4f1e 0515 b536 f5bf 1cc7 1c9a 2f49 f3bf
00000200: 4b41 b69f 0993 3ac0 e467 3d86 efaa dabf
00000210: d28d 900a 7e3a 27c0 081c 91a2 fded d7bf
00000220: ec3f 7864 9aae f5bf 80f6 5077 010d dabf
00000230: fde0 ee32 0e10 c8bf f082 5b70 900c d4bf
00000240: 0267 3a5b abe6 d2bf 5a0a 2888 9222 d0bf
00000250: 967f 9a78 4e72 2240 764c d8c2 8c6c dbbf
00000260: 983d f39e 4e8c 1d40 ae77 dfce aad2 cabf
00000270: 2efe 7bc7 2cbc 0040 d0ad af2d 8dde d0bf
00000280: b8de 27b3 098c 2040 e08a 4568 c86f d1bf
00000290: 3002 d07c cabc e33f ccaf 903a 7db6 d7bf
000002a0: 0b6f 0419 df96 fabf 4396 921f 5571 d4bf
000002b0: 983f 4da9 fbe2 d73f d6bb 6149 3b3a d5bf
000002c0: b2fb d1b9 a7a5 e3bf cca1 5206 910b e5bf
000002d0: 02b4 475d b2a0 f5bf 434f bcad 7459 e5bf
000002e0: 6128 bc45 d072 fdbf 883a a641 5595 dcbf
000002f0: c242 07e5 d4bf 48c0 5199 0745 14a9 e4bf
00000300: b140 cda9 2c1e 03c0 fbda c4d1 efeb f5bf
00000310: f817 c737 e5be 21c0 0cd2 50c4 344d f1bf
00000320: 109d 31f5 7662 f7bf 4a20 0ba8 6b36 ffbf
00000330: dea0 e68c 852d 2fc0 7201 7442 554e f4bf
00000340: acbf fbf7 0ba6 1dc0 7469 91b3 bd7e f0bf
00000350: 71d1 9b0d 43e5 fcbf c88e 3c3b 43de f0bf
00000360: 285c c8e5 04d8 16c0 25ab 769d 37f6 fabf
00000370: bff9 af51 574c 2ac0 1322 5590 6d6f f5bf
00000380: 58c6 a9e3 16ad 2cc0 9b7d ff62 fd49 e5bf
00000390: 4125 f99d 72f7 40c0 d184 131f 35d5 ecbf
000003a0: d8a6 ba41 9701 28c0 ee7b ee6b 5eea e2bf
000003b0: 8ece 9a0d b2c5 2fc0 39cb 6bb6 93cf f1bf
000003c0: 962a 36c5 be5d 24c0 6bf1 8d09 f152 f8bf
000003d0: 5ae4 4f02 3581 38c0 2f8b 9dc7 d121 e2bf
000003e0: e9a7 a8e0 46dc 19c0 99fe d0f2 cf0f f2bf
000003f0: 28cc 3384 593b 2ac0 7616 af61 7e85 ebbf
00000400: c07d f4fa 5796 18c0 dcb8 fe18 7477 f0bf
00000410: 3f07 8e4d 3b06 e9bf 447d 108b b29f dabf
00000420: 9a6e a702 ab2d dfbf 697c 52c4 90c2 e0bf
00000430: b852 7812 ea79 1040 61d0 c65a c290 dbbf
00000440: 12d7 7b7d 8f42 2b40 e499 c2a4 185a dabf
00000450: 4445 c66b 592e f03f 869a 8c68 c875 c2bf
00000460: 1a99 08e0 6558 1f40 3af6 1cb8 e5c5 e2bf
00000470: 709f d475 024a dcbf 8450 b672 c869 b2bf
00000480: 2416 adb7 5774 f3bf e261 bd90 8526 cfbf
00000490: ff43 d404 9077 fd3f 8df8 6df3 b318 c3bf
000004a0: 635b ed6a c7a7 f0bf ac66 2230 ab5c dfbf
000004b0: 49f5 6e47 423a f13f 9269 0712 c881 d0bf
000004c0: 0580 e0e0 bd2b f1bf c74c 2f35 8ecc dfbf
000004d0: d46f 1592 e54a 04c0 af89 ec77 a35d edbf
000004e0: f84e 35c9 0b07 0dc0 a712 f933 27b6 eebf
000004f0: 7bde c4c7 11d5 0dc0 ba31 2dc0 81b2 ecbf
00000500: af3a 8447 8fcc e1bf 7553 9d39 5184 f3bf
00000510: 81b8 004a be7e 07c0 43e9 be7d 0487 eebf
00000520: f88e eadb 1271 21c0 a4b9 e97f a5e6 f8bf
00000530: 8cdd 04ea eb60 27c0 1098 7061 7c61 06c0
00000540: 6b33 5c41 cb46 00c0 4457 9044 493b fdbf
00000550: e258 9c5d 497e 20c0 ea37 cb9b 819e fbbf
00000560: 7317 6745 86df 42c0 dc6f 7e93 c383 f2bf
00000570: 3aba 8443 03bd 03c0 d177 eca1 a032 fbbf
00000580: 6080 1409 0236 42c0 0612 fba7 7fa3 f3bf
00000590: 5e4b f9cf 69b2 1ac0 89b6 7bb4 0750 fdbf
000005a0: ba14 ee51 ce06 26c0 cbd6 aa1f 3a9f f5bf
000005b0: 70db 0e3e 7886 14c0 9e03 0ede 00e1 f7bf
000005c0: 6929 af2c 1177 fbbf 4920 34d9 1e1f f2bf
000005d0: e4f5 b2fb 6ad0 22c0 9805 07dd 42f8 eebf
000005e0: 038a 94e5 8fba f5bf df7f e392 e8db edbf
000005f0: 5fd3 e8f8 f46b f3bf e8b0 aef0 676d ecbf
00000600: a1a7 047d 9452 e0bf 262e d754 361f e2bf
00000610: 2e7d 2096 a1e7 e1bf 2ec8 913a c4d1 ddbf
00000620: b856 1302 9b29 c03f 42b3 73e2 eb78 c0bf
00000630: 0c4c d0ee e574 db3f 02b2 5980 a24c d1bf
00000640: 4c71 e297 df41 c6bf ab25 b6bd fd33 b9bf
00000650: 5bf9 f2f0 03ce 0540 c002 798c 40fc babf
00000660: 74eb fae2 5bd2 fc3f 0f0e 2e9e dbd0 c3bf
00000670: b8e9 fe0c 2a99 f33f 4a51 3dbd 5bd7 bc3f
00000680: 0297 d7fb 8d9d 1140 5eb9 4a45 2971 afbf
00000690: 3ee2 1b7c 2345 f4bf abc7 f72b 9870 d2bf
000006a0: a6b0 4b0a 082e f5bf 5104 6b0e e87f e0bf
000006b0: 411a 40ff 27e5 e7bf 68e0 17a2 d80a e0bf
000006c0: ac18 aa7c 6735 05c0 229f 876f 752c e4bf
000006d0: 02a4 e0b9 0de5 e6bf 3e6a a5ee d778 e4bf
000006e0: 9276 db0c 2f8d 04c0 a941 503d 2dbb e7bf
000006f0: de38 3dcf b6eb 08c0 4981 1a44 5800 e6bf
00000700: 5928 6137 55fa f6bf 97bc 31b4 d6d7 efbf
00000710: d619 554a 7d71 1fc0 ce26 979c 0e83 f3bf
00000720: 50d5 4793 3b43 fcbf 82fe e79d d84d f9bf
00000730: 0a27 31bd 4191 02c0 9257 1afe 0b6a 03c0
00000740: 4d12 ab14 72b0 15c0 d0ce fccc bc47 fcbf
00000750: b586 1e87 033d 43c0 48c4 aed7 c8b1 02c0
00000760: 1f1c cd43 8ea5 21c0 1897 2545 c13c f0bf
00000770: fe87 5043 efea 2dc0 08e7 7814 96fa f6bf
00000780: 263f 66d6 413c 40c0 d90c d362 7305 fbbf
00000790: 0467 4604 863b 2bc0 00c0 4b4a 2f66 e5bf
000007a0: 162e bb52 898c 18c0 4932 844f 8974 fcbf
000007b0: 5221 a1dc 2ef2 2dc0 74c3 a35c df1b f4bf
000007c0: c06c 5e65 00d0 38c0 514f d9f8 0b6f eabf
000007d0: bd01 1379 b990 18c0 0afd b921 09dd f0bf
000007e0: 9a42 7612 1d75 06c0 03e6 1730 44e7 dabf
000007f0: 00ed 8398 b77d f4bf a268 c285 4920 dbbf

arr_3 f8 [32]
-1.2314256486221318 -0.7063184850853572 -1.2565236556385793 -0.3535491096606097 -0.8592921406116504 -0.23924927648792965 -0.7113656726536706 -0.08339404738849752
0.014321609410245628 0.00011190869818662849 0.38677026628060984 0.10300550063134893 0.047134734256733694 0.019047442135583938 1.9219255491213136 0.16946629592088341
1.5794265828274099 0.03356228411185072 0.450512101072971 0.07275004172537938 0.1958381063397563 0.0078853144672234 0.5762155844230284 0.020198653392860776
0.2059108115706084 0.013423201090166268 -0.19467870422824465 -0.13392864109876323 -0.5724741606773702 -0.26691094554252676 -1.6151265583508174 -0.3784218074595084
00000000: 309a 8461 ebb3 f3bf 580f 4039 299a e6bf
00000010: 97e3 798c b81a f4bf 526c e171 8ca0 d6bf
00000020: 4161 343b 527f ebbf a6bc 0d65 b89f cebf
00000030: 026d 71f1 81c3 e6bf aff4 36f2 4f59 b5bf
00000040: 0040 58e0 a554 8d3f 5034 9fcb 1056 1d3f
00000050: 3863 2f13 d8c0 d83f 670e 8588 915e ba3f
00000060: 27d2 463c 0b22 a83f 3adc 2d34 2c81 933f
00000070: 882a 2d01 35c0 fe3f e691 6053 12b1 c53f
00000080: 03d4 face 5445 f93f 3467 4761 132f a13f
00000090: cee1 23b5 30d5 dc3f 6a3e fe29 bf9f b23f
000000a0: f018 051b 3911 c93f 3e0f 0bfe 2c26 803f
000000b0: 9f5b 51aa 5b70 e23f 6678 fbae f4ae 943f
000000c0: a356 cb14 495b ca3f 05e8 848d 9f7d 8b3f
000000d0: eda8 f155 3beb c8bf 182a c2de 9224 c1bf
000000e0: 6442 bd54 b551 e2bf 792c 83a5 1115 d1bf
000000f0: e548 30f2 8ed7 f9bf 5e6f c819 1038 d8bf

arr_4 f8 [1, 32]
9.59305329173242 0.14257602821452872 4.693016955552108 0.9940902307968792 32.608176828904654 0.8355842488726186 5.546586929208605 0.8105940149743873
71.03799430852881 0.6013922709953898 6.342058458804994 0.788911439200385 36.110760426625404 1.6013744220750687 44.95828800989409 2.3438000581934366
6.047544606618601 1.5627350762625232 14.631598926185974 1.5411390834003873 6.4073282697745295 1.0614806492650877 76.27646333116519 1.5970266498944614
11.441300754300226 1.7224286376981166 7.359556882577763 1.2186272630961599 7.169154009077649 0.7773860452131247 16.704707204720876 0.9476750556885347
00000000: 428d 59ae a42f 2340 27ff 2f69 ee3f c23f
00000010: ddad 9e3c a6c5 1240 4776 d150 96cf ef3f
00000020: 4d2a 03bd d84d 4040 6abd be2d 1bbd ea3f
00000030: f47c e57b b42f 1640 1abf 14dc 62f0 e93f
00000040: 2f24 ae7f 6ec2 5140 7cc1 ff00 9b3e e33f
00000050: ea8c 9792 445e 1940 4fca d933 c33e e93f
00000060: 0806 cd65 2d0e 4240 c369 37c9 3a9f f93f
00000070: 7052 772e a97a 4640 fe6d b23e 1ac0 0240
00000080: c01c 8a88 af30 1840 efc0 cd7e f600 f93f
00000090: a150 38ef 6043 2d40 5cac 9c74 81a8 f83f
000000a0: e6ab 75a9 1aa1 1940 e9e2 1e22 d3fb f03f
000000b0: 7479 4193 b111 5340 c831 02d1 6b8d f93f
000000c0: d6d6 262c f2e1 2640 45b7 c954 118f fb3f
000000d0: 90e4 eead 2f70 1d40 2131 104d 7f7f f33f
000000e0: 35e7 63b5 36ad 1c40 28d4 11b3 58e0 e83f
000000f0: 2088 fdb0 67b4 3040 fe59 6da3 5a53 ee3f

arr_5 f8 [1]
-1.8304584161716067
00000000: f451 a2c3 8e49 fdbf
