enhanced_model_checkpoints/enhanced_params_round_19.npz (npz, 26570 bytes, 6 tensors)

arr_0 f8 [64, 15]
-2.9142506279874967 -0.8052651172058489 -0.8322939659573941 -0.7956942796368527 -0.4571940838111646 -0.5339614211039578 0.19011282130601576 -0.37871534684119823
1.0335026920296013 -0.21507866776532664 23.546733289070865 -0.09738203664839407 0.9270737780796435 -0.0830996854562879 0.7677960565732035 -0.02628156751873223
3.9048013613175394 -0.14929119557907805 -0.20433020894215348 -0.17896854553958766 6.449007328625793 -0.3138712056632099 0.08188413685002266 -0.4395446747002537
-0.08003226224529458 -0.40080931761082905 -1.0909643316085795 -0.7280288096857856 -13.105467968499475 -0.6000098634923277 -2.1934232418626096 -0.8384783893439925
-14.274454480831835 -1.1416074159555998 -2.1802264162613687 -1.040012388363747 -37.621564118118116 -1.163319359867701 -7.458125094040012 -1.5281327852671893
-6.7928565183385174 -1.0043273351654163 -13.714767574838188 -1.8313906515738354 -5.6534556332422214 -2.4784768333137928 -29.96395819880237 -2.1580751079318445
-36.9902673194133 -2.056555139830787 -12.402639355897545 -2.789960496985207 -4.265911440846453 -1.4395908120885599 -7.074228067699795 -1.548852621580893
-3.5993917096366683 -1.4660677123887043 -7.683388497936072 -1.1980929596984007 -27.761727196224616 -0.9191963220121426 -10.709313666226729 -1.1303489818890085
-1.4499290896273753 -0.5468087868959146 -2.0108554246601757 -0.5088268614560523 -1.1605213932953848 -0.6649364079555666 5.313796655602909 -0.24485863672445157
-0.5542188318205872 -0.13650639088078012 0.22218179705067065 -0.22423224331446853 -0.7115894559931129 -0.11499890043885473 6.012404073797269 -0.003508005556690341
-1.5211482313668505 -0.22843141512002257 0.31658903926017357 -0.08359649174210523 -7.424246481802912 -0.21370677499494015 0.9104465802235384 -0.3672442349540538
-5.145087599249533 -0.38149324345832913 0.013123753420647817 -0.6203239672255862 -13.929297276026286 -0.9094564306158113 -10.030936434751847 -1.0774911914792311
-6.823630574983156 -0.7021050196488301 -24.468231111383044 -1.2473431928037013 -10.72062070170527 -2.0179376898347265 -32.11198586602913 -0.89393448852238
-22.236693580518715 -0.8073466567480266 -44.63453135059851 -1.6843266493071183 -3.3847680986373523 -2.1577382365172872 -7.559653253840249 -2.899761901410855
-25.665318121808163 -1.8026201153799142 -2.905048334351434 -0.9838374657529376 -10.559960848373034 -0.8212220404033704 -10.107530736506892 -0.9020614298365331
-42.680254493701526 -1.0530379557083545 -1.878639292379921 -0.6947417797146318 -2.537484855182114 -0.5898487499012339 -25.505091365519583 -0.8607326646181777
-3.5265301850380126 -0.5534049830621118 -2.9150531692447603 -0.390749540547488 -1.3350963803927254 -0.39123446219517033 0.4502735620856958 -0.10400675272505965
-0.46683883239086954 -0.17853802609896935 0.7350639932040255 -0.25800599515099654 -0.15147939434279345 -0.026927214576144956 34.98124164248007 -0.06915359248685977
1.03249181316625 -0.2253690455469666 3.244888329277413 -0.1568018915090852 -4.595635735729277 -0.34352795790671814 0.047583149356315246 -0.5023239745476575
-0.7929834406247205 -0.7650386683049347 -9.201566878034013 -0.7496667927631724 -5.714855412266955 -0.573146138436247 -2.5892717109495895 -0.6071809248778728
-6.809637299466265 -1.852464424907843 -22.40869262253618 -1.3056357470617836 -13.959193750921557 -1.9506703399647973 -2.4207922396748534 -1.4580784286006974
-111.42926442204094 -0.9865975974110103 -49.82893888220351 -1.8002156403351437 -20.40048685019306 -1.0062949414407258 -62.92486945269623 -1.7474289649302506
-15.040210488628427 -1.6581761814589504 -7.255653996817704 -1.5069296487039245 -2.122718114335719 -0.7541501602974063 -4.630948612151599 -1.3906685373835983
-6.812926978794636 -0.6362609431755626 -2.304491627402849 -0.5866337965922181 -13.751346561879881 -1.0829025691414627 -6.284235843466021 -1.1035852178097025
-8.464124115307309 -0.376066589570507 -1.8128133522931777 -0.3186586645815134 -0.16703746010782833 -0.40770106049785443 21.085176407808657 -0.2947577463245321
3.7595612615005187 -0.16754172392405198 0.7845847209235222 -0.1618119364813676 8.39843926542069 -0.19233892617978368 11.144566950724592 0.12214763785572694
0.9860265770834724 -0.08473842429095159 0.9011602891632666 -0.3656909541498887 0.11339905303583347 -0.39734984758822567 -11.571129573156838 -0.753418136441581
-2.5618690693120656 -0.3702079204179205 -29.227987263360042 -0.5326336986043622 -5.801443808089724 -0.8294201834419479 -31.176296140425208 -1.1257590862781972
-4.543878906413188 -1.5672551628956288 -10.453979673775027 -0.8030110363514243 -20.621847754462962 -1.872675163994143 -9.740615341346423 -1.7948185780244392
-25.79076160167627 -1.8303960981057523 -4.278675624001027 -1.3917873904216074 -4.739552450933336 -2.3750691192918914 -34.65909685895609 -0.9546484335459762
-233.48442790398866 -1.673582204002125 -25.206101598382958 -1.6921308461678088 -7.327881849207543 -0.9680593107330935 -60.90867563457303 -0.9701135723931256
-4.164183416063806 -0.6690285871248633 -18.7190561402566 -0.8537284316269242 -0.8690424640895692 -0.4329286677965285 -4.070651253129261 -0.4761642519610631
00000000: 1a6e 1ca2 6250 07c0 8047 e059 bbc4 e9bf
00000010: a13e 8ef4 26a2 eabf 2af2 94d9 5376 e9bf
00000020: 5131 79f9 aa42 ddbf 2af3 1e43 3616 e1bf
00000030: f2a1 07ef 9d55 c83f 9247 4b4b df3c d8bf
00000040: 8585 691e 3a89 f03f 1e46 0fa2 b287 cbbf
00000050: a231 7cb6 f68b 3740 f86a 9f76 07ee b8bf
00000060: 7199 baa0 96aa ed3f 7ab7 575f 0546 b5bf
00000070: 7f59 1f09 c991 e83f c01a ec23 8ee9 9abf
00000080: 82e1 017f 083d 0f40 7ee3 4b51 f91b c3bf
00000090: 10e6 7e06 7e27 cabf b577 0df9 70e8 c6bf
000000a0: cc72 c093 c8cb 1940 62b1 de40 7716 d4bf
000000b0: 4c00 d5d9 5bf6 b43f b2fc bdfc 7f21 dcbf
000000c0: 68eb f78c fe7c b4bf 8284 c41f dca6 d9bf
000000d0: 15c8 d503 9774 f1bf 24ae 0413 034c e7bf
000000e0: 2cf6 c6e5 ff35 2ac0 5a43 9fe2 4733 e3bf
000000f0: 8db0 107c 218c 01c0 9553 94a1 d0d4 eabf
00000100: a8d3 364c 858c 2cc0 ea67 4623 0644 f2bf
00000110: 2ebe 1d8c 1a71 01c0 7750 b707 e4a3 f0bf
00000120: 9ad7 bb69 8fcf 42c0 86f7 d6c2 f49c f2bf
00000130: de83 a1be 1ed5 1dc0 00b0 0a5d 3b73 f8bf
00000140: c8bc 4294 e22b 1bc0 8c3a 308a b911 f0bf
00000150: ae57 fc03 f66d 2bc0 275b ab48 604d fdbf
00000160: 35a6 3879 239d 16c0 a2cf 77a9 ebd3 03c0
00000170: 3791 eaf6 c5f6 3dc0 1308 d7e1 bc43 01c0
00000180: bf96 5b14 c17e 42c0 95f3 5f2e d373 00c0
00000190: 2e53 e3be 26ce 28c0 8b77 1dcf d651 06c0
000001a0: 6145 b816 4b10 11c0 dcad 1860 9008 f7bf
000001b0: 13dd 4c71 024c 1cc0 8638 c0af 19c8 f8bf
000001c0: 6c10 73e1 8dcb 0cc0 74e5 e66a 0375 f7bf
000001d0: 5864 c431 cabb 1ec0 448f f785 632b f3bf
000001e0: 2d42 b48d 00c3 3bc0 10a9 b467 0e6a edbf
000001f0: 6d19 2e29 2b6b 25c0 a67b 64d0 e815 f2bf
00000200: 827f 57d8 e832 f7bf b444 1c24 757f e1bf
00000210: 7a32 6f5e 3b16 00c0 50f6 2845 4f48 e0bf
00000220: 4831 68e1 7e91 f2bf 0cd8 c2b7 2847 e5bf
00000230: 7aa2 15e9 5341 1540 fef4 6f1e 8757 cfbf
00000240: 58e5 af21 29bc e1bf a593 439a 0a79 c1bf
00000250: 9cb0 0c00 7470 cc3f 1747 df63 a4b3 ccbf
00000260: 3a67 3540 57c5 e6bf aff9 7564 9170 bdbf
00000270: 8e2f 4da7 b30c 1840 8048 7c24 d2bc 6cbf
00000280: fd6b 2187 9f56 f8bf 46e5 a898 3d3d cdbf
00000290: 943f 79ac fe42 d43f 9eb9 1766 9466 b5bf
000002a0: 7225 73ab 6db2 1dc0 17b9 c45c be5a cbbf
000002b0: 9c15 dadd 6022 ed3f be6b b1f6 ed80 d7bf
000002c0: dd53 f7d7 9194 14c0 741a 13a3 626a d8bf
000002d0: e489 f05d a0e0 8a3f 7415 05a6 b1d9 e3bf
000002e0: ee96 41da ccdb 2bc0 ba37 545f 441a edbf
000002f0: 2e07 7fe6 d60f 24c0 191a 5267 673d f1bf
00000300: 4027 3ed0 654b 1bc0 24f9 37f2 a477 e6bf
00000310: 235c 7efe dd77 38c0 92ae bf22 1ef5 f3bf
00000320: 174a 5532 f570 25c0 c5a5 f983 bc24 00c0
00000330: cc1a 888d 550e 40c0 230b 1f80 1c9b ecbf
00000340: 4380 53f3 973c 36c0 1991 e8a7 c8d5 e9bf
00000350: bc8d c352 3851 46c0 a6e2 2880 00f3 fabf
00000360: 4188 014c 0114 0bc0 1b5d b943 0c43 01c0
00000370: 1c60 19be 153d 1ec0 a0f8 255e b632 07c0
00000380: 2a9a d649 52aa 39c0 16b2 aa30 88d7 fcbf
00000390: 9fb5 2afb 893d 07c0 dea0 7fb5 987b efbf
000003a0: ee9a 3530 b31e 25c0 032e c971 7347 eabf
000003b0: 4a39 c944 0e37 24c0 6730 84ee afdd ecbf
000003c0: dab3 4994 1257 45c0 de6c d353 3ed9 f0bf
000003d0: 9909 1c13 e80e febf f640 e11c 533b e6bf
000003e0: dfd1 18dc c44c 04c0 6c31 4d7c 0ae0 e2bf
000003f0: 0a66 f0aa 4d81 39c0 ce49 a43a 1f8b ebbf
00000400: c0c2 2875 5536 0cc0 1d3f f65d 7eb5 e1bf
00000410: 270f 6065 0752 07c0 ee05 655c 0a02 d9bf
00000420: 38b7 ac05 8e5c f5bf e691 0c45 fc09 d9bf
00000430: d655 da33 48d1 dc3f 1f6d 84c1 2fa0 babf
00000440: 76c8 67fb afe0 ddbf f2fe 9783 55da c6bf
00000450: 1ce9 68ec a485 e73f 181c d693 2b83 d0bf
00000460: 082f 5c42 ad63 c3bf f45c e8c7 ce92 9bbf
00000470: 6ef6 7d53 997d 4140 0dc9 21c2 0cb4 b1bf
00000480: 13fd ae22 1685 f03f 99d5 1394 e4d8 ccbf
00000490: 3a59 2b03 88f5 0940 48c1 fd99 1512 c4bf
000004a0: 0325 9555 ee61 12c0 2d25 1eb0 5cfc d5bf
000004b0: 00f1 a68c d15c a83f c2b9 55ba 0913 e0bf
000004c0: 6216 f8ce 1e60 e9bf 5971 915f 327b e8bf
000004d0: cf39 1ac6 3367 22c0 c414 ba36 45fd e7bf
000004e0: 7e38 a40e 03dc 16c0 2132 0d92 3657 e2bf
000004f0: 41e4 3716 d4b6 04c0 3a60 e3b0 066e e3bf
00000500: 4551 6b8f 113d 1bc0 deb8 9fbc b1a3 fdbf
00000510: cce8 6714 a068 36c0 f8e6 214f e2e3 f4bf
00000520: a878 7d71 1beb 2bc0 ecd0 361a f235 ffbf
00000530: 4183 5e52 c85d 03c0 337d dd0b 4a54 f7bf
00000540: 2480 7b11 79db 5bc0 a928 e61f 3592 efbf
00000550: 33b9 56ab 1aea 48c0 54cb 4fea aecd fcbf
00000560: a80e 644e 8666 34c0 f4e3 79b9 c819 f0bf
00000570: 2a33 4a1f 6276 4fc0 4056 0713 78f5 fbbf
00000580: 053b 1b78 9614 2ec0 29f5 65bf e387 fabf
00000590: e5b1 4d29 ca05 1dc0 e3e5 6843 621c f8bf
000005a0: f196 7da2 53fb 00c0 3e04 5884 ff21 e8bf
000005b0: 4097 9a64 1786 12c0 2638 faa6 2d40 f6bf
000005c0: 10d6 0fee 6f40 1bc0 3028 d5e8 3f5c e4bf
000005d0: f5ce 6c4e 996f 02c0 caf0 623d b4c5 e2bf
000005e0: e678 1e7f b080 2bc0 ac78 f3a4 9153 f1bf
000005f0: 7026 90b8 0e23 19c0 a477 2df9 48a8 f1bf
00000600: 450f 11ad a1ed 20c0 92b5 d499 7911 d8bf
00000610: 079f dd92 4801 fdbf 8ebc bd4f e764 d4bf
00000620: 0e5d 2fc6 7b61 c5bf d57f 5830 c617 dabf
00000630: cfed fd1e ce15 3540 c837 2d98 4fdd d2bf
00000640: 38a0 cbda 9413 0e40 d810 7cd8 0172 c5bf
00000650: 9ed9 a96a 511b e93f 8c1b a5e7 40b6 c4bf
00000660: 27d9 3c3b 00cc 2040 994f d8da 8f9e c8bf
00000670: 9ee3 eaad 044a 2640 62be df4d 1145 bf3f
00000680: 48ee b19b 878d ef3f 4951 0bd9 6ab1 b5bf
00000690: d01f 4d1a 4ed6 ec3f 6013 2108 7b67 d7bf
000006a0: acaf 2f68 b807 bd3f a291 1d0e 2e6e d9bf
000006b0: 60f9 6c18 6b24 27c0 fb5a 075a 001c e8bf
000006c0: 5da2 ea35 b57e 04c0 a491 ba8f 7cb1 d7bf
000006d0: 3209 905f 5d3a 3dc0 ad1a 88d3 550b e1bf
000006e0: ea4e 85af ad34 17c0 cad0 5032 9c8a eabf
000006f0: 8c89 6dbe 212d 3fc0 cfd5 abf5 1b03 f2bf
00000700: 951d 9097 ee2c 12c0 68fb 5126 7a13 f9bf
00000710: 32d3 1706 70e8 24c0 1d9b 6e33 44b2 e9bf
00000720: 6c82 186a 319f 34c0 352e 963b 7af6 fdbf
00000730: 5eff 1bef 317b 23c0 1ce4 6daf 93b7 fcbf
00000740: d521 325a 6fca 39c0 8471 416b 4d49 fdbf
00000750: 721b 8d24 5d1d 11c0 2a89 cdda c244 f6bf
00000760: c5bd d93c 4df5 12c0 1bc9 083d 2400 03c0
00000770: 6e0e 2f49 5d54 41c0 3c3e 28df 7a8c eebf
00000780: d69c f26e 802f 6dc0 28b5 1522 fec6 fabf
00000790: 48b5 0813 c334 39c0 2a7f 4dcb f712 fbbf
000007a0: 9031 6d42 c04f 1dc0 66fb 0585 57fa eebf
000007b0: e494 b27b 4f74 4ec0 cab1 5a9e 2b0b efbf
000007c0: 8f28 8ab2 1fa8 10c0 c04a b9a3 ae68 e5bf
000007d0: dd63 2e10 14b8 32c0 ac18 b049 be51 ebbf
000007e0: d332 4324 32cf ebbf ccf6 6b71 1ab5 dbbf
000007f0: 4672 56cd 5848 10c0 cb9c 6ca0 7979 debf

arr_1 f8 [64]
0.15746249033027182 -0.3453766676392977 0.1686280998779413 -0.3524401017087198 0.1955591499013495 -0.33815262137933544 0.49630953965478186 -0.4072103935737337
-0.2959429447624466 -0.15057089150017175 -0.499303558212572 -0.2202474492354962 3.7598279007911324 -0.3524982017378024 0.45336542252104384 -0.27946035571648636
-0.3321840436649425 -0.09191542650274354 3.9592747873266143 -0.10995507678659035 -0.3150234986788616 -0.22511003836951268 -0.0971048772395593 -0.25593696811526356
0.2227107835133244 -0.39205675811527213 -0.6375252533016655 -0.4302006948411608 -0.3780013877461376 -1.0262291480171832 -2.2226498890973954 -0.665743118618133
-2.2724918415129802 -1.2429990903552204 -5.357671493653827 -1.4134042034436898 -7.126518421937044 -0.5491240323019367 -2.4330434669189827 -1.2107833956252345
-1.1150271568099777 -1.2964669256042285 -5.425894497477701 -1.695141862943919 -2.231100868467826 -1.2945212741481775 -4.337623249515856 -0.8258045432642422
-2.03586999701295 -0.6066216343574085 -4.825884099058669 -1.8344818928302802 -4.182949012587744 -0.54434414292598 -0.8678251190871187 -1.0767650181680084
-4.672011792491043 -1.1302072383615194 -2.961940857887723 -0.8266880185947192 -10.541658827246952 -0.791712533442528 -1.9328600490738017 -0.9519703631220652
00000000: 9459 281b bb27 c43f d3fb 13bd a61a d6bf
00000010: dac8 1407 9b95 c53f c9d2 a8ed 608e d6bf
00000020: 0543 a10c 1508 c93f ee60 78e4 4aa4 d5bf
00000030: 88a5 6016 89c3 df3f f063 bf2e bc0f dabf
00000040: 2725 4fad baf0 d2bf c784 5c2f e845 c3bf
00000050: d829 53e9 96f4 dfbf 5737 bf83 1131 ccbf
00000060: d5e3 83a6 2014 0e40 0336 179e 548f d6bf
00000070: e25d b767 f003 dd3f 692c 15b0 ade2 d1bf
00000080: 4ed0 f2dc 8042 d5bf c0c1 d3f6 c487 b7bf
00000090: b28f 7b42 98ac 0f40 e9db d312 0426 bcbf
000000a0: 7c05 1352 5829 d4bf bb30 66de 67d0 ccbf
000000b0: 10a8 0680 dddb b8bf ee1d f972 4561 d0bf
000000c0: 7800 d475 c981 cc3f e1f9 913a 7517 d9bf
000000d0: acc0 295c 9b66 e4bf f1ca c37e 6888 dbbf
000000e0: ef95 8dbb 2c31 d8bf d0f8 4e41 6f6b f0bf
000000f0: fc0c 41aa fcc7 01c0 cf0f 4083 c44d e5bf
00000100: efcc dd33 102e 02c0 e488 a003 53e3 f3bf
00000110: 92d1 9f6f 416e 15c0 fe1c ddb9 4d9d f6bf
00000120: 9a3e 920b 8e81 1cc0 25e7 0590 6c92 e1bf
00000130: d34e 417e df76 03c0 de00 ec68 5e5f f3bf
00000140: 5769 4ab7 26d7 f1bf a00d 5d1a 54be f4bf
00000150: 32da e8af 1db4 15c0 5acb f612 4d1f fbbf
00000160: 0e2c 8169 4bd9 01c0 3015 87f0 5bb6 f4bf
00000170: ce28 bce8 b959 11c0 10a9 46a6 fd6c eabf
00000180: 3ba0 8035 7649 00c0 748e 13c6 7169 e3bf
00000190: 40f9 ae8f b44d 13c0 b4f6 6caf 095a fdbf
000001a0: 7399 67fc 56bb 10c0 075c 7468 446b e1bf
000001b0: 200c 242f 39c5 ebbf 9422 a8f4 6d3a f1bf
000001c0: fa19 fddb 23b0 12c0 7871 672f 5415 f2bf
000001d0: fa82 6a0c 0eb2 07c0 de7f 7b6e 3a74 eabf
000001e0: 123b 494e 5415 25c0 c101 df85 b555 e9bf
000001f0: 5c45 a8a8 feec febf 41db 0b8d 8a76 eebf

arr_2 f8 [32, 64]
0.37392262955823347 -0.18079635836116603 0.6236165788249644 -0.15967999776932498 0.4922079532426533 -0.13934976899536045 0.6950344322151626 -0.1273520009349516
0.7634327576432421 -0.1128490981156133 4.1114031343440445 2.501715083428971 9.646081717065638 1.5665325628832192 3.3787044789556084 1.481451423854069
16.28723982181152 1.5319163643171432 10.79896874950763 1.6953393246503967 2.14576727974818 1.8734176029516751 6.832437503982059 1.9582997806057343
13.426196783024217 1.6121166481991676 3.899711824009814 1.2359334662095978 2.9717897846297188 1.1956876274923878 8.079892221431741 1.3414007848657703
5.278774862869815 0.5687721070919391 6.472629559349885 0.9075852251713008 8.112003006156538 0.7314562712994522 1.5242866154028767 0.7250560935347918
3.565060493077298 0.7649611173102637 -0.10092904655434892 0.3883093160270195 -1.1820662913136135 0.3024415990710142 -0.870408851994143 0.3520621365086694
1.1731528247575793 0.8623936858603696 1.512588713082367 0.6427474988655124 -0.7038771915694502 0.7073457285489557 6.765985212960234 0.9266720790794047
0.868560848878015 0.6663956912869216 1.5222620311649606 0.5459024935639638 2.4791925467810576 1.1388557700697577 3.3591962263853503 0.8242108107926129
8.562116205141901 1.195102442969802 5.750879031462267 1.2537268071698895 4.2375841721709495 1.1549773169500606 20.43864081689678 1.3462308188467462
17.382418811328048 1.7881004349843863 4.641284737120609 1.131307447094586 9.539579812395125 2.572497220518434 15.965571641696322 1.9544019534443566
16.952549063448505 2.6103412156217844 27.909426321864196 1.8246096662826092 20.925633465042466 1.403469673676601 12.270248036318826 1.3054569695421245
2.418142202484338 1.2954144681858208 12.286999435317092 2.087424922147884 3.5926596266906374 1.4142634562178742 6.3285240525881 0.6320856924497622
0.9866896337558582 0.783133178095317 1.675832524465362 1.3053973153315295 0.726703836227633 1.027352794509155 0.2929897861677522 0.36741640390223196
3.5720057000968275 0.3451839729574855 -0.2245651559435249 0.3694305700766125 0.22661781715213627 0.8202832488223986 0.45769998378556515 0.35998416381011095
-1.841299037373382 0.4272270800488801 -2.7292502500925364 0.43637923093171127 0.10591102459685647 0.9091376504555367 4.920033060701611 1.0787770719666143
3.454690915034937 0.9611884070172444 3.6190720517600807 0.6705397033679923 7.628177585820608 0.7783416984817237 5.3865819024336705 1.1515340830599343
2.1697047458225884 1.2741973284090449 2.907782771346195 1.2668314860838623 6.91926768229233 1.9317417135143695 4.172168765039216 1.733278912973488
16.179279895438878 2.2006447376070195 21.183404352340553 1.5566134606220086 4.82316712291599 1.6122456182218117 8.727197864341498 1.8897802596260236
7.701112473351319 2.565184576251138 3.4654649812037706 1.5794316381919644 5.309387251776624 2.532468062685105 4.27348103065316 2.1636033851677263
19.173696976603473 1.791377498737244 12.348173217132533 1.338898169060044 1.3683177500133703 1.2272838625962108 8.864443318864572 0.8583410315368627
2.110806373396345 1.3695724544637395 0.9532121571493284 0.6192518101959791 1.7370566387948694 1.0309910197726389 0.7860027913762144 0.926686236039545
1.0818666043171683 0.8698987873017182 -0.19281649180406707 0.33634238887950274 4.353518307689887 0.524403657227644 -1.0805578435436187 0.6972191881749484
-2.1130992847626433 0.839155534663668 -1.1370405057845305 0.3377088145623689 -0.951786475302379 0.511098342055365 1.1399301637720263 1.107401613968055
1.2569496085442426 0.6741167928683907 0.5842651781446657 0.7074562181896185 5.599419480598067 1.2418219821402858 9.962075468542992 1.3101871407959997
3.145261232120224 1.1068239786424074 13.1348378221148 1.153639562928324 7.255060577997703 2.06593183251372 24.45563462909349 1.4193697156955771
3.2532089235161425 1.4680274505876807 7.708521744070339 1.7644624123508228 5.049177988865782 2.7007989799125696 11.981862219543455 2.140983071173268
5.738442853388451 2.6890630684509533 26.27424392719752 1.2664221446921053 3.829370720911988 0.9132735830401812 6.9562480758119225 1.54968923071169
10.214193336675098 1.854533478480382 11.298604062158763 0.8422641380765534 5.656111830498104 1.2959958748432707 2.4084944325323505 0.8742160995865269
4.348686455006551 1.2376702193632958 0.8094787748062582 0.4456881441717057 -0.044295463676246705 0.39761707666158236 0.2928760480272102 0.6374951309864532
-0.20760055104643224 0.47198147865149004 0.1804291168854129 0.6110583505467473 -0.2561168537041068 0.5198152721937377 0.9905677875267795 0.5405022529420775
0.08840956246893568 0.3787741214147285 -2.377990771055237 0.5974944150111112 1.2206440626213657 0.7814250838502813 1.6475349780405035 1.1922548432021056
11.02001211504303 0.7987178035158657 1.6731853167047035 0.9226332801851836 3.8297625114100713 0.7691552830335983 21.556054585831628 1.645102492050317
00000000: c1f6 4b2e 59ee d73f 50d4 32c7 5524 c7bf
00000010: fa7d 69c1 aaf4 e33f 2d4f 1fe8 6470 c4bf
00000020: e087 80c9 5580 df3f 3026 4596 36d6 c1bf
00000030: 5da8 7ed9 b83d e63f 7942 8c03 124d c0bf
00000040: efba d888 0a6e e83f ca26 cab1 ade3 bcbf
00000050: e0b7 caa9 1372 1040 14e6 9932 8303 0440
00000060: 4eae 0a39 cb4a 2340 663d db72 8410 f93f
00000070: 58b4 bf36 9607 0b40 c40d 8168 06b4 f73f
00000080: 13ca 888c 8849 3040 8b30 cfbb ba82 f83f
00000090: 9452 936e 1299 2540 5bf0 af20 1c20 fb3f
000000a0: 35c3 1a09 882a 0140 bcd9 86bc 84f9 fd3f
000000b0: 6b44 3e7f 6a54 1b40 1d73 9726 3255 ff3f
000000c0: b47f f976 36da 2a40 18a4 95d3 3acb f93f
000000d0: c292 df1c 9c32 0f40 2e6f 962b 62c6 f33f
000000e0: 7c92 fcb8 39c6 0740 76fc 8459 8921 f33f
000000f0: 1c82 1ca2 e728 2040 463c 5dab 6076 f53f
00000100: 16e4 5b28 771d 1540 cac7 da8f 6133 e23f
00000110: 621f d200 f9e3 1940 6c31 8e2b f00a ed3f
00000120: f6fd 4075 5839 2040 93ed 75fb 1668 e73f
00000130: 962c ae5c 7a63 f83f 18eb 2fd6 a833 e73f
00000140: a23a 906f 3e85 0c40 fce4 b1bc 8f7a e83f
00000150: 14da 2a6a 7cd6 b9bf 055d 4451 0fda d83f
00000160: ee55 ee57 bee9 f2bf d26f 3d02 345b d33f
00000170: 07d7 2eaa 63da ebbf 61bc 9da0 2f88 d63f
00000180: 7fb3 78e5 3bc5 f23f 8a82 a1a4 ba98 eb3f
00000190: c6cc ef38 9033 f83f 50d2 e633 6391 e43f
000001a0: 9e1d c675 2986 e6bf 6aa8 6282 93a2 e63f
000001b0: 0389 7b6d 5e10 1b40 5465 3834 4ca7 ed3f
000001c0: dc8b 101f 40cb eb3f 78b9 880e 1d53 e53f
000001d0: 93bc 7c6e 2f5b f83f b82f 9581 0878 e13f
000001e0: f14a e7e6 62d5 0340 d4f7 f4d3 c038 f23f
000001f0: a05f 6945 a2df 0a40 34a5 ab59 ef5f ea3f
00000200: ae45 fbb1 cd1f 2140 d2cc 3ebd 231f f33f
00000210: c687 cd6e e600 1740 5c9c 2ed7 430f f43f
00000220: fa15 e643 49f3 1040 e4c1 be7e c97a f23f
00000230: 2c43 bbc3 4a70 3440 7406 bd53 298a f53f
00000240: 7707 0033 e661 3140 808a a333 0f9c fc3f
00000250: 8a6d 35f2 ac90 1240 45e1 6fd6 d519 f23f
00000260: 44a3 1fce 4314 2340 ac6b 396c 7994 0440
00000270: bc0f fe67 5fee 2f40 2e83 94fb 3a45 ff3f
00000280: c558 6341 daf3 3040 baf8 4393 fae1 0440
00000290: 3e87 d629 d0e8 3b40 7463 cae7 9931 fd3f
000002a0: c870 9450 f6ec 3440 94e6 d59d 9c74 f63f
000002b0: 5c98 5bf3 5d8a 2840 914c e8d8 26e3 f43f
000002c0: 2cfb 65f0 5a58 0340 2cf9 7985 04ba f43f
000002d0: 9450 0997 f192 2840 15d8 6bd6 0bb3 0040
000002e0: ea5d 9254 c4bd 0c40 a023 c6b7 d2a0 f63f
000002f0: d742 f79b 6850 1940 76eb 2ac6 0b3a e43f
00000300: 7c13 8923 f692 ef3f 2c9f 8a4f 6d0f e93f
00000310: fa6d e2c3 35d0 fa3f 7229 9a4b e8e2 f43f
00000320: ac36 4f67 2841 e73f bcef dd7b 0970 f03f
00000330: 08c3 693b 58c0 d23f 6e89 b117 c083 d73f
00000340: e854 78b9 7793 0c40 fc2a bd84 7e17 d63f
00000350: 419e 4c10 8dbe ccbf b8c9 271e c0a4 d73f
00000360: a1fe ad08 d001 cd3f 3cc3 e4a7 c23f ea3f
00000370: 6547 6fdf f44a dd3f fd1b a904 fb09 d73f
00000380: a0cc bafa f575 fdbf 06a2 3140 b057 db3f
00000390: 66fa b527 81d5 05c0 5a57 6027 a3ed db3f
000003a0: e4e9 ed22 fc1c bb3f 179a 88d7 a717 ed3f
000003b0: 0ecf 8b25 1dae 1340 0757 3cbf ab42 f13f
000003c0: 2ee8 8efd 34a3 0b40 6dde ad30 0ec2 ee3f
000003d0: d66a 410c dcf3 0c40 7a52 14ae 0f75 e53f
000003e0: 0fb8 2cfc 4083 1e40 74f2 82d9 2ce8 e83f
000003f0: 5ab6 5020 dc8b 1540 5a8c af00 af6c f23f
00000400: a745 6a29 8e5b 0140 c0ad e2bc 1c63 f43f
00000410: e86e 169d 2343 0740 4e5f a417 f144 f43f
00000420: 71dc de81 54ad 1b40 becf bdff 69e8 fe3f
00000430: cff1 3c02 4db0 1040 bb14 61ab 82bb fb3f
00000440: 83bd 8749 e52d 3040 dc17 d1a0 eb9a 0140
00000450: 2a3f 6f96 f32e 3540 9828 1e84 e3e7 f83f
00000460: 3044 8052 ec4a 1340 9a1c b60f c2cb f93f
00000470: b422 4a47 5374 2140 c785 bb39 8a3c fe3f
00000480: 4472 9f6d f0cd 1e40 389e b97d 7f85 0440
00000490: aaa0 3db4 45b9 0b40 c7d5 041c 5a45 f93f
000004a0: 3cb8 0003 d03c 1540 102d 9b9d 7e42 0440
000004b0: 42ed 4a69 0b18 1140 727b a64a 0f4f 0140
000004c0: 0eed b167 772c 3340 2fde bd73 7ba9 fc3f
000004d0: ccda 89c2 43b2 2840 3e98 8c7c 206c f53f
000004e0: ea7f 2d27 a1e4 f53f 0626 4c67 f4a2 f33f
000004f0: bf89 8f50 98ba 2140 dc80 689c 8777 eb3f
00000500: c467 af73 eee2 0040 91c9 56ce c4e9 f53f
00000510: 2c64 23c8 b680 ee3f 19fa 182c e9d0 e33f
00000520: 44c7 eee6 fbca fb3f 704a 8670 f07e f03f
00000530: 52d1 7053 ef26 e93f 8d2e aee4 69a7 ed3f
00000540: 37d4 425b 534f f13f 614f 49fb 35d6 eb3f
00000550: 16c6 36f7 35ae c8bf 1cbe 1f3a a286 d53f
00000560: e642 08b4 006a 1140 be41 b62d eac7 e03f
00000570: 4c4c 7705 f749 f1bf c35c 6b9d 9e4f e63f
00000580: 670d 0a99 a0e7 00c0 4169 34b5 5cda ea3f
00000590: 5426 a962 5131 f2bf 8271 876e 059d d53f
000005a0: d05c 06e9 0875 eebf 185d 05e9 ea5a e03f
000005b0: 16ff 5169 273d f23f 927c 38c1 eab7 f13f
000005c0: 2eae 5631 771c f43f 8cbb 6161 5d92 e53f
000005d0: a255 0ae3 4cb2 e23f 743d 0f39 7ba3 e63f
000005e0: 1a04 6738 ce65 1640 5af1 0bba 80de f33f
000005f0: 205a e327 95ec 2340 b0bc 95ca 86f6 f43f
00000600: 0aaa 8ab8 7e29 0940 f429 6b0f 8db5 f13f
00000610: 6e7e 8876 0945 2a40 d661 22c2 4e75 f23f
00000620: f8fe a399 2e05 1d40 524b c344 0787 0040
00000630: b2e1 9678 a474 3840 7086 dd04 bdb5 f63f
00000640: 2475 6c66 9206 0a40 3278 1e5a 0a7d f73f
00000650: e025 5db9 86d5 1e40 bc16 41f0 3c3b fc3f
00000660: 4472 f7b6 5b32 1440 705b de7e 3c9b 0540
00000670: f63b 14a5 b6f6 2740 a3d4 7fbb bb20 0140
00000680: c212 055d 2af4 1640 aa06 7f7f 3383 0540
00000690: a170 9ad9 3446 3a40 d61f e6dd 4343 f43f
000006a0: 8e9d d41d 8da2 0e40 8caa 6e85 8939 ed3f
000006b0: 8ae6 11b2 32d3 1b40 f6eb 4def 86cb f83f
000006c0: d214 c0bf aa6d 2440 d690 f64b 2bac fd3f
000006d0: 6ad9 b2a1 e298 2640 d43c f4eb d3f3 ea3f
000006e0: 3f08 9ac7 db9f 1640 7e3e a32b 66bc f43f
000006f0: a098 a2ba 9844 0340 c68b ab0a 94f9 eb3f
00000700: c93e e30f 0e65 1140 4360 b649 7fcd f33f
00000710: 3c2b 1308 40e7 e93f 97ac db90 2786 dc3f
00000720: 8086 b31f e5ad a6bf 81ed 25e5 8e72 d93f
00000730: fdbf 032e 7bbe d23f 1046 5e30 5c66 e43f
00000740: ef20 b0a4 a792 cabf 490e c8cd f134 de3f
00000750: ea6e 2222 4d18 c73f b278 f13d ca8d e33f
00000760: 7d44 a7f1 3764 d0bf f411 41a3 53a2 e03f
00000770: 4ac1 7c37 bbb2 ef3f 0c9e 7961 cb4b e13f
00000780: f52e 7553 02a2 b63f 7908 03d0 d53d d83f
00000790: fef9 7e06 2006 03c0 f27d 809b ac1e e33f
000007a0: d73e 9011 c287 f33f 0b27 6d2d 6f01 e93f
000007b0: 5e33 1ba3 4d5c fa3f 78cf 80d0 7913 f33f
000007c0: 6844 2707 3f0a 2640 d4ac 9aa3 188f e93f
000007d0: 404e 76f7 5dc5 fa3f 1717 933a 3686 ed3f
000007e0: ea9f 0f87 5aa3 0e40 0399 458a eb9c e83f
000007f0: 0bf0 e497 598e 3540 92c9 9efd 5652 fa3f

arr_3 f8 [32]
6.148782690263381 0.6968392203092388 3.9631231554120907 1.1113657706008246 10.500290370535957 0.8357990291567152 9.97742551269367 1.0484742279937997
26.62395341656167 1.5999649960443054 15.186334435082998 1.580450501975542 4.1277702368659455 1.661720954332527 14.337427102684433 0.8242881834083917
12.015848930315656 0.4808118862519662 2.4626766049518327 1.8375969660574945 22.246804218826142 1.8491000553210792 3.753924318889296 0.7332355993114277
13.071264121448797 1.9611624084964814 3.614255512160664 0.7471676105531133 4.869659857106004 1.3101574565409968 5.854917886445584 0.6030899500009669
00000000: 8891 537d 5a98 1840 d68b b9c3 814c e63f
00000010: 3e1f b4e9 79b4 0f40 76fd 6979 27c8 f13f
00000020: 4ce9 370f 2600 2540 6a36 089b ddbe ea3f
00000030: 3897 e61d 71f4 2340 5dea 7ee9 8cc6 f03f
00000040: 1e5c 3e69 bb9f 3a40 bb14 4ce5 7499 f93f
00000050: a899 213a 675f 2e40 64e8 2e77 8649 f93f
00000060: 34f7 7233 d682 1040 52fa 1eb6 6896 fa3f
00000070: 9aa0 c53e c3ac 2c40 40fc c69c 9160 ea3f
00000080: c0c3 da59 1d08 2840 b1bc be37 9fc5 de3f
00000090: b423 b7ca 8fb3 0340 d621 8713 cc66 fd3f
000000a0: 845f b08f 2e3f 3640 582c 8af0 e995 fd3f
000000b0: 0e4f 2a79 0908 0e40 00c7 e980 aa76 e73f
000000c0: 6300 1ebb 7c24 2a40 1231 6ad5 eb60 ff3f
000000d0: 38f1 40cb fee9 0c40 4298 7e0c cce8 e73f
000000e0: 44a8 131d 887a 1340 1644 47aa 67f6 f43f
000000f0: 6832 2c98 6f6b 1740 1b9d 794b 834c e33f

arr_4 f8 [1, 32]
-4.171025763756215 -0.7441694345771757 -1.889562584920703 -0.298755833711052 -2.536768615585551 -0.8785773161283702 0.4219873443373445 -0.19131125533998256
-0.051096024899084456 -0.3719309441511371 -0.15060068313624517 0.08501242411971272 0.47468066216739185 -0.025046209020714714 0.1946848831626858 0.010854355400916697
0.8853269406376617 0.060789713258971555 1.8452283589584884 -0.14737123518246492 0.13368932242998693 -0.20047639965469716 -0.20847989429693697 -0.6498608539122528
-0.940704348519947 -0.2535249950444138 -0.6162117503989769 -0.3073893043239391 -0.5982628984658227 -0.4907216089464112 -5.430570806538404 -0.6035932221195164
00000000: eb6c b860 21af 10c0 1223 066b 3cd0 e7bf
00000010: 9dac 1ffa a53b febf bfcd d1c9 d01e d3bf
00000020: 50ac 0b58 4d4b 04c0 f5eb f82c 4e1d ecbf
00000030: 684e d034 d701 db3f fa5d 8520 e37c c8bf
00000040: cb59 cb17 4229 aabf 67f8 5f72 b7cd d7bf
00000050: bfa7 6918 e246 c3bf 8c0c 59cd 5fc3 b53f
00000060: 595d 0300 2b61 de3f 96ef 87a2 b6a5 99bf
00000070: e3ca 1a2b 6feb c83f af91 baeb ce3a 863f
00000080: c5ce 092a 9954 ec3f f3d0 c24c d41f af3f
00000090: 280e f62b 0e86 fd3f 766a bd85 0fdd c2bf
000000a0: faa1 d451 bb1c c13f 0681 11ee 35a9 c9bf
000000b0: 2e7f f01b 78af cabf cc1e 50fd a8cb e4bf
000000c0: 1d24 8301 401a eebf e3cb 9be6 c039 d0bf
000000d0: 13fc 6bb4 01b8 e3bf 6189 4d30 44ac d3bf
000000e0: a044 ea3b f824 e3bf af61 779b fb67 dfbf
000000f0: 77c7 b28d e7b8 15c0 16e6 a2bb a250 e3bf

arr_5 f8 [1]
-0.17418636402074106
00000000: f869 7020 bd4b c6bf
