enhanced_model_checkpoints/enhanced_params_round_12.npz (npz, 26570 bytes, 6 tensors)

arr_0 f8 [64, 15]
0.2720134322203843 -0.11102070422373159 0.3513698396865161 -0.23357836117893857 0.5867332805464007 -0.1657765382545864 0.4712538031404147 -0.09708451728720903
0.15268673099683489 -0.11024839081913972 -1.5624549281169033 -0.19981803423534694 -0.40581431944935953 -0.07359428450157818 0.10175475898298329 -0.1127043948959917
-0.8789719430147286 -0.11637085082757123 0.9510084011143292 0.07524570395833909 -3.949577330869963 -0.14862241655728295 -0.8162404802013803 -0.31458715204317356
0.02568455588394178 -0.6176699503675109 -0.41929560196504206 -0.4344586721173481 -1.818641220743068 -0.30435562486071466 -1.7685693217297764 -0.2941035875155334
-0.48284104139963463 -0.3824655529780449 -0.5430755177864462 -0.547887858361774 -1.3840378520822938 -0.5328234815498538 -2.0228677047195522 -1.2994474769119446
-1.6295039385146084 -1.3240623119651707 -7.8751972651550535 -0.7691323427767622 -6.040968076451621 -1.0394352563098983 -2.2722207447711553 -0.6858468097726791
-4.059991930695901 -0.33165848049420005 -4.855369197743098 -0.8628478700841002 -1.282003095192268 -1.2462581970097675 -6.090516754725997 -0.3523689909020778
-6.210252278087312 -0.22470546547160467 -5.602670212883296 -1.157109506349284 -1.0359541284606102 -0.2672009394451069 -5.810503771339728 -0.2013353063345938
-5.135049237415791 -0.4074247576794452 -1.309250039148495 -0.5059111232405004 -0.0783703926211402 -0.13422756384699674 -2.3383624563150898 -0.2884375338828118
0.09409294067584317 -0.318940634892932 -1.7854307435699839 -0.1540964867944467 -1.0909873217841524 -0.1109253835317412 -0.6479076759820964 0.2066844865965648
-0.18842716752072666 -0.11506713187386193 -1.9905774358546982 -0.1533084703507186 -0.6856393406690211 -0.16597685119247652 -0.5325732675235947 -0.20699534318479101
0.3346382992883056 -0.33754982727904226 -0.857523939108849 -0.2604358813081744 -2.3990956797576612 -0.2765943186381793 -1.440730164050045 -0.5142748078559216
-4.172995803141764 -0.6762489009949098 -10.905768062345947 -0.3436927123354301 -2.3173301592459272 -0.30463855442850496 -2.528284122705984 -0.40884586331636474
-2.520998256986465 -0.6704434506796191 -1.4304642179501754 -0.22683212836042282 -4.281285968645538 -0.543940148094854 -0.8708081349155263 -1.4568940138091158
-2.1819202336887726 -0.3655303472455046 -7.52071112834545 -0.6171652723518961 -10.004944981883165 -1.0791014896821394 -2.081150320415621 -0.2898783324625882
-6.8765492341878165 -1.3903570645382968 -2.1655990622251853 -0.28124101362226295 -3.236081596601749 -0.33308931958105326 -1.3338198921670728 -0.19695457011956075
-3.6643225104032737 -0.3504133490179196 -0.3505042347228847 -0.21006844712603603 -2.9688534652928404 -0.1705600022039931 -0.3546212726097329 -0.20277340059887702
-0.17295780176799708 -0.10725580427848444 1.9895205433064933 -0.1855513050544796 -2.5219422706199044 -0.0875543313425682 -2.8477807551301173 -0.131601336503709
-0.7627035612579348 -0.1466068821642287 0.24069919831523276 -0.11942257286479083 1.7110394152104522 -0.11747493512856626 -0.8948235522042853 -0.22910954675118558
-1.367763069953405 -0.40042923604322794 -0.27382157863411577 -0.2429908407913736 -6.267052251507858 -0.532779628785172 -5.575462292378294 -0.6005846084427161
-0.8731125174251992 -1.219871623937054 -0.5947456356283689 -0.4270470422920336 -2.368125575661498 -0.6230169498957423 -19.045971239889354 -0.9653143073036279
-2.3443273979814574 -0.5455830981431413 -1.5967143715447887 -1.2023423536770728 -5.547796648297744 -0.34509021035171733 -2.6087735770364153 -0.7670911238104734
-7.6713504516080135 -0.2898315234239917 -13.834037820737603 -0.5143307825523237 -5.661390274944402 -0.6115340399424792 -1.705136127039907 -0.4993740461637
-1.187325587707511 -0.36277064964842 -11.578848890721893 -0.4722385990703286 -1.8969297262457074 -0.2980411641151363 -0.017225032163249325 -0.654441290467247
-0.43345428557599175 -0.17008740654258933 -9.472910018565893 -0.17100355693675529 -1.2560771797740569 -0.2250130567895645 -0.7111995617558712 -0.11675856308949557
-0.138738807571004 -0.07877594372946983 0.4035247919903597 -0.001020955142269006 -2.5296128480550943 -0.08785053382265491 -0.8876504727836665 -0.07197455783061954
-0.3110689062950219 -0.1728415643972338 0.8685372889310167 -0.106062619234202 0.057013002323390655 -0.18778564212309848 -0.1591033785786873 -0.18081765027074506
1.6243722185794485 -0.2716051206978334 -0.6915745154231497 -0.6499686734843286 -4.4056227741448195 -0.23942123022764114 -1.201985361796445 -1.0256143272889915
-1.985530061165726 -0.19023272874644856 -1.5893697202185646 -0.2803731734329265 -2.291709578874681 -0.5764030489365535 -4.628911434744218 -0.5528482614592725
-4.4492185345214 -1.7742765401315896 -1.2543469135212248 -0.5404665569612555 -3.152787108996142 -0.20567591519661294 -4.79767709295766 -0.7027208136609411
-8.00320798488858 -0.487472711321424 -9.179438488616467 -0.20705198914175207 -4.957189654011807 -0.2771264914738586 -0.6530781617241864 -0.2364336119476764
-0.47872679964586007 -0.38391602238024236 -2.1499906612250284 -0.26824469107398236 -2.831775735319554 -0.1854516433895286 -1.8350526279752308 -0.2882569873549247
00000000: 9264 dd06 ab68 d13f 7adf d155 da6b bcbf
00000010: 4347 90ec d77c d63f 778d 284f e5e5 cdbf
00000020: 9e7d 6ddf 84c6 e23f 71af 1f65 2a38 c5bf
00000030: 13a3 26b6 0529 de3f 714e b2ea 87da b8bf
00000040: 2610 1522 3d8b c33f a73c 0111 3d39 bcbf
00000050: 31c7 1bbd d0ff f8bf ac8d 1829 a393 c9bf
00000060: cc24 929f dcf8 d9bf 1c57 1b35 13d7 b2bf
00000070: a355 0b92 990c ba3f d799 31fa 31da bcbf
00000080: d931 abc4 8920 ecbf d619 83e6 7aca bdbf
00000090: c03b a02b a96e ee3f 6962 aa6d 4d43 b33f
000000a0: 2ee0 e8ff bb98 0fc0 5173 4831 0f06 c3bf
000000b0: 465c 045b a41e eabf f819 7126 3222 d4bf
000000c0: 38a0 225e 0d4d 9a3f e69c 91c5 f3c3 e3bf
000000d0: adf9 7238 bdd5 dabf 4649 0dbf 2bce dbbf
000000e0: e1fb 6389 2719 fdbf b458 c803 907a d3bf
000000f0: d89c 5858 0f4c fcbf c9fd 80da 97d2 d2bf
00000100: c397 7e1c dee6 debf d7c8 78cc 507a d8bf
00000110: 6dd5 84e8 df60 e1bf f141 311e 4c88 e1bf
00000120: a0e9 f1df 0425 f6bf f884 79d4 e30c e1bf
00000130: 913d 5f43 d52e 00c0 e54d 0370 89ca f4bf
00000140: 9af9 c9b8 7212 fabf dc1a 7cf6 5b2f f5bf
00000150: f28e 3db6 3380 1fc0 aeb4 506e bb9c e8bf
00000160: b228 1289 f329 18c0 f690 02dd 86a1 f0bf
00000170: d3ad e011 822d 02c0 5244 4102 75f2 e5bf
00000180: 8073 5186 6e3d 10c0 2179 ca7d e439 d5bf
00000190: dc3f 29e7 e56b 13c0 28e7 ed22 739c ebbf
000001a0: 898b 73ad 1583 f4bf 4776 686f acf0 f3bf
000001b0: 2127 956c b05c 18c0 ed21 03ab 368d d6bf
000001c0: 922d 895f 4cd7 18c0 856c b710 26c3 ccbf
000001d0: af6d 5a61 2269 16c0 f692 fa41 8583 f2bf
000001e0: e34f dea2 4493 f0bf 3824 18f8 d119 d1bf
000001f0: 53c1 5cb3 f43d 17c0 4a5d 1ef6 5ac5 c9bf
00000200: c633 e858 4a8a 14c0 a017 744a 3f13 dabf
00000210: 41df 462b b0f2 f4bf b504 2086 6c30 e0bf
00000220: 6850 4801 1510 b4bf c0e8 786a 5e2e c1bf
00000230: 528a 2060 f7b4 02c0 e0cb bdb3 c275 d2bf
00000240: 18ba fc96 7916 b83f 78c2 0efb 8569 d4bf
00000250: 277f ced3 1f91 fcbf 66f6 9a05 6fb9 c3bf
00000260: f49d 361f af74 f1bf 70a9 901e 9b65 bcbf
00000270: 7b74 e5e0 a8bb e4bf fcea 4223 a374 ca3f
00000280: b5f7 16a5 611e c8bf 4525 3e20 0a75 bdbf
00000290: 686c b2b9 67d9 ffbf 6895 2da9 9c9f c3bf
000002a0: 48c8 20ea c1f0 e5bf 2ce3 e1bd ba3e c5bf
000002b0: 399b d717 d70a e1bf a694 b3ca d27e cabf
000002c0: 56ab dbc1 b66a d53f 98c5 3b97 6a9a d5bf
000002d0: a94e 400b d670 ebbf 641b 3b42 fbaa d0bf
000002e0: b945 6413 5931 03c0 52dd 33a8 b8b3 d1bf
000002f0: 604a 8f12 3b0d f7bf 54bb 1c71 f074 e0bf
00000300: 455b d3cf 25b1 10c0 9e54 37bc d4a3 e5bf
00000310: 0313 dbd4 c0cf 25c0 58ab d6b7 0fff d5bf
00000320: 41f7 ff64 e489 02c0 d6c0 17b5 327f d3bf
00000330: 6125 b006 ed39 04c0 741d 03d7 872a dabf
00000340: 2d3d 5822 012b 04c0 3490 cfd2 4574 e5bf
00000350: 861b a372 2ee3 f6bf 46bb 7ece d508 cdbf
00000360: 04a0 d06d 0920 11c0 ba8f 612b f567 e1bf
00000370: b2b1 9105 a9dd ebbf f0c5 f018 704f f7bf
00000380: 4364 7198 9274 01c0 9a5b c765 d964 d7bf
00000390: bca0 4b4c 3515 1ec0 744e 9f62 d1bf e3bf
000003a0: 5def 0e26 8802 24c0 a6fe 73ec ff43 f1bf
000003b0: caf5 a123 32a6 00c0 b4bb 6fd9 5d8d d2bf
000003c0: 9cae 581f 9681 1bc0 d245 9f0c e73e f6bf
000003d0: 240b e499 2553 01c0 f04b f34e daff d1bf
000003e0: 5ebc 84bf 7ee3 09c0 4ed7 8fdd 5551 d5bf
000003f0: 08ca f986 5357 f5bf 500a bbae ce35 c9bf
00000400: f06d 0152 8850 0dc0 7948 871c 2c6d d6bf
00000410: 92a2 4f50 a96e d6bf 55f6 29db 85e3 cabf
00000420: 6564 e03e 36c0 07c0 3265 bcff e8d4 c5bf
00000430: f1c7 146c 1db2 d6bf b712 0992 7af4 c9bf
00000440: 9e3e 1733 7b23 c6bf 16a9 aecb 1d75 bbbf
00000450: 6e8b 437e 13d5 ff3f bc34 7829 25c0 c7bf
00000460: 24b3 b511 f02c 04c0 714e bded f569 b6bf
00000470: 41b2 cb46 41c8 06c0 5958 3206 50d8 c0bf
00000480: 73a8 844c 1168 e8bf 15c7 21aa 03c4 c2bf
00000490: dbfa 7738 3bcf ce3f 9ec3 db4c 7a92 bebf
000004a0: 08ef a7dd 6a60 fb3f 0317 7a5c d612 bebf
000004b0: f60d 8d00 65a2 ecbf 75b5 3f2d 7653 cdbf
000004c0: e005 6287 5be2 f5bf 57bf 4af2 a1a0 d9bf
000004d0: 330c 4bf1 4a86 d1bf 4d97 36e9 521a cfbf
000004e0: 9a32 3a25 7611 19c0 486f 33dd 870c e1bf
000004f0: 4462 b7fc 454d 16c0 ffc1 7736 fd37 e3bf
00000500: 0639 82a9 89f0 ebbf 860c a21b 9884 f3bf
00000510: 6ecd ceff 2708 e3bf 2cdc 1f1e bd54 dbbf
00000520: 684c 62d2 ebf1 02c0 00fd 143e c1ef e3bf
00000530: a0e1 6bc5 c40b 33c0 f65b 87d4 dae3 eebf
00000540: bc93 0bb9 2ec1 02c0 08ce 78af 6a75 e1bf
00000550: b268 6d5e 248c f9bf 1638 fa55 cb3c f3bf
00000560: 5c30 c59a f130 16c0 4158 e83f f515 d6bf
00000570: 9e52 60ae c4de 04c0 fe2b 3aaf 028c e8bf
00000580: b83e 277e 76af 1ec0 812d 9d84 998c d2bf
00000590: e663 5701 07ab 2bc0 196d 4cd4 6575 e0bf
000005a0: 581d 037e 43a5 16c0 d732 bed5 af91 e3bf
000005b0: 00d5 cdd1 3c48 fbbf 61a2 2f8f bef5 dfbf
000005c0: 1a86 8e1d 49ff f2bf a412 0c63 a237 d7bf
000005d0: ecf3 bde1 5e28 27c0 649e ba3e 2839 debf
000005e0: 9991 10fc d259 febf 331f 2f3f 1b13 d3bf
000005f0: 9e3b 4157 70a3 91bf 00af 76dc 2ef1 e4bf
00000600: 1409 370b b7bd dbbf 9beb 4794 6cc5 c5bf
00000610: ed61 0f43 21f2 22c0 4482 45ce 71e3 c5bf
00000620: 921a 8662 e418 f4bf 17c6 0a54 3acd ccbf
00000630: d378 5595 25c2 e6bf 6d51 ffa1 e3e3 bdbf
00000640: 450c 9a78 31c2 c1bf 7894 0706 a92a b4bf
00000650: b352 2ea6 59d3 d93f c032 973c 32ba 50bf
00000660: 1f81 2fa9 a53c 04c0 7d56 b461 5f7d b6bf
00000670: 2a50 dcf6 a167 ecbf 66cd 06b4 ec6c b2bf
00000680: 21bc d58e 8de8 d3bf 5ee0 3c21 ac1f c6bf
00000690: 4716 6ab6 0ecb eb3f 2f62 f078 eb26 bbbf
000006a0: ecf9 d9e8 ce30 ad3f 5ddd c923 5c09 c8bf
000006b0: 59db d6df 7f5d c4bf c1e8 3963 0825 c7bf
000006c0: 6e46 35b9 6dfd f93f 64b1 b471 fa61 d1bf
000006d0: c9a9 cfe0 6021 e6bf 2c45 811a 8bcc e4bf
000006e0: f3db 9593 5b9f 11c0 f3dc e5d8 5aa5 cebf
000006f0: bdfb b200 553b f3bf 803e a091 ea68 f0bf
00000700: 22e8 5e2b bbc4 ffbf 9323 4cca 8b59 c8bf
00000710: 6576 99f1 0e6e f9bf 6d7d a452 a2f1 d1bf
00000720: d192 e9d4 6b55 02c0 f0e8 8fce e471 e2bf
00000730: 383a f15b 0184 12c0 ecc6 53d6 eeb0 e1bf
00000740: 181b 8af1 ffcb 11c0 a8cd 1ecc 6f63 fcbf
00000750: 6098 b611 ce11 f4bf ba5e 5785 804b e1bf
00000760: 4c1c a372 e838 09c0 be12 aca0 9653 cabf
00000770: 0516 8c43 d230 13c0 548d 1c5c b07c e6bf
00000780: 725d 1c7a a401 20c0 8a59 34be c032 dfbf
00000790: b780 905c df5b 22c0 d5c0 f7f8 ad80 cabf
000007a0: 7933 5086 29d4 13c0 8a11 6fc0 70bc d1bf
000007b0: 2dca 4a2c 04e6 e4bf 3fc6 7ee3 7443 cebf
000007c0: 56a7 0cbb 75a3 debf 9a25 2282 1492 d8bf
000007d0: d655 c54d 2e33 01c0 9341 dfc7 eb2a d1bf
000007e0: 426e 6609 7aa7 06c0 397a ac23 e1bc c7bf
000007f0: c37a f924 605c fdbf d31a 626f cd72 d2bf

arr_1 f8 [64]
0.37144576656411094 -0.1341183535996245 0.622737909222486 -0.21533970832759697 0.15107193088145338 -0.214552661356692 1.0301226377512087 -0.24066975623058173
-3.7346722343770757 -0.06568271312921237 -9.913895634206925 -0.09410901227479845 4.017132559850962 0.00254732949502905 6.941471432139178 0.3028018280796768
4.5843521317330165 0.06301535688945867 4.812806789442776 0.1856229021797512 13.62654622740407 -0.0633553918879619 -1.2647942878884884 -0.14013664046290691
2.397076833516646 0.06291961060737901 -0.45338645758605417 -0.146269706818713 -0.7412552418027095 -0.27874484302293345 -0.08217506883303775 -0.5554764852685289
-30.35377721554987 -0.5031339134374243 -2.0732187287980004 -0.19035096925692535 -6.663141286936481 -0.48403621363333155 -16.373026637535762 -0.6507453344756685
-14.579277538793825 -1.6148935973330178 -13.652504438637983 -0.5397229181333907 -3.1413746143967214 -0.9249946501294782 -4.078249926652512 -0.9828759572038666
-17.41634879791861 -0.3867306329891688 -4.044647067029585 -0.741357134955082 -19.529553670099226 -0.8563330129462192 -2.4379873948306745 -1.2295626112007412
-4.726315785336315 -0.7515741020963483 -3.0151656521911847 -0.6703328384961882 -6.488614411879392 -0.4778352071881983 -9.177945640311362 -0.7359002436711244
00000000: 395a e876 c4c5 d73f eb7a 404b ca2a c1bf
00000010: 3be1 420d 78ed e33f e80a 6666 4090 cbbf
00000020: 765d 3d35 5356 c33f 12fc e52b 7676 cbbf
00000030: d02b 00e0 617b f03f 20c5 123e 44ce cebf
00000040: 286e 1fd6 9be0 0dc0 c071 cd10 95d0 b0bf
00000050: 79c0 e920 ead3 23c0 bca7 fa39 8717 b8bf
00000060: ce06 a132 8b11 1040 68f5 f11b 23de 643f
00000070: cc9f 4c16 11c4 1b40 c65b 31eb 1a61 d33f
00000080: 9490 bc67 6056 1240 0e6a fc40 c621 b03f
00000090: 727e 4a6c 5040 1340 ec14 20c3 7dc2 c73f
000000a0: ec43 c8aa ca40 2b40 8f1e 2f18 0f38 b0bf
000000b0: f060 6aef 983c f4bf 2637 e157 ffef c1bf
000000c0: 38a0 6f9e 362d 0340 8df3 d5e5 7f1b b03f
000000d0: 5b02 f2a1 4804 ddbf dd47 973b f7b8 c2bf
000000e0: abff b0e9 5cb8 e7bf ea93 2d9c f4d6 d1bf
000000f0: db37 2fe1 6c09 b5bf 879c 3d9f 76c6 e1bf
00000100: 4cdb c224 915a 3ec0 871c f74a ac19 e0bf
00000110: 0823 6db3 f395 00c0 ee35 dca9 6b5d c8bf
00000120: 0214 7082 0ea7 1ac0 07a1 e806 73fa debf
00000130: c1c0 78ac 7e5f 30c0 5b1f 33e1 e7d2 e4bf
00000140: 8cda c810 9728 2dc0 ab0a 31ab 9ad6 f9bf
00000150: d4e3 d00f 154e 2bc0 6e1b 49ff 6845 e1bf
00000160: 598c 8a03 8921 09c0 89fe 6861 8e99 edbf
00000170: 398c afbf 2050 10c0 c2e3 8647 b873 efbf
00000180: 12ca b6d5 956a 31c0 e330 43d7 31c0 d8bf
00000190: 7e04 f3f5 b72d 10c0 0c3a 2999 32b9 e7bf
000001a0: 8e8d 4ed4 9087 33c0 5eda a27d 1467 ebbf
000001b0: 28dd 0689 ff80 03c0 60dd 37d8 49ac f3bf
000001c0: 245a 4253 bfe7 12c0 bbc7 a021 e50c e8bf
000001d0: 1d78 612b 0f1f 08c0 d0d4 58da 5d73 e5bf
000001e0: 4b81 1d56 57f4 19c0 660b f01e da94 debf
000001f0: c734 e3b0 1b5b 22c0 faf2 f5aa 7e8c e7bf

arr_2 f8 [32, 64]
-0.3294068806664487 -0.3779926935572141 0.3898567677721738 -0.27434227189462346 0.6810174128702171 -0.2642611463284361 0.34963982024203855 -0.15841023904138735
0.11806268532865632 -0.22344304759887695 -0.044156010780951466 -0.06896926261982755 5.093647683170683 0.07518434736397794 1.1025773786373987 0.1786935597038711
2.128313364066722 -0.09503394555344938 2.714329420415761 -0.02394034756634046 0.08472032910083205 0.1188315541036734 2.9912392129462226 -0.18505977621780592
-0.043745719429029675 -0.30832276803985886 -0.6264778278362619 -0.3692549320076704 -0.4968587631841223 -0.3280445377206485 -2.0820847656902037 -0.7740584583530337
-5.003656210212983 -0.3163782217886376 -9.399654872670219 -1.22653232326606 -1.5498103064887432 -0.6748893032484844 -6.9903821965433215 -0.44073228700630807
-1.9630331622850947 -0.7266568039597092 -8.60954393182766 -0.8304113396023244 -7.5245135944912604 -0.9047297052032679 -1.8073879944728315 -1.8040584467576863
-4.900536943248637 -1.0604387773948236 -7.5159518152937945 -2.0525188587608034 -2.561567261093489 -1.1267306460539452 -2.0102065311073334 -1.0336388100732994
-6.2719262711994705 -0.9395395451403066 -7.648341384418599 -0.6603771950458388 -0.9713757940613743 -0.3597407204071503 -0.386156018396374 -0.484837420470565
-6.609836134185398 -0.34403650674132336 -7.110762741639421 -0.22704748985705864 -0.45008515622747997 -0.22454233926677664 0.44885663958194943 -0.15051785406564838
-0.07592545300674067 -0.04788817864195482 2.7665394403388137 -0.02734630056280376 5.90787734867911 -0.1339145873371683 0.8736065037367337 -0.19346535866530737
2.456055721828825 -0.19917262455084522 0.3222020047587467 -0.007397318661557441 0.16121825208127788 -0.15866157295523337 0.07521524329201329 -0.11545534560132692
0.45319791496703726 -0.24015121660221203 -0.27260921362052254 -0.26388244775898007 -0.8618334584119699 -0.27807948772039826 -12.469051794623784 -0.4546266061169643
-0.41018037529404716 -0.5247722664092948 -5.1958435768164914 -0.46198039019808607 -1.6883477869977566 -1.1218218256343007 -3.504317500753108 -0.5495424965482177
-3.782849968835252 -0.9669199085871367 -0.824421668357707 -0.9985656673211789 -3.0764811689882885 -0.7473931899572751 -7.675315115190504 -0.5115291647776403
-3.696458338342866 -0.8344571973016727 -25.029650001265946 -0.770760395198923 -7.1226836657504915 -0.9885657020400005 -3.537765789191727 -1.5106448353715531
-5.875021084985754 -1.251012501933448 -5.913797880968886 -0.372598078530299 -1.645135403326269 -0.5880653017594156 -3.1447288997179195 -0.46951318049666557
-3.0381812683553227 -0.3744823465901084 -0.47726696972159954 -0.33518707059654684 -0.15899682111982127 -0.23938188687816572 1.2528871035794313 -0.20921512236889578
8.725175314743833 0.02420795963611308 0.18845247992686892 0.3408574916647772 2.271232992806143 -0.14092154321718262 -0.13664263774045177 0.08556267933525634
-0.0594869723325894 -0.05712448790114971 1.8620436371450673 0.22092360947933973 0.06500565420895837 -0.08169869930045887 1.0436612095872626 -0.11676436709223326
-0.38194237422170263 -0.3264119370763553 -0.4313271827995735 -0.2915490255468208 -0.506917584331559 -0.7605487936415034 -1.1977994084702013 -0.9252341548208055
-0.40492435601345267 -0.8903315194410621 -1.3096367014281343 -0.5705463350480113 -2.1474740194786204 -1.1425641220586682 -2.9925819370091387 -1.802549204980104
-2.5299742895671704 -1.525782311926327 -1.8853474163679367 -0.6786135808839151 -10.738499745967843 -1.32285435677915 -0.6713485820164276 -1.8576729537014909
-26.525197658485624 -1.2461246714191119 -4.146413231320418 -1.045428991073433 -17.006543217512533 -0.6609207258709429 -0.730904212212179 -1.4879101932571188
-2.1191012248266734 -1.2720348268337085 -2.0773755229078277 -0.6225809348944782 -0.4575235532468207 -0.48133369493570866 -0.6885143316214364 -0.32518801135810144
-0.3405175718567174 -0.27297924889887004 -0.3204695139219531 -0.23790919275615105 0.1011150338393119 0.04203176560114341 0.258670812032869 -0.06973318871455705
0.12844763955935093 0.07726596634845727 2.0597140766036732 0.0016744772277899472 0.33364131465129837 0.21827086067521462 0.6953652634990483 0.290156677693001
4.415797956522915 0.10734396043113556 -0.17514602487945255 -0.03587937455146821 0.0007053392320532093 -0.1710393648483406 -0.20477542253485717 -0.2072297366767466
-0.49587959090199696 -0.37982218350516805 -0.5873151730649994 -0.31632378798466587 -1.026520811828945 -0.6936897278323101 -0.3443365349870474 -0.5480836026817362
-2.0240869663359566 -0.6553978000560383 -5.421822207025896 -0.995884417887612 -0.5156551814778312 -0.8151843951204069 -0.9656578460609297 -1.6168252300663326
-7.969612896628031 -0.890286285013988 -9.262601361994824 -1.895250101209301 -2.0393896992288547 -0.9057647556357236 -8.865559079424907 -1.565906441706517
-7.735911089535943 -1.6879022424408432 -3.5635966577541387 -0.42463844212506796 -10.910640119251449 -1.0274306320305044 -4.060302734049469 -1.113656013985388
-6.008996707643657 -0.7969434157077572 -3.601257815777038 -0.6109365032516318 -0.5201527440707222 -0.34532953303176883 -0.24895683204417093 -0.35049092245468494
00000000: 9f8b e298 0015 d5bf be21 3d44 0831 d8bf
00000010: 102b edcc 69f3 d83f e6a7 6ce3 d28e d1bf
00000020: 7217 8907 e5ca e53f f461 4595 a7e9 d0bf
00000030: 7068 54b2 7f60 d63f fa63 0466 c946 c4bf
00000040: 0c51 5d2c 5b39 be3f f255 fa22 c899 ccbf
00000050: 94b7 73dc 9d9b a6bf 14a3 6137 f8a7 b1bf
00000060: cc41 a22d e55f 1440 9071 1909 483f b33f
00000070: 9fe9 682d 28a4 f13f ab8b 7739 6edf c63f
00000080: 5473 3228 c906 0140 ea72 2908 2554 b8bf
00000090: f60c da57 f2b6 0540 c4c2 6887 d183 98bf
000000a0: d05f cb42 3bb0 b53f 87ae 9ba6 be6b be3f
000000b0: 38ef 10d3 0eee 0740 118d 54eb 09b0 c7bf
000000c0: 0a4a 93c4 d665 a6bf 11fa 556b 8fbb d3bf
000000d0: 463a c73a 1b0c e4bf 7904 3770 dfa1 d7bf
000000e0: 0bd6 a6b2 88cc dfbf 5d10 4984 aefe d4bf
000000f0: 2e1d c10e 1ca8 00c0 ce30 7a3e 16c5 e8bf
00000100: 132b 1d74 be03 14c0 e2ec ef70 8a3f d4bf
00000110: 7c9c 3f90 9fcc 22c0 51a2 7e5b e09f f3bf
00000120: 5af7 55e4 05cc f8bf 40eb bb73 b198 e5bf
00000130: dfc6 22c0 26f6 1bc0 aeef be31 f534 dcbf
00000140: a7a5 0f76 9568 ffbf dc87 0dc5 c540 e7bf
00000150: a159 6924 1638 21c0 9d39 3acd ba92 eabf
00000160: e896 7a17 1a19 1ec0 102b f2b5 8bf3 ecbf
00000170: f819 77ac 0feb fcbf 6059 ce63 6cdd fcbf
00000180: ee5e 405b 269a 13c0 c822 c5a6 8ef7 f0bf
00000190: a6fe 33ac 5510 1ec0 3b68 e601 8f6b 00c0
000001a0: e634 e7f9 167e 04c0 0a3e c3b6 1607 f2bf
000001b0: 2a7e 6a29 e714 00c0 4242 52d9 c889 f0bf
000001c0: 5ae6 26d7 7316 19c0 84a4 753c b510 eebf
000001d0: 8ee2 cacd e697 1ec0 fadf f75a cf21 e5bf
000001e0: 0ad4 73b0 8215 efbf 500b 4cf1 fd05 d7bf
000001f0: c19f 8abb c7b6 d8bf b413 3388 9307 dfbf
00000200: 3efb 30e2 7870 1ac0 5c61 45b2 b104 d6bf
00000210: 92d3 c3c9 6b71 1cc0 3e98 c963 e40f cdbf
00000220: 795f 9af8 31ce dcbf 16ec dba9 cdbd ccbf
00000230: 2234 e632 11ba dc3f 2689 5646 2b44 c3bf
00000240: 5612 99b9 d96f b3bf efaf 43a2 cc84 a8bf
00000250: 77cb 1a6e df21 0640 26d7 552a ab00 9cbf
00000260: 826c 8599 aaa1 1740 4705 89fa 1c24 c1bf
00000270: d7e8 63a0 95f4 eb3f 0d2e 300e 79c3 c8bf
00000280: 8f44 d38a 00a6 0340 b228 5a12 7d7e c9bf
00000290: ba3e 4928 f59e d43f e8f2 ab9b a64c 7ebf
000002a0: 2e8b 1ab8 cca2 c43f 2ec1 7cbd 054f c4bf
000002b0: c491 1962 4e41 b33f 3c8e 8145 7b8e bdbf
000002c0: 2b86 d9d3 3101 dd3f ab57 b36a 46bd cebf
000002d0: b5a8 45ea 6d72 d1bf 743f c734 73e3 d0bf
000002e0: ab4b cfc2 2394 ebbf 90a4 5ce8 0dcc d1bf
000002f0: 1a14 8c8e 27f0 28c0 477c 4a31 9a18 ddbf
00000300: 0455 5630 6540 dabf 4d6c 4235 efca e0bf
00000310: e63b f637 8bc8 14c0 83d2 d232 1691 ddbf
00000320: 92de 16f8 7803 fbbf 069d 5071 fbf2 f1bf
00000330: cb47 249d d708 0cc0 2bfa 4d25 da95 e1bf
00000340: 8393 2ed8 4643 0ec0 3e75 2705 02f1 eebf
00000350: 38b9 f68c a961 eabf 30b1 81fc 3ff4 efbf
00000360: 3284 bc28 a29c 08c0 ddd3 831f a5ea e7bf
00000370: 64f3 38ce 85b3 1ec0 f471 3569 725e e0bf
00000380: 43ac d1bf 5892 0dc0 f351 8a94 dfb3 eabf
00000390: 7bc3 7924 9707 39c0 1cce 4db4 11aa e8bf
000003a0: 669b 70c9 a07d 1cc0 ceb0 068a 54a2 efbf
000003b0: 87e3 6b26 584d 0cc0 8bac 3ceb 992b f8bf
000003c0: 084c fd86 0580 17c0 8c0f 6baf 2504 f4bf
000003d0: 70a9 b7a1 baa7 17c0 c6c3 759c a5d8 d7bf
000003e0: 1473 2c80 7952 fabf 8d02 df52 6ed1 e2bf
000003f0: a298 18a0 6728 09c0 3e8b d102 810c debf
00000400: 4e3f 17fb 314e 08c0 a42a e2cd 84f7 d7bf
00000410: 2694 9ac2 8a8b debf 0245 9078 b473 d5bf
00000420: 0455 7001 025a c4bf 4bc0 b2cf 10a4 cebf
00000430: db42 f758 d30b f43f fe96 33a6 8fc7 cabf
00000440: ee61 c92d 4a73 2140 b88d c2ab f8c9 983f
00000450: 6668 11fb 351f c83f f2fe d2f0 9bd0 d53f
00000460: b596 0d34 7c2b 0240 17b7 b595 b709 c2bf
00000470: 22ce 2a86 817d c1bf 9bc8 808d 6fe7 b53f
00000480: 14be 6991 1375 aebf 8820 acbe 6b3f adbf
00000490: 1035 d444 eeca fd3f 9b63 d08e 3947 cc3f
000004a0: 84ef e1e6 35a4 b03f 8c07 9fb9 34ea b4bf
000004b0: 5d7f b418 d6b2 f03f d8d0 ff01 45e4 bdbf
000004c0: 9a48 8f6d be71 d8bf ce15 b1e4 eee3 d4bf
000004d0: b4ff ff53 dd9a dbbf 75df 793e bda8 d2bf
000004e0: 7215 cf39 ab38 e0bf f67a 766c 6a56 e8bf
000004f0: 37c3 68b6 2f2a f3bf 371f 83a8 849b edbf
00000500: fe9f 9bd8 47ea d9bf 7e1d d386 987d ecbf
00000510: 0767 249d 45f4 f4bf a448 3c63 ea41 e2bf
00000520: dc5c d5db 062e 01c0 ec32 1d51 f147 f2bf
00000530: c96f 70cc cef0 07c0 2420 cdd5 3dd7 fcbf
00000540: 6e4b 0b29 633d 04c0 1c9f a8b6 9a69 f8bf
00000550: c75f 6e0d 622a febf 5c92 10d4 33b7 e5bf
00000560: 8812 82a3 1c7a 25c0 11cd 7b54 692a f5bf
00000570: bc3f 7f05 b07b e5bf 6bfc 6c46 07b9 fdbf
00000580: ac21 8f5a 7386 3ac0 c6bd 676c 20f0 f3bf
00000590: 3ae4 a059 ed95 10c0 f235 efbf 13ba f0bf
000005a0: 193a f9d0 ac01 31c0 30a8 db38 4326 e5bf
000005b0: efb7 fe3a 9163 e7bf 33ca 36eb 7ace f7bf
000005c0: 545a cc57 ebf3 00c0 17fb c930 415a f4bf
000005d0: 3d33 e30e 779e 00c0 3684 4fda 2eec e3bf
000005e0: 5c11 96de 1048 ddbf a68c 8dd7 2bce debf
000005f0: 1686 2435 4f08 e6bf 8965 7560 e1cf d4bf
00000600: aaa0 b536 0acb d5bf 7477 a0f4 7d78 d1bf
00000610: 403a 6a90 9282 d4bf 4b18 27f5 ce73 cebf
00000620: 8349 79c3 ace2 b93f 30d3 4c05 3085 a53f
00000630: 9219 8705 108e d03f ba8d f9c4 08da b1bf
00000640: 85f1 93e5 f870 c03f 577a 8fce b3c7 b33f
00000650: 2afd b05f 4b7a 0040 c0ac 993b 446f 5b3f
00000660: b764 c119 615a d53f 7089 22b0 4cf0 cb3f
00000670: 3917 30a7 6e40 e63f b213 5a50 ed91 d23f
00000680: c709 84f0 c6a9 1140 768f 79cf e47a bb3f
00000690: f1d9 7058 2f6b c6bf d656 9908 c85e a2bf
000006a0: 00a5 9577 d01c 473f 0816 2d2f 9ee4 c5bf
000006b0: d5e8 67bf 1436 cabf 5085 e406 8186 cabf
000006c0: 4e63 6bc0 7dbc dfbf eccc 1cb4 014f d8bf
000006d0: b347 9830 49cb e2bf 94d2 1521 a63e d4bf
000006e0: c07f 3716 a16c f0bf 998c d3cc b432 e6bf
000006f0: ca96 251b 9c09 d6bf c4bd 9f9f e689 e1bf
00000700: de61 e581 5431 00c0 928d a3ce 04f9 e4bf
00000710: 6e9c 1f29 f2af 15c0 998b adff 48de efbf
00000720: 34ba 8e4b 3f80 e0bf d70d a895 fd15 eabf
00000730: cea3 7e48 abe6 eebf a0b8 e721 84de f9bf
00000740: 5b30 0334 e2e0 1fc0 17cc c6a9 397d ecbf
00000750: 3f4e 8baf 7386 22c0 47f4 26c5 f152 febf
00000760: cde5 ef8b ab50 00c0 4a65 6a5e 06fc ecbf
00000770: 8dc5 458f 2abb 21c0 819a bbe9 f30d f9bf
00000780: 4c48 39ad 92f1 1ec0 460e 22c8 a501 fbbf
00000790: ee82 e9f6 3e82 0cc0 b04c 63b7 462d dbbf
000007a0: 9538 f56b 3fd2 25c0 8dac 371a 5b70 f0bf
000007b0: 4d68 faff bf3d 10c0 b1f9 f0f7 88d1 f1bf
000007c0: 9c67 d46e 3609 18c0 7346 677a 8f80 e9bf
000007d0: 6dd0 f941 60cf 0cc0 56bf acb5 ca8c e3bf
000007e0: 4bab 165e 17a5 e0bf b6b8 ad0a e119 d6bf
000007f0: db6b df45 d1dd cfbf 3237 5f7a 716e d6bf

arr_3 f8 [32]
-0.5736147462246997 -0.5378500842301084 -0.39872297992637523 -0.15195016182675855 -0.17153332271285135 -0.2217141135411392 -0.19416164276333167 -0.07845439420953335
0.08771602785826757 -0.052991586556213804 0.00826064781031123 0.025505204015044816 0.021870531152371295 -0.03985815431280675 0.5216236106110775 0.08302571614802244
0.8271709650728041 0.06064325578784489 0.23646708958063428 0.0005064516691039448 0.12294162448851545 0.12309275432827291 0.16003976995524544 -0.039457153552882276
-0.011046047314451232 -0.011050876414552678 -0.05894098807961789 -0.10737822493190022 -0.6761466114548109 -0.18932897111127733 -0.5073198286407515 -0.4050085927825055
00000000: c63a f14f 0d5b e2bf c469 3d61 1136 e1bf
00000010: f5a2 bc63 ad84 d9bf a37b d557 1a73 c3bf
00000020: a3ea 9ccd cdf4 c5bf f343 5cc9 2061 ccbf
00000030: bf2f e7e8 49da c8bf 0681 5b51 9615 b4bf
00000040: 1e7d fcbe 8e74 b63f fcb5 7196 b621 abbf
00000050: 4832 8361 f5ea 803f 145d 7d44 091e 9a3f
00000060: 8cad 2e80 3a65 963f 073e 81ba 4968 a4bf
00000070: 2bac 8cff 23b1 e03f 272e 955f 2c41 b53f
00000080: cc07 663e 2f78 ea3f fddb a900 a20c af3f
00000090: d220 2ab8 8d44 ce3f 880d 8bad 6c98 403f
000000a0: 1acb 7e30 1a79 bf3f 1ee9 36ba 0183 bf3f
000000b0: ba31 02e5 2e7c c43f a2ac 3460 ba33 a4bf
000000c0: b89f b95f 4f9f 86bf 6c54 5786 d7a1 86bf
000000d0: ff4a 6460 832d aebf 3292 62ac 237d bbbf
000000e0: fcfc ef37 fea2 e5bf a0db 8d85 ee3b c8bf
000000f0: b1fa 13cb f63b e0bf d363 2629 a9eb d9bf

arr_4 f8 [1, 32]
1.4064455521833237 0.754936142989378 2.0185665630987297 0.9820526465299223 10.137846708750422 1.06207868468654 1.5629108361405295 0.9963040505164096
12.455863386474011 0.9258280626976203 2.5043186383566525 0.8565948716096143 6.100451702753439 1.037110736107123 5.338094920086599 1.7669396212402266
2.3170156021989117 0.9913502786505739 4.253698730428686 1.0125944689604982 1.6728443931778125 1.3187018761347657 13.356526702310441 1.1562235641553604
1.1749075275134813 1.3353532057150508 3.0609281178331935 0.9322588428876242 2.1339808924446633 0.64558206333141 2.929140819692437 0.8431219233518727
00000000: 6cb6 230d cd80 f63f f4a5 96d7 6f28 e83f
00000010: 1f77 ea39 0626 0040 ff7a f9ab f96c ef3f
00000020: 7be3 03d8 9346 2440 401e 0838 46fe f03f
00000030: f799 fcca ae01 f93f d4e3 3a08 b9e1 ef3f
00000040: 0ab3 00ed 66e9 2840 8e2b 602c 62a0 ed3f
00000050: 640a d435 d808 0440 f281 efa5 3969 eb3f
00000060: 389d a8cf dc66 1840 bc91 5e6d 0198 f03f
00000070: dadc 028e 355a 1540 02bc f37a 6245 fc3f
00000080: ea20 de79 3f89 0240 14e9 3538 24b9 ef3f
00000090: 66e9 9899 c903 1140 b5bb 0442 9633 f03f
000000a0: 44ee 7f7b f8c3 fa3f 39c3 7223 6719 f53f
000000b0: ed25 fdaa 8ab6 2a40 dc96 ae47 e47f f23f
000000c0: f9e9 e7d5 6bcc f23f 7c7a b252 9b5d f53f
000000d0: d200 8ce1 c77c 0840 247e 337f 10d5 ed3f
000000e0: b4b5 fa92 6412 0140 3c90 1cb7 9ba8 e43f
000000f0: 44a9 cf61 e16e 0740 fcc7 ead3 dafa ea3f

arr_5 f8 [1]
-0.6461824470531176
00000000: dff4 aacf 86ad e4bf
