enhanced_model_checkpoints/enhanced_model_round_17.pt (torch, 15528 bytes, 5 tensors)

layers.0.weight f4 [64, 15]
00000000: 4db9 1b3e e01f 88be 7482 a73e 5e05 93be
00000010: ca33 e83e 437d 73be 14f2 463e c4d1 58be
00000020: dca1 683e 1d8e 70be 59d5 9ebf 99af b5bd
00000030: 02ff 70c0 1a67 23bc 2ba6 463f 4358 f03d
00000040: 6657 4dc0 c70a 8ebc ca24 9a40 4814 d2bc
00000050: f64d ccc0 2ddb 89bd 0d9a 10c0 c2db 5bbe
00000060: 8de6 f1bc 6682 33bf b67c f2be 8312 10bf
00000070: 251d 7cc0 17fc b1be 5717 aac0 a621 14bf
00000080: ce76 0cc0 808c cebe b18c 71bf 393e 3bbf
00000090: 48af 90c0 e0f6 0bbf 848a 2ac0 becc 68bf
000000a0: 1a39 11c0 3906 2ebf b613 b4c0 3691 7dbf
000000b0: 8ecc b9c1 4eec 3dbf 2e47 15c1 59a1 07bf
000000c0: 3c8c 70c0 998f 1fbf 1d59 24c0 dae3 5abf
000000d0: 4a2d d4c0 89c5 6cbf 596e 9ac0 5a88 e0be
000000e0: 2c81 85c1 3025 08bf ca42 c6c1 9d96 8cbf
000000f0: 302f 54c0 f3ec 30bf 73ae c0c1 d2a5 09bf
00000100: cfce afc1 8ac7 aabe 1a65 19c0 9ac2 dcbe
00000110: 2f8d 1abf e156 94be 5ead 0ec1 0c2d 8fbe
00000120: 1aa2 8dbf eaab 42be 82cb fac0 bdb8 26be
00000130: d95c 8ac0 1fa6 de3c be3d 10c0 e51b 723e
00000140: 5d38 41bf 6d39 8fbe 502d b4bf 7960 98be
00000150: 359a 7cbe e636 7bbe d6a1 1fbf 063e cabe
00000160: e6cd 69bd a0ff a3be 9b36 36c0 d7b0 1ebf
00000170: 466e edbf fd8f 02bf 82da 8cc0 64fe 48bf
00000180: a97f 0cc1 f27e 04bf fd93 3bc2 6d06 93bf
00000190: 64e6 b3bf f0be 01bf 2f54 c4c0 a506 83bf
000001a0: b993 eac0 37fc a4bf 69f9 0cc0 501c 4abf
000001b0: b30b 84c1 6d98 33bf 4e44 a5bf 61f2 9abf
000001c0: 8741 10c1 63c8 3fbf 38df 04c2 462f 1bbf
000001d0: f0b7 d4c1 1bbf 7abf 6e5f 4cc0 9ecf e3be
000001e0: ba65 b8c0 25aa e6bf 90fc 6ebf b4ef cabe
000001f0: 21c2 ccbf f1b6 8abe 426f 02c0 fef6 4cbe
00000200: 18c7 8dbf f2d6 30bf 7c03 c2bf 7829 85be
00000210: 690b 7ac0 f9bd 12bf fc54 31be af39 12bf
00000220: 9e80 c2bf 154d a03b 8ba8 e53f ecec 50be
00000230: 5bf1 01c0 5133 d5be cf13 03bf 84e2 20be
00000240: 3b22 72bd 3190 01be d384 903f 2762 19be
00000250: 1dfd 483f 1d5b 11bf c683 79bf a531 13bf
00000260: 3ea7 6ec0 1b0d 11bf cdc1 8abf 4290 ffbe
00000270: 9fc6 d6c1 39a6 00bf e82d 70c1 d80d 20bf
00000280: 57e8 ccbf 097f cdbf 214b d1bf 34a4 a9be
00000290: 1f76 d5bf 44ef 00bf a713 a4c2 c1eb 27bf
000002a0: 41cb 13c0 f77f 19bf ac2c 2dc0 0690 84bf
000002b0: 9c34 cac1 b317 19bf 765c 28c1 e156 aebf
000002c0: c2d1 0ec1 2899 1ebf f28d 70c2 39bc 06bf
000002d0: 476c cbc0 4b0b 79bf 0d7d afc0 1906 febe
000002e0: 97e3 cfc0 a23c 04bf 9322 c0c1 5962 7fbf
000002f0: 21d9 d8c0 23dc 02bf 7eab b5bf cff1 62bf
00000300: 1e92 2ac0 4bae 3bbf 8bf2 a1c1 fca2 82be
00000310: 081b d8bf 1c83 5dbe 6563 cbbf 3c88 9cbc
00000320: 33ed 15bf 9c60 52be db9e 223f c39c 91be
00000330: 6fae 2bc1 a2b2 15be 60fc 1ebf ae17 46be
00000340: 8173 17bf 9506 b6be e90a 243e e847 12bf
00000350: 8b5c 7e3e b398 a5be ef3f 99c0 4520 8abe
00000360: 1c4e 1c40 9ecb 3a3e edc9 113f db12 01bf
00000370: 9ccd c1c0 0bba 85be 389d c6c0 ede8 51bf
00000380: 46de 62c0 7462 c9be d5a5 9dc0 9006 bfbe
00000390: 8722 56c0 a632 99bf a52e b2c0 0ea5 96bf
000003a0: e9fa 89c0 ca88 aabf b8a3 f9bf 167a 13bf
000003b0: 366b 6ac1 d09b d9be 095f 94c1 792d 4bbf
000003c0: 0efa edc1 81bf 9dbf 4db6 07c2 e310 adbe
000003d0: d72b 5ac1 0f3b 3dbf 227a f7be b5ad 1cbf
000003e0: b275 acbf 0e8f c2be 21aa d7c0 9438 28bf
000003f0: 0f89 8dc0 0a5e e7be 0fbe 12c0 55f4 eabe
0.15207405 -0.2658682 0.32716715 -0.28715032 0.45352012 -0.23778252 0.19428283 -0.21173769
0.22717994 -0.23491712 -1.2408859 -0.08871383 -3.7655644 -0.009973312 0.775973 0.117355846
-3.2084594 -0.017339123 4.816991 -0.025644436 -6.3845167 -0.067312576 -2.2594025 -0.2147055
-0.02952888 -0.7012085 -0.47360772 -0.56278247 -3.9392788 -0.34762642 -5.315349 -0.57863843
-2.1947513 -0.40341568 -0.94355303 -0.7314182 -4.5213966 -0.54673576 -2.6647043 -0.9093741
-2.2691102 -0.67978245 -5.627406 -0.990497 -23.22488 -0.741887 -9.329878 -0.5298057
-3.7585592 -0.6232849 -2.567939 -0.85503924 -6.6305285 -0.92488915 -4.82597 -0.43854028
-16.688072 -0.53181744 -24.782612 -1.0983464 -3.31538 -0.69111556 -24.08518 -0.53768647
-21.97598 -0.3335536 -2.3967957 -0.4311722 -0.6037168 -0.28972533 -8.917326 -0.27964056
-1.1065094 -0.19010893 -7.8373423 -0.1628141 -4.323834 0.027178822 -2.2537684 0.23643453
-0.7547663 -0.279735 -1.4076328 -0.29761103 -0.246682 -0.24532661 -0.6235632 -0.39500445
-0.057081126 -0.32030964 -2.8470829 -0.61988586 -1.8549278 -0.5100096 -4.4016733 -0.7851317
-8.781167 -0.51756203 -46.89452 -1.1486336 -1.4054685 -0.5068197 -6.1352763 -1.0236403
-7.3305326 -1.288947 -2.2027228 -0.7894945 -16.505713 -0.7015446 -1.291147 -1.2105218
-9.015998 -0.7491514 -33.217987 -0.6061901 -26.589813 -0.97947854 -3.1933246 -0.44494337
-5.762418 -1.8020674 -0.9335413 -0.39636004 -1.5996743 -0.27092698 -2.0380406 -0.20016095
-1.1076384 -0.6907798 -1.5157313 -0.260082 -3.9069464 -0.57321125 -0.17317575 -0.5711927
-1.5195501 0.0048920014 1.794206 -0.20402879 -2.0303562 -0.41640714 -0.512021 -0.15711409
-0.059114676 -0.12652661 1.1290535 -0.14978848 0.7851122 -0.5677965 -0.97466695 -0.57497627
-3.7289577 -0.5666062 -1.0840393 -0.49914747 -26.846983 -0.50253636 -15.011208 -0.62521124
-1.6008404 -1.6054393 -1.6351053 -0.3313309 -1.6676673 -0.5036509 -82.03838 -0.65594107
-2.3092806 -0.59960884 -2.7058516 -1.0356452 -25.275688 -0.5980179 -10.522573 -1.3620263
-8.92621 -0.6195245 -60.13862 -0.52630955 -6.3569674 -0.97282857 -5.484015 -0.49614027
-6.496532 -0.5165502 -24.016882 -0.9975944 -6.776505 -0.5111715 -1.419296 -0.8865022
-2.6651683 -0.73312825 -20.24343 -0.25514972 -1.6883249 -0.21632046 -1.5889708 -0.01910793
-0.5856506 -0.20544666 0.63523644 -0.28439912 -10.730086 -0.14618924 -0.62103844 -0.1934497
-0.5916062 -0.35551897 0.16019787 -0.5714097 0.2483999 -0.32343063 -4.7890544 -0.26977745
2.4422674 0.18241736 0.5694874 -0.50419396 -6.056349 -0.26118502 -6.2066917 -0.8199604
-3.5448165 -0.39332926 -4.926493 -0.37309694 -3.3458574 -1.1968582 -5.568194 -1.1769121
-4.3118787 -1.3322995 -1.9503088 -0.57608163 -14.651175 -0.42501688 -18.546404 -0.7936626
-29.747097 -1.2324067 -33.92803 -0.33801946 -13.635703 -0.7391824 -0.48335367 -0.61202556
-1.3473418 -0.37999767 -6.7395177 -0.6571133 -4.422981 -0.45188934 -2.2928503 -0.45889536

layers.0.bias f4 [64]
00000000: d37f 1740 bb6b 343f eb63 aa3f 7192 dcbd
00000010: b5a7 03be a37a d43d 5818 1e3f 2bb8 f2bb
00000020: b22b 18c0 c484 7e3d 325f 11c1 1e46 db3d
00000030: 4ba6 ce3f 1f54 2f3e 7406 4b41 f6d7 b93e
00000040: c5ad 5040 4a4b ce3d 1fda 1441 5277 c43e
00000050: 5c20 0342 90aa 4e3e 2312 96be b37b 8a3d
00000060: 6d38 da40 7169 173e d420 5f3f 1eac aebc
00000070: 4180 4ebf 8823 1f3e 6d12 db3f 2c55 ad3d
00000080: 2d01 0ec3 cc71 a6bc 8984 f3bf 644a a93e
00000090: dfdb b3c1 a153 b33e 7b55 32c1 ade6 e3be
000000a0: 03dd 15c1 5418 aebe e4ab 82c2 34b6 7cbe
000000b0: e178 cdc0 afa1 71bf c595 04c1 a151 c4be
000000c0: 2c31 d4c0 5c3d 23be dbf4 83c0 7f31 0c3e
000000d0: 5216 d0c1 a321 d4be 2e0e 32c0 b3b5 f9be
000000e0: 94e5 14c1 109c 0dbf f13e 23c1 0bc4 7bbe
000000f0: e206 8ec0 826b 24be 87e0 1bc0 e96c 18bf
2.3671768 0.70476884 1.3311743 -0.10770119 -0.12856944 0.103749536 0.61755896 -0.0074072084
-2.377667 0.062138334 -9.085741 0.10706733 1.6144499 0.17121933 12.689075 0.36297578
3.260606 0.10072954 9.303252 0.38372284 32.7816 0.20182252 -0.29310712 0.06761875
6.819388 0.14786316 0.87159467 -0.021322306 -0.8066445 0.15540898 1.7114998 0.08463511
-142.0046 -0.020317934 -1.9024822 0.33064568 -22.482359 0.3502474 -11.145869 -0.4451193
-9.366458 -0.34002936 -65.335724 -0.2467888 -6.4210057 -0.94387335 -8.286565 -0.38343528
-6.6310024 -0.15941375 -4.1236396 0.13690756 -26.010899 -0.41431913 -2.7821155 -0.48771438
-9.306049 -0.5531626 -10.202867 -0.24586503 -4.43834 -0.16056636 -2.435579 -0.59541184

layers.3.weight f4 [32, 64]
00000000: 9037 8ebf 467d 05bf 0995 d6be 31c0 f1be
00000010: 6cf0 93be 6931 1cbf a0a2 c6be 9de7 1fbf
00000020: cb8e 2f3e 7bf2 1cbf f3dd fbbe 2d72 06bf
00000030: 55bd 8841 79b0 e7be eaba 5740 0202 27be
00000040: cc5f 2f3f 431d 52be ecd3 a23f dd23 edbe
00000050: 4b6b 10c0 4573 e8be 10b2 1141 7a95 f9be
00000060: f412 98bf 60cf 41bf 6afe 80c0 b962 38bf
00000070: bc04 7bbf 06e5 40bf 4556 aec0 21f4 b4bf
00000080: e531 a4c1 5caa 24bf 4d46 1dc2 4266 04c0
00000090: 73e8 5dc0 adce 85bf 8737 3fc1 8049 30bf
000000a0: 67fc 21c1 ae8f 1fbf 132f 69c1 2ee6 3cbf
000000b0: ffa0 4bc1 6068 d6bf 5be9 87c0 68d4 51c0
000000c0: 409f 92c1 6297 87bf cf6e 60c1 e5f0 ffbf
000000d0: 5b7d 26c1 b4aa 90bf ca27 29c1 6e5d 19c0
000000e0: c131 13c1 2d3e 6dbf 76a1 52c1 f59e 50bf
000000f0: 960e 03c0 22f3 25bf a9b5 a9bf 7d49 9abf
00000100: 4d98 d4c1 7c57 d5be f0d3 39c1 ed6f bfbe
00000110: d374 adbf 0c68 d0be 7280 40be 8464 a0be
00000120: 5b35 97be 9414 81be 7492 1341 6664 dbbe
00000130: 7562 ec40 5695 56be 66e1 0540 69f4 86be
00000140: 4e60 0441 437e 8bbe 54e6 1d3f eab3 bdbe
00000150: f9b6 d4bf a98a a3be dd17 bf3e dad1 a9be
00000160: 3e2d 1dbf 885c 28bf 9305 adbf a5cb 2abf
00000170: 8296 ebbf aaaa e4be a7fe 45c2 a248 25bf
00000180: 65f1 18c0 7f5f afbf 2af7 0dc1 a669 8abf
00000190: b813 bbbf 5db3 f9bf 2c6c 79c1 aa72 a2bf
000001a0: 6030 edc0 eef5 83bf 182a e7bf 1af2 86bf
000001b0: 27c0 b6c0 bdb1 d7bf bb62 52c1 6d7b abbf
000001c0: b768 65c1 eb4f 2abf 95bb 07c2 a9a9 66bf
000001d0: ba0c 40c1 f352 17bf 902d 7ec1 9e7c 8ebf
000001e0: f6ed 22c1 8897 c2bf a809 c4c1 8e0e 11bf
000001f0: 37e2 cec0 807e 90bf ccda 51c1 f32b 5cbf
00000200: c0b2 c4c0 a1bb 83bf da31 48bf 94fd d4be
00000210: 586d f9be 8614 06bf 51cf 8340 1386 dcbe
00000220: 7c14 5a41 c5d0 d2be cb72 813f 43ae 13be
00000230: 2fc3 fa40 2e2f 16bf 1450 e2be 444e 93bd
00000240: bea2 9bbf 2d34 79be 80bc eb3f a0c5 18be
00000250: 3b3e 85bf 5ae5 fabe 12d2 893f 410e 84be
00000260: ef5d 89bf 7264 febe 2d57 22c0 1ced 6abf
00000270: 5e38 68c0 3ab1 75bf 8ea8 6ec0 0e94 65bf
00000280: 7a64 0ebf 8a22 9cbf f2f5 3bc0 2438 74bf
00000290: 9788 0bc1 2c35 c7bf 5f07 3bc1 e30b 33c0
000002a0: 5a36 02c0 4ada e9bf 4bf2 03c1 0df4 dcbf
000002b0: 32fc 16c2 1d1e 94bf 1ae8 1dc0 0595 d9bf
000002c0: 10b0 11c2 fd1b 9dbf 4e93 d5c0 3e80 eabf
000002d0: 7336 30c1 d1f9 acbf c233 a4c0 0708 bfbf
000002e0: 89b8 dbbf f7f8 90bf 5883 16c1 17c2 77bf
000002f0: 7fd4 adbf 45df 6ebf a85f 9bbf 406b 63bf
00000300: a494 02bf b3f9 10bf 0d3d 0fbf 228e eebe
00000310: d84c 013e 5fc7 03be 2fa7 db3e 1465 8abe
00000320: fd0e 32be ee9f c9bd 2070 2e40 04e2 d7bd
00000330: df92 e63f dd86 1ebe 50c9 9c3f deba e63d
00000340: 70ec 8c40 4a89 7bbd 1c29 a2bf c184 93be
00000350: 4070 a9bf 40ff 03bf 4029 3fbf c556 00bf
00000360: 3cab 29c0 ab63 21bf 6e28 37bf bfc6 23bf
00000370: 7869 24c0 6ad9 3dbf b65d 47c0 c202 30bf
00000380: aad2 b7bf b6be 7ebf ea8b fbc0 7518 9cbf
00000390: dd19 e2bf c56e cabf 0e8a 14c0 6050 1bc0
000003a0: 9183 adc0 e63d e2bf 1ce8 19c2 478e 15c0
000003b0: 722c 0dc1 0ae6 81bf 7a57 6fc1 b1d4 b7bf
000003c0: 0fe2 01c2 9b2b d8bf 30dc 59c1 7a31 2bbf
000003d0: 4b64 c4c0 4aa4 e3bf 7791 6fc1 fbde a0bf
000003e0: 0380 c6c1 6078 53bf cc85 c4c0 49e8 86bf
000003f0: e9a8 33c0 223a d7be bded a3bf 4c02 d9be
-1.1110706 -0.5214428 -0.4191058 -0.47216943 -0.28894365 -0.61012894 -0.38795948 -0.6246279
0.17144315 -0.61307496 -0.4919277 -0.5251797 17.092447 -0.45251825 3.3707833 -0.1630936
0.6850555 -0.20518975 1.2720923 -0.46316424 -2.2565486 -0.45400444 9.105972 -0.48746854
-1.1880784 -0.75707054 -4.0310564 -0.7202564 -0.980541 -0.7534946 -5.448031 -1.4137002
-20.524363 -0.6432245 -39.318653 -2.0687413 -3.4673126 -1.0453697 -11.9510565 -0.6886215
-10.124122 -0.6232861 -14.573993 -0.73788726 -12.726806 -1.6750603 -4.247236 -3.2785892
-18.327759 -1.0593073 -14.027053 -1.999539 -10.405604 -1.1302094 -10.572214 -2.3963275
-9.199647 -0.92673 -13.164419 -0.8149255 -2.0477653 -0.64824116 -1.3258563 -1.2053677
-26.574366 -0.41668308 -11.614243 -0.3739008 -1.3551277 -0.4070438 -0.18798998 -0.31326687
-0.29532894 -0.25211012 9.223255 -0.42850035 7.3870187 -0.20955405 2.0918822 -0.26358345
8.273512 -0.27244768 0.6167958 -0.37051326 -1.6618339 -0.31941727 0.37322894 -0.33167917
-0.6139716 -0.6576619 -1.3517326 -0.66716987 -1.8405306 -0.44661456 -49.498684 -0.64563954
-2.3897336 -1.3701018 -8.872843 -1.0813491 -1.4615393 -1.9507862 -15.588909 -1.2691243
-7.412155 -1.0309427 -1.8059721 -1.0542634 -5.710956 -1.6851116 -13.149104 -1.3397042
-14.338065 -0.66528195 -33.933186 -0.9010263 -12.003107 -0.59110945 -15.886124 -1.113178
-10.183096 -1.5202494 -24.504715 -0.56662834 -6.465114 -1.1288605 -13.115917 -0.8600456
-6.14682 -1.0291635 -0.7820107 -0.41599715 -0.48716235 -0.52375066 4.119057 -0.4307104
13.630001 -0.41174904 1.0113157 -0.14421944 7.836326 -0.5866574 -0.4420172 -0.07192662
-1.215904 -0.2433631 1.8416901 -0.14919138 -1.0409616 -0.49003106 1.0767233 -0.25792125
-1.0731791 -0.4968601 -2.5365708 -0.9176805 -3.6284404 -0.9597355 -3.7290378 -0.8967904
-0.55622065 -1.219804 -2.9368863 -0.95398164 -8.720847 -1.5563102 -11.6893 -2.7976005
-2.0345674 -1.8269742 -8.246654 -1.7261978 -37.746284 -1.157169 -2.4672914 -1.6998602
-36.421936 -1.2274166 -6.6742315 -1.8320386 -11.013293 -1.3513738 -5.131318 -1.4924325
-1.7165691 -1.1325978 -9.407066 -0.9678053 -1.3580474 -0.9330943 -1.2138567 -0.88835526
-0.5100806 -0.5663101 -0.5595253 -0.46592814 0.1262697 -0.12869023 0.42900988 -0.2703024
-0.1738853 -0.09844957 2.7255936 -0.10541156 1.8013572 -0.15481134 1.2248936 0.11266111
4.403862 -0.061410226 -1.2668796 -0.2881222 -1.3237381 -0.51561356 -0.7467232 -0.501324
-2.6510763 -0.63042706 -0.71546066 -0.6397514 -2.5689373 -0.7415987 -3.1150947 -0.6875421
-1.4361165 -0.9950975 -7.8608294 -1.2194964 -1.7664143 -1.5815054 -2.3209262 -2.4267807
-5.4223104 -1.767514 -38.47667 -2.336809 -8.823351 -1.0148327 -14.958857 -1.4361783
-32.47076 -1.6888307 -13.616257 -0.6687237 -6.137243 -1.7784512 -14.973014 -1.2568048
-24.812506 -0.8260555 -6.1413326 -1.0539638 -2.8071845 -0.4203654 -1.2806927 -0.42384565

layers.3.bias f4 [32]
00000000: 5b9f 9dbf 4ad1 34bf c4d5 a0bf 6404 b5be
00000010: 92fa 5bbf c3fd 74be 101c 36bf 80ca aabd
00000020: 2fa5 6a3c 86b0 ea38 c106 c63e 8cf4 d23d
00000030: 5a10 413d 6209 9c3c a801 f63f 9388 2d3e
00000040: a62a ca3f 9b78 093d 86a9 e63e f9fd 943d
00000050: c989 483e 6831 013c dd82 133f a577 a53c
00000060: 49da 523e fcec 5b3c db59 47be 9724 09be
00000070: ab8d 12bf 8da8 88be 78bc cebf 81c0 c1be
-1.2314256 -0.7063185 -1.2565236 -0.35354912 -0.85929215 -0.23924927 -0.7113657 -0.08339405
0.014321609 0.000111908696 0.38677028 0.1030055 0.047134735 0.019047443 1.9219255 0.1694663
1.5794265 0.033562284 0.4505121 0.07275004 0.19583811 0.0078853145 0.57621557 0.020198653
0.20591082 0.013423201 -0.19467871 -0.13392864 -0.5724742 -0.26691094 -1.6151266 -0.3784218

layers.6.weight f4 [1, 32]
00000000: 257d 1941 73ff 113e 322d 9640 b37c 7e3f
00000010: c66e 0242 d9e8 553f a47d b140 1783 4f3f
00000020: 7413 8e42 d8f4 193f 25f2 ca40 1af6 493f
00000030: 6b71 1042 d6f9 cc3f 49d5 3342 d200 1640
00000040: 7c85 c140 b407 c83f 071b 6a41 0c44 c53f
00000050: d508 cd40 99de 873f 8d8d 9842 5f6b cc3f
00000060: 910f 3741 8b78 dc3f 7d81 eb40 fafb 9b3f
00000070: b669 e540 c602 473f 3ea3 8541 d59a 723f
9.593053 0.14257602 4.693017 0.99409026 32.608177 0.8355842 5.546587 0.810594
71.037994 0.60139227 6.3420587 0.78891146 36.11076 1.6013744 44.958286 2.3438
6.0475445 1.5627351 14.631598 1.5411391 6.407328 1.0614806 76.27647 1.5970267
11.4413 1.7224287 7.3595567 1.2186272 7.169154 0.77738607 16.704708 0.94767505
