enhanced_model_checkpoints/enhanced_params_round_11.npz (npz, 14022 bytes, 5 tensors)

arr_0 f4 [64, 15]
0.17707089 -0.20678295 0.18206729 -0.24804619 0.30136177 -0.23957309 0.19113424 -0.19342521
0.30652252 -0.21702373 -1.0990725 -0.31504405 -0.8168364 -0.2065715 0.21221282 -0.21348664
-1.7446885 -0.24301529 0.39146838 -0.04167038 -2.5365498 -0.30179694 -0.63544273 -0.42366794
0.04347285 -0.6962182 -0.8543071 -0.49511102 -3.627601 -0.3378381 -1.0777203 -0.58139384
-0.9818584 -0.34546554 -1.091752 -1.0990885 -2.759198 -0.4741797 -1.0999613 -1.2002594
-3.2416713 -1.2083857 -4.5482426 -0.62959105 -3.428453 -0.9064964 -1.160343 -0.5405242
-8.133668 -0.643851 -2.707262 -0.73479366 -0.6026529 -1.1385627 -3.4788468 -0.681369
-3.5864227 -0.45236573 -3.2645304 -1.1045955 -2.0781574 -0.5381239 -3.4731317 -0.39167836
-3.0847507 -0.4325327 -0.84033936 -0.5663257 -0.1625999 -0.2110741 -1.5034711 -0.3680313
0.20484905 -0.42441 -3.5643985 -0.32403618 -0.81284106 -0.24358329 -1.2830861 0.059422914
-0.39407712 -0.23761983 -1.3635678 -0.25688714 -0.5690269 -0.33590505 -1.0566541 -0.29909045
0.6658933 -0.40312815 -1.7373499 -0.52802354 -1.4554559 -0.5538419 -2.8778834 -0.5299783
-2.4527993 -0.6460797 -6.4691234 -0.67426646 -1.2754223 -0.6065792 -1.3754404 -0.8259221
-5.0340514 -0.5506794 -0.67852 -0.43267173 -8.574852 -0.4220798 -1.7427808 -1.3198756
-4.356842 -0.7355777 -4.299964 -0.49477342 -5.814956 -0.96496856 -4.1662774 -0.5823706
-4.018431 -1.3226986 -4.3389583 -0.5537833 -1.910339 -0.65909755 -0.7940079 -0.37914193
-2.2467515 -0.393693 -0.69620293 -0.27635777 -1.8924285 -0.25690842 -0.35030812 -0.30509308
-0.35507014 -0.22480397 1.0228889 -0.31202936 -1.718494 -0.16649061 -1.9060065 -0.26465985
-1.5484731 -0.28852037 0.48650137 -0.23947352 0.8827045 -0.21322578 -1.7970963 -0.29590118
-0.91867375 -0.4464155 -0.54358566 -0.28763616 -3.7867062 -0.55057716 -3.3340106 -0.57137233
-1.7498682 -1.170869 -1.2029575 -0.84952253 -4.711574 -0.5230682 -11.240928 -0.85146564
-4.6918955 -0.42940512 -0.7887049 -1.0611914 -3.1347792 -0.6801404 -1.3684709 -1.5369987
-4.392173 -0.5665274 -8.092002 -1.0270923 -3.2306092 -0.51623565 -0.9003256 -1.0128993
-2.3736124 -0.324061 -6.8676133 -0.44934505 -1.1507671 -0.5993777 -0.027227545 -0.67707384
-0.8606738 -0.33626544 -5.7570734 -0.34074262 -0.88658005 -0.33759716 -1.4228176 -0.2581012
-0.26370186 -0.1987731 0.7900418 -0.15533774 -1.7187247 -0.22956479 -0.71206796 -0.19111086
-0.6388449 -0.29633155 1.7466826 -0.21716145 -0.091726534 -0.2619418 -0.17459975 -0.36687452
0.901016 -0.32788393 -1.3821093 -0.6675054 -8.791537 -0.47548792 -2.406525 -0.98715836
-1.104813 -0.3708145 -3.1652675 -0.5771943 -1.2340361 -1.1440881 -2.6413226 -1.1108512
-2.4994626 -1.6641824 -2.5205812 -1.0698868 -1.6839783 -0.41179904 -2.6931965 -1.4246188
-4.615258 -0.37715802 -5.326968 -0.4058553 -9.903075 -0.53890043 -1.3031372 -0.45506504
-0.93874454 -0.34847987 -4.3024626 -0.527613 -1.7037205 -0.3889422 -3.6775892 -0.33447433
00000000: 1252 353e e9be 53be d96f 3a3e d2ff 7dbe
00000010: 174c 9a3e a652 75be b2b8 433e 4211 46be
00000020: 85f0 9c3e 783b 5ebe 68ae 8cbf 744d a1be
00000030: 311c 51bf 7b87 53be 514e 593e 3e9c 5abe
00000040: f451 dfbf 00d9 78be 8b6e c83e 8fae 2abd
00000050: d556 22c0 2185 9abe 60ac 22bf 01eb d8be
00000060: 9610 323d 5b3b 32bf dfb3 5abf 317f fdbe
00000070: 9d2a 68c0 1ef9 acbe bdf2 89bf 3ad6 14bf
00000080: 125b 7bbf dce0 b0be 88be 8bbf efae 8cbf
00000090: b396 30c0 aec7 f2be 88cb 8cbf 1aa2 99bf
000000a0: 8b77 4fc0 62ac 9abf 348b 91c0 e12c 21bf
000000b0: c66b 5bc0 2610 68bf 1f86 94bf cb5f 0abf
000000c0: 8123 02c1 6bd3 24bf c843 2dc0 701b 3cbf
000000d0: 7647 1abf 6cbc 91bf 6da5 5ec0 336e 2ebf
000000e0: f387 65c0 7b9c e7be 11ee 50c0 6363 8dbf
000000f0: 8800 05c0 7dc2 09bf ca47 5ec0 118a c8be
00000100: 8e6c 45c0 ed74 ddbe 7b20 57bf b9fa 10bf
00000110: 9780 26be cf23 58be be71 c0bf 996e bcbe
00000120: f3c3 513e 444c d9be 1b1f 64c0 12e8 a5be
00000130: 5a16 50bf e66d 79be 2a3c a4bf 7165 733d
00000140: 7ac4 c9be 9d52 73be 6489 aebf b686 83be
00000150: bfab 11bf bffb abbe 7140 87bf 6222 99be
00000160: fc77 2a3f d066 cebe 7b61 debf 8d2c 07bf
00000170: 614c babf 95c8 0dbf 3e2f 38c0 a8ac 07bf
00000180: aafa 1cc0 7b65 25bf 0f03 cfc0 ba9c 2cbf
00000190: 0a41 a3bf c648 1bbf 6e0e b0bf a16f 53bf
000001a0: f316 a1c0 53f9 0cbf 7db3 2dbf 2687 ddbe
000001b0: 9832 09c1 d81a d8be 7113 dfbf aff1 a8bf
000001c0: 406b 8bc0 d24e 3cbf 4e99 89c0 f152 fdbe
000001d0: 1f14 bac0 2e08 77bf 2552 85c0 3d16 15bf
000001e0: fd96 80c0 304e a9bf bfd8 8ac0 bec4 0dbf
000001f0: fd85 f4bf 9eba 28bf 1a44 4bbf e41e c2be
00000200: c7ca 0fc0 2192 c9be 5b3a 32bf c47e 8dbe
00000210: 193b f2bf 8089 83be 965b b3be 2935 9cbe
00000220: c1cb b5be 0333 66be 06ee 823f 50c2 9fbe
00000230: 9df7 dbbf 847c 2abe 05f8 f3bf 7f81 87be
00000240: 5e34 c6bf f1b8 93be b516 f93e 8c38 75be
00000250: ecf8 613f dc57 5abe 4007 e6bf 5c80 97be
00000260: 342e 6bbf 9390 e4be 6e28 0bbf 0c45 93be
00000270: 6559 72c0 a0f2 0cbf 6e60 55c0 7545 12bf
00000280: aefb dfbf 09df 95bf 83fa 99bf 4f7a 59bf
00000290: 37c5 96c0 cce7 05bf d7da 33c1 a7f9 59bf
000002a0: 0224 96c0 fdda dbbe 90e8 49bf 1fd5 87bf
000002b0: 39a0 48c0 ae1d 2ebf 0e2a afbf 60bc c4bf
000002c0: ae8c 8cc0 f107 11bf d778 01c1 c377 83bf
000002d0: 4dc2 4ec0 0528 04bf bd7b 66bf afa6 81bf
000002e0: 44e9 17c0 53eb a5be 7dc3 dbc0 8e10 e6be
000002f0: 564c 93bf d170 19bf 4d0c dfbc b654 2dbf
00000300: 1e55 5cbf fc2a acbe f239 b8c0 d175 aebe
00000310: e9f6 62bf 89d9 acbe e31e b6bf d725 84be
00000320: ee03 87be 2d8b 4bbe 2e40 4a3f db10 1fbe
00000330: 2cff dbbf 0813 6bbe 164a 36bf 91b2 43be
00000340: 578b 23bf c5b8 97be 4c93 df3f 925f 5ebe
00000350: 1fdb bbbd 3c1d 86be 47ca 32be fad6 bbbe
00000360: fca8 663f 67e0 a7be f5e8 b0bf a2e1 2abf
00000370: 23aa 0cc1 2773 f3be 8104 1ac0 69b6 7cbf
00000380: 836a 8dbf 66db bdbe be93 4ac0 01c3 13bf
00000390: e5f4 9dbf 7b71 92bf 6e0b 29c0 5f30 8ebf
000003a0: 32f7 1fc0 ee03 d5bf 3451 21c0 0df2 88bf
000003b0: 9a8c d7bf 53d7 d2be 555d 2cc0 e959 b6bf
000003c0: 32b0 93c0 db1a c1be 8676 aac0 44cc cfbe
000003d0: ff72 1ec1 61f5 09bf 33cd a6bf 49fe e8be
000003e0: 9051 70bf f46b b2be c6ad 89c0 a511 07bf
000003f0: 8313 dabf 6f23 c7be 9f5d 6bc0 3840 abbe

arr_1 f4 [64]
0.23334277 -0.25867096 0.38782257 -0.23121057 0.29532245 -0.21865804 2.0549283 -0.23697928
-2.2192655 -0.14004655 -5.8984337 -0.079339944 8.047781 0.031175258 4.1927447 0.33251724
2.768311 0.136174 2.9053507 0.1843594 8.134168 -0.04973246 -0.73585373 -0.12796131
1.4078099 0.05620952 -0.8980391 -0.29911375 -1.4920584 -0.2964635 -0.16481854 -0.5631779
-18.133286 -0.99659455 -4.1432877 -0.388494 -4.0246854 -0.51094824 -9.783438 -1.3001443
-29.182041 -1.6364341 -8.15439 -1.071315 -6.2920628 -0.95605165 -8.157375 -0.9896407
-10.414062 -0.764286 -2.4303167 -1.5099465 -11.669137 -0.8879754 -4.876624 -1.2547483
-2.8373115 -1.4866475 -1.8276869 -0.68380976 -12.975525 -0.5007257 -5.5019355 -0.7447422
00000000: 68f1 6e3e 8570 84be ae90 c63e 77c2 6cbe
00000010: 8134 973e e5e7 5fbe f283 0340 b2aa 72be
00000020: 7208 0ec0 5d68 0fbe f8bf bcc0 fb7c a2bd
00000030: b6c3 0041 4163 ff3c f72a 8640 b33f aa3e
00000040: 022c 3140 3271 0b3e 44f1 3940 b6c8 3c3e
00000050: 8d25 0241 44b4 4bbd e960 3cbf 4a08 03be
00000060: 1d33 b43f f43b 663d e4e5 65bf 7025 99be
00000070: c5fb bebf 10ca 97be 31c6 28be 6d2c 10bf
00000080: f810 91c1 d220 7fbf d095 84c0 b0e8 c6be
00000090: 39ca 80c0 81cd 02bf f688 1cc1 216b a6bf
000000a0: d274 e9c1 ac76 d1bf 6278 02c1 da20 89bf
000000b0: 9458 c9c0 cdbf 74bf 9c84 02c1 1859 7dbf
000000c0: ff9f 26c1 3fa8 43bf 4f8a 1bc0 ed45 c1bf
000000d0: c9b4 3ac1 5b52 63bf 4e0d 9cc0 989b a0bf
000000e0: 8396 35c0 774a bebf a5f1 e9bf 280e 2fbf
000000f0: c09b 4fc1 8f2f 00bf db0f b0c0 6da7 3ebf

arr_2 f4 [32, 64]
-0.02763137 -0.14065005 0.359094 -0.100261845 0.48312065 -0.08447036 0.26426667 -0.0038380134
0.7055444 0.0021585808 0.3463311 0.047294877 3.0338235 0.18932526 2.6701052 0.29728547
4.7090945 0.252632 1.6053963 0.10070188 0.052700542 0.24988005 1.7933352 0.100726634
0.017141523 -0.13774505 -0.32361782 -0.17745648 -0.20440002 -0.11943469 -1.114697 -0.5395951
-9.551788 -0.19458413 -5.415669 -0.9207448 -0.68080825 -0.9006832 -13.534441 -0.4354764
-3.4785566 -0.376645 -4.8443933 -1.2071418 -4.1633115 -0.51692855 -3.1737683 -1.4283395
-2.600712 -1.6838607 -4.146158 -1.6846596 -4.6757493 -0.7554055 -0.90003914 -0.7002665
-3.4866765 -0.60773903 -14.8386545 -0.8804789 -0.39401048 -0.2791043 -0.3290782 -0.24389626
-3.823107 -0.13985978 -4.167174 -0.056126125 -0.20587625 -0.004282091 0.3045161 0.16209589
0.28269362 0.0742268 1.6175939 0.08472472 3.511254 0.17869526 0.48691937 0.06480213
1.4355162 0.04633305 1.1029967 0.10512625 0.09189445 0.14133912 0.5774007 0.024034409
0.3174394 -0.028466223 -0.10763439 -0.07900121 -1.2689064 -0.122765794 -7.3017836 -0.46620286
-0.38342392 -0.2488716 -2.8789463 -0.47291294 -0.75210804 -0.80466753 -6.540845 -0.6592304
-1.9683572 -0.6180071 -1.2041667 -0.6475939 -5.7051077 -1.0342734 -4.2695713 -0.5937504
-6.933427 -0.4815677 -14.643964 -0.42469084 -3.9657037 -0.64089394 -1.8340701 -1.1977334
-11.295757 -0.9547352 -3.3126657 -0.28496927 -0.81687486 -0.33446005 -1.7411288 -0.24475668
-1.7188421 -0.19111608 -0.5198407 -0.17476384 -0.05743967 -0.0077152695 0.75535655 0.02276116
5.1987805 0.14747225 0.0717695 0.4444583 1.3167131 0.17307192 0.15878326 0.18984908
0.31751335 0.3338796 1.0870858 0.34454995 0.04104564 0.052218266 2.5431383 0.03094243
-0.308095 -0.14302093 -0.17203307 -0.09028578 -0.56547785 -0.5371766 -1.9483298 -0.6767425
-0.3523891 -0.60553706 -0.5505267 -0.26065928 -3.8421931 -0.8126729 -1.5018361 -1.4571903
-4.6119604 -1.1730554 -0.81269693 -0.90416294 -6.094484 -0.96146095 -0.8721713 -1.496349
-15.5247 -0.90013295 -2.1667647 -0.7013744 -9.882258 -0.3425376 -1.0035396 -1.1848987
-3.7935996 -0.9981849 -1.0465218 -0.37550116 -0.47400305 -0.25724396 -0.9136366 -0.19593573
-0.22188805 -0.093611516 -0.18208207 -0.032687422 0.088256925 0.17873703 0.15267424 0.052468546
0.0462764 0.19266807 4.5578647 0.09910624 0.17604545 0.3120071 0.38823596 0.38876
2.6272044 0.2191385 0.104488924 0.094698764 0.46030408 -0.031489715 0.031650808 -0.040677648
-0.53201854 -0.1781366 -0.7286772 -0.18817964 -1.6022863 -0.4400041 -0.2484349 -0.26509342
-3.5801928 -0.35541356 -10.409097 -0.6764027 -0.5898213 -1.1797352 -1.4795588 -1.275822
-4.4441004 -0.5308828 -5.210762 -1.5268915 -3.635399 -0.540021 -17.280848 -1.1945962
-15.023186 -1.3421534 -1.8187755 -0.39365917 -6.2595716 -0.7255189 -2.1774256 -0.8253496
-3.3843112 -0.5348424 -1.9688514 -0.36629212 -0.189109 -0.24089172 -0.05789114 -0.16994329
00000000: 2f5b e2bc 9106 10be 2bdb b73e 1556 cdbd
00000010: 975b f73e ccfe acbd f64d 873e 2e87 7bbb
00000020: 8f9e 343f fa76 0d3b 4f52 b13e 46b8 413d
00000030: 2a2a 4240 7bde 413e 01e3 2a40 cd35 983e
00000040: e7b0 9640 fb58 813e a07d cd3f ca3c ce3d
00000050: 86dc 573d 8ee0 7f3e 028c e53f c449 ce3d
00000060: 616c 8c3c 0a0d 0dbe 3cb1 a5be 27b7 35be
00000070: 3d4e 51be 2d9a f4bd 64ae 8ebf e822 0abf
00000080: 20d4 18c1 1041 47be 294d adc0 eeb5 6bbf
00000090: 7349 2ebf 2d93 66bf 128d 58c1 c3f6 debe
000000a0: aca0 5ec0 9dd7 c0be 4505 9bc0 9f83 9abf
000000b0: d939 85c0 6e55 04bf 051f 4bc0 d4d3 b6bf
000000c0: 1172 26c0 bf88 d7bf 54ad 84c0 eda2 d7bf
000000d0: bd9f 95c0 4162 41bf f768 66bf aa44 33bf
000000e0: b525 5fc0 c994 1bbf 216b 6dc1 1167 61bf
000000f0: bebb c9be c2e6 8ebe f07c a8be f1bf 79be
00000100: c9ad 74c0 6737 0fbe 7d59 85c0 82e4 65bd
00000110: 39d1 52be c850 8cbb 89e9 9b3e 77fc 253e
00000120: 38bd 903e 3804 983d 510d cf3f 2784 ad3d
00000130: 63b8 6040 e4fb 363e 7f4d f93e fbb6 843d
00000140: ffbe b73f b9c7 3d3d ff2e 8d3f 6e4c d73d
00000150: 2833 bc3d 34bb 103e 88d0 133f cfe3 c43c
00000160: 6b87 a23e ff31 e9bc 6b6f dcbd 63cb a1bd
00000170: 866b a2bf a26c fbbd 36a8 e9c0 24b2 eebe
00000180: 2450 c4be 32d8 7ebe a840 38c0 a521 f2be
00000190: 278a 40bf b1fe 4dbf 9a4e d1c0 53c3 28bf
000001a0: 21f3 fbbf b735 1ebf 2222 9abf b7c8 25bf
000001b0: 3e90 b6c0 1263 84bf 54a0 88c0 0700 18bf
000001c0: a2de ddc0 0b90 f6be ad4d 6ac1 1471 d9be
000001d0: 17ce 7dc0 a011 24bf cfc2 eabf 544f 99bf
000001e0: 6cbb 34c1 8769 74bf b702 54c0 7ee7 91be
000001f0: b61e 51bf 593e abbe 4fdd debf 7fa1 7abe
00000200: 0503 dcbf efb3 43be 4814 05bf 4bf5 32be
00000210: dc45 6bbd 5fd0 fcbb 0c5f 413f 9d75 ba3c
00000220: 695c a640 f702 173e e3fb 923d 0a90 e33e
00000230: 0e8a a83f c439 313e 1498 223e cc67 423e
00000240: 1c91 a23e 44f2 aa3e a125 8b3f da68 b03e
00000250: 791f 283d d2e2 553d c7c2 2240 fb7a fd3c
00000260: a1be 9dbe 1474 12be 7029 30be c0e7 b8bd
00000270: 28c3 10bf 6884 09bf df62 f9bf ff3e 2dbf
00000280: 586c b4be 7a04 1bbf 51ef 0cbf 2275 85be
00000290: 7ee6 75c0 550b 50bf 2a3c c0bf 3685 babf
000002a0: 2e95 93c0 ae26 96bf e80c 50bf 3977 67bf
000002b0: 0306 c3c0 4e22 76bf 9e46 5fbf 5d88 bfbf
000002c0: 2c65 78c1 1d6f 66bf 46ac 0ac0 468d 33bf
000002d0: bb1d 1ec1 1761 afbe fc73 80bf c3aa 97bf
000002e0: 56ca 72c0 0c89 7fbf 6df4 85bf b041 c0be
000002f0: 87b0 f2be 7bb5 83be 17e4 69bf 60a3 48be
00000300: 9f36 63be 65b7 bfbd b973 3abe 3fe3 05bd
00000310: 0cc0 b43d d706 373e a356 1c3e 42e9 563d
00000320: 538c 3d3d c74a 453e 07da 9140 36f8 ca3d
00000330: 4245 343e 65bf 9f3e ddc6 c63e 8d0b c73e
00000340: 1e24 2840 d865 603e 4afe d53d 6df1 c13d
00000350: faac eb3e 5cfb 00bd 47a4 013d 9b9d 26bd
00000360: 5e32 08bf 7169 36be 978a 3abf 2ab2 40be
00000370: b817 cdbf 3848 e1be b865 7ebe 53ba 87be
00000380: e121 65c0 c4f8 b5be a98b 26c1 ba28 2dbf
00000390: 87fe 16bf 9001 97bf 2f62 bdbf 234e a3bf
000003a0: 1236 8ec0 efe7 07bf 90be a6c0 2e71 c3bf
000003b0: 61aa 68c0 d13e 0abf 2d3f 8ac1 87e8 98bf
000003c0: f85e 70c1 afcb abbf a3cd e8bf b28d c9be
000003d0: 694e c8c0 9bbb 39bf f15a 0bc0 1d4a 53bf
000003e0: 8e98 58c0 6eeb 08bf 5303 fcbf a48a bbbe
000003f0: caa5 41be 52ac 76be 431f 6dbd 9d05 2ebe

arr_3 f4 [32]
-1.1558187 -0.5193626 -0.8065826 -0.28749415 -0.21940544 -0.26550126 -0.39924708 -0.15023646
0.0069456208 -0.11203143 -0.08093386 -0.07599985 0.06624034 -0.08875395 0.41193193 -0.034437846
0.72276074 -0.066495664 0.47290722 0.014257414 0.2461989 0.020100333 0.07161734 -0.13357733
-0.011647348 -0.094647154 -0.1215175 -0.21299693 -0.72603124 -0.20399985 -1.0168215 -0.41219252
00000000: def1 93bf f3f4 04bf 337c 4ebf 6f32 93be
00000010: d2ab 60be c8ef 87be 1d6a ccbe 96d7 19be
00000020: 1798 e33b bc70 e5bd a7c0 a5bd cfa5 9bbd
00000030: 04a9 873d a2c4 b5bd bee8 d23e b30e 0dbd
00000040: d906 393f e12e 88bd e520 f23e ee97 693c
00000050: 901b 7c3e 74a9 a43c 1dac 923d 7fc8 08be
00000060: 85d4 3ebc 5ed6 c1bd 2bde f8bd de1b 5abe
00000070: 2fdd 39bf 56e5 50be 3527 82bf e60a d3be

arr_4 f4 [1, 32]
1.2126157 0.5344385 1.7919139 0.747037 9.858789 0.7939782 1.2766036 0.69066775
12.145987 0.6134292 2.1765792 0.5164484 5.765693 0.6815752 5.004177 1.4078242
1.9889176 0.6358144 3.9180946 0.67349535 1.3518255 0.9872378 13.054272 0.84054506
0.8601788 1.048569 2.7668004 0.6476307 1.8600636 0.4022166 2.6964638 0.6210215
00000000: fe36 9b3f f6d0 083f 6f5d e53f d13d 3f3f
00000010: 9abd 1d41 2842 4b3f bf67 a33f 9acf 303f
00000020: f655 4241 b209 1d3f 134d 0b40 f635 043f
00000030: 8f80 b840 b67b 2e3f 3822 a040 9533 b43f
00000040: da94 fe3f bcc4 223f 10c2 7a40 316a 2c3f
00000050: 9e08 ad3f 9ebb 7c3f 4cde 5041 f62d 573f
00000060: ae34 5c3f 8237 863f 4213 3140 20cb 253f
00000070: 9016 ee3f 56ef cd3e dd92 2c40 44fb 1e3f
