model_checkpoints/model_round_11.pt (torch, 15374 bytes, 5 tensors)

layers.0.weight f4 [64, 15]
000000 4c ac 2c 3d 17 87 c6 3d 1e 8b 7b 3e e0 54 52 3d
       0.042156503 0.09693735 0.24564788 0.051350474
000010 bb bb 83 3d 6d ef 7f 3d 2c c3 e6 bd 4c c9 e9 bd
       0.06432291 0.062484194 -0.11267695 -0.114153475
000020 af 99 ce bd 53 a4 a8 3d 66 27 ac bd 9c 5a 53 be
       -0.100879066 0.08234467 -0.08405952 -0.20640033
000030 12 8a 47 3e 1a 2e 5c 3e 8a 49 4b 3e 5c 7d 44 bd
       0.19486263 0.21501961 0.19852272 -0.047971115
000040 be e8 00 bd f2 89 b8 bc e7 13 24 be 88 1d a2 be
       -0.03147196 -0.022526715 -0.16023217 -0.31663156
000050 94 31 53 3d e2 86 bd 3d f5 e9 79 be 61 94 11 3e
       0.051560953 0.092542425 -0.24405654 0.14216758
000060 a2 f9 32 3e 28 fa 25 be fb cf 37 be f9 c6 37 bd
       0.1747804 -0.16208708 -0.17950432 -0.04486749
000070 5f 19 7d 3e 3c 5e 69 bc 6c 6c 1a bd d6 53 28 be
       0.2471671 -0.014243659 -0.037701055 -0.16438231
000080 b7 8c d1 3c dd da 73 3e 8a 6d 12 3e 5f b7 3f 3e
       0.025579793 0.23813958 0.14299598 0.18722294
000090 90 f7 d0 3d 89 a9 10 be fe e6 58 3e ae 0b 21 3d
       0.10203469 -0.14127173 0.21181867 0.03931778
0000a0 04 a6 cb 3d 49 4d 78 be 6d de b8 3c bf f5 d8 3d
       0.09943774 -0.24248232 0.022566998 0.10593747
0000b0 2c 9b 5a bd 0a a1 94 be d2 37 08 3d 3f 81 d8 bd
       -0.05337064 -0.29029113 0.03325636 -0.10571527
0000c0 99 65 53 be 18 0c 24 bd e9 53 cf 3d 88 47 05 be
       -0.20644225 -0.040050596 0.101234265 -0.13015568
0000d0 d4 ce 07 be 79 9b 7f 3d 32 1f 40 be ce 18 dd 3d
       -0.13262492 0.06240413 -0.187619 0.10795747
0000e0 89 63 49 be ea d5 98 3d da ed 8d be e9 6b e1 bd
       -0.19666876 0.07462676 -0.2772053 -0.1100691
0000f0 81 ac f8 3c 90 71 49 be 1e 71 0a be 95 c2 86 be
       0.030355694 -0.19672227 -0.13519713 -0.2632033
000100 cc 23 76 3e 90 ac 79 be bd 35 39 3e 98 13 03 be
       0.24037093 -0.24382234 0.18086906 -0.12800443
000110 33 5b 24 3e e9 4f 1a 3e 0c 43 68 3e b9 86 84 3e
       0.16050415 0.15069546 0.22681826 0.25884035
000120 6e 54 3b be df d2 e6 bd ee 35 83 3e 66 a7 93 3d
       -0.18293926 -0.11270689 0.25627083 0.07209663
000130 38 53 1e bd fc 21 34 3e b6 26 fd 3d 80 d5 0f 3e
       -0.038653582 0.17591089 0.12360899 0.14046288
000140 19 4a ee 3d e2 9a 30 3e be 14 9e bd 82 5d 6a 3c
       0.11635227 0.17246583 -0.077188 0.014304521
000150 0e 32 54 3e a2 93 8e be 39 4e bb bc d8 28 8a be
       0.2072222 -0.2784701 -0.022864448 -0.26984286
000160 d7 db 5e 3e 80 e1 63 be 20 f6 70 bd dd 3b b8 be
       0.2176355 -0.2225399 -0.058828473 -0.35983172
000170 d4 0c 1d 3e b2 a8 ce 3d 78 8a 0a bd f7 1c d2 3d
       0.15336925 0.1009077 -0.03382346 0.10259431
000180 a3 ad 9d be 8e 43 17 be 42 15 25 bd 93 b7 93 be
       -0.30796537 -0.14771864 -0.040303476 -0.28850994
000190 ae 5a a6 3d 02 f6 dc 3d b0 09 b5 bd 52 79 dd bd
       0.081227645 0.1078911 -0.08839738 -0.10814156
0001a0 4a 3c 6f 3e c7 60 75 be 2a 67 0b 3b 32 55 5a be
       0.23362842 -0.23962699 0.0021271207 -0.21321562
0001b0 2a 19 75 3c d6 8a 98 be 37 12 f6 3d 12 85 35 bd
       0.014959613 -0.29793423 0.12015193 -0.04431636
0001c0 46 93 18 be 9c 63 f7 3d d0 57 e1 3b 69 34 59 3e
       -0.1489993 0.12079546 0.006876923 0.21211399
0001d0 06 07 0a be 5c 8a 1c be fb 9b 6f bb e8 68 08 be
       -0.13479242 -0.15287155 -0.0036561477 -0.13321269
0001e0 1c 58 fb 3d cb 62 92 be 1e 1e 6e be 90 65 6d be
       0.12272665 -0.28590998 -0.23253676 -0.23183274
0001f0 9a 1e 5f 3d bb 0d 72 bd 23 b7 57 3e b4 14 53 3e
       0.054472543 -0.059095126 0.21065955 0.20613366
000200 34 e8 05 bd 64 c9 29 bd 8f e2 34 3e 50 85 40 3e
       -0.03269215 -0.041451827 0.1766455 0.18800855
000210 98 ea 1a be 4a e5 0f 3e 68 3f 64 be 40 ac 9b 3c
       -0.15128553 0.1405231 -0.22289813 0.019003034
000220 b0 0f 12 be c1 84 ac 3e 16 2d 81 be 4d d1 19 bd
       -0.14263797 0.33695033 -0.2522971 -0.03755312
000230 75 99 52 be 26 15 c9 bd 58 b2 ba 3d c2 1e 2c 3e
       -0.20566352 -0.09818487 0.091160476 0.16808608
000240 70 d8 aa bb d8 71 78 be 4d e9 ed bd 5a fb fe 3c
       -0.0052137896 -0.24262178 -0.11616764 0.031125713
000250 cc 9a fe bd af cd 76 be bb 17 1f be 5f 0e 48 be
       -0.12431869 -0.241019 -0.15536396 -0.19536732
000260 34 08 f3 bd c7 60 7c be 9f c2 52 3d 64 39 87 bb
       -0.11866799 -0.24646293 0.051455136 -0.0041267145
000270 4a ff 8c be b6 de 70 be 44 0c 11 be 2b 4d 9c bd
       -0.2753852 -0.23522457 -0.14164835 -0.07631906
000280 fb 14 3e be 68 12 11 3e 76 09 47 3e 5d c3 fb 3d
       -0.18562691 0.14167178 0.19437203 0.12293122
000290 1a 37 43 3e 96 66 99 be e6 67 02 3e b4 48 04 3d
       0.19063988 -0.2996108 0.12734947 0.032295898
0002a0 44 65 f3 bd 18 44 a2 bd 2a 40 11 3e 02 da 0d bd
       -0.11884549 -0.07923144 0.14184633 -0.034631737
0002b0 ca f8 b2 3d 7d cd 30 be 17 a4 66 3e d8 bd d1 3d
       0.08738859 -0.17265888 0.22523533 0.10241288
0002c0 79 2a bd 3d b1 f4 87 bd 13 10 8f bd ee 8e 7b be
       0.09236617 -0.06638468 -0.06985488 -0.24566242
0002d0 c3 d8 62 be c0 bd 2e 3d 6d f8 9c 3e 72 d8 1b be
       -0.22153 0.04266143 0.30658284 -0.15219286
0002e0 0b 86 7f 3b 9e f8 e0 3b e7 f4 6c be c8 fa 34 bd
       0.0038989808 0.006865575 -0.23140298 -0.044184476
0002f0 6b 9f 83 bd 34 16 5d bc 68 29 08 be 9f 4e 63 be
       -0.06426891 -0.013494063 -0.13297045 -0.2219796
000300 b2 3f db bd 13 03 f6 3d aa c3 58 3d f9 d1 5a 3d
       -0.10705508 0.12012305 0.052920975 0.0534229
000310 03 a7 9d 3e fa 9d de 3d 7c 60 69 3d 7a 82 cc bc
       0.30791482 0.108699754 0.05697678 -0.02496456
000320 b0 d8 d0 3d b0 41 d8 bd 5a e5 32 3d 99 f2 9c 3e
       0.1019758 -0.10559404 0.043675758 0.30653837
000330 73 4f 91 bc d6 7c f7 3d 8a 40 b1 3d 17 41 cb 3d
       -0.01773808 0.120843574 0.08654888 0.09924524
000340 a0 b1 96 bd af ec cd 3c a4 cb 0e be e9 05 84 3e
       -0.07358098 0.025137274 -0.1394487 0.2578576
000350 3a be 2a be 82 3c 4b 3e 3d 8d 17 3d ec 70 66 be
       -0.16674128 0.198473 0.03699993 -0.22504014
000360 b2 72 19 3e db cb 0a 3d 33 e6 e9 bd 06 c5 f7 bd
       0.14985159 0.033885818 -0.1142086 -0.12098126
000370 ca d8 89 3c d4 61 21 3e 66 5a 16 bd d4 bd ca bd
       0.016827006 0.15759975 -0.036707304 -0.09899488
000380 a5 0e 96 3d b4 d5 15 3d 7d 1f df bd 80 25 9d 3d
       0.07327012 0.036580756 -0.10894678 0.07673168
000390 8c 20 6b 3e e5 f3 5a 3e 64 d8 0b 3e 43 45 94 3d
       0.22961634 0.21382101 0.13656765 0.07239773
0003a0 25 00 7c 3d ae 0e 63 be ff 44 08 3c ac 90 97 be
       0.061523575 -0.22173569 0.008317231 -0.29602563
0003b0 24 ca 9d 3d a3 c5 59 3c 98 47 f5 3c aa e4 9e 3d
       0.07704571 0.013291749 0.029941365 0.07758458
0003c0 82 4d 40 3e 38 13 1b be 4c 01 62 be bd d7 78 be
       0.18779567 -0.1514405 -0.22070807 -0.24301048
0003d0 df bf 65 be ed a4 d4 bd 65 ff 6d be 07 94 fa bd
       -0.22436474 -0.103830196 -0.23241957 -0.12235265
0003e0 0a 45 f4 3d 8d f0 4e 3e 6c 65 87 be 8c 41 c6 bd
       0.11927231 0.2020895 -0.26444566 -0.09680471
0003f0 6b ac 3b be 84 39 28 be d4 58 cc 3d 42 dd a8 bd
       -0.18327491 -0.1642819 0.0997788 -0.082453266

layers.0.bias f4 [64]
000000 8a 56 16 3b 35 ef ce bc 6a 6f 09 3d 2a f9 9e bd
       0.0022939765 -0.025260547 0.03355352 -0.07762368
000010 2e 6f 46 be 3a 56 25 be 1a 5a ef 3d 2e a8 81 3e
       -0.19378349 -0.16146174 0.116871074 0.25323623
000020 39 74 a9 bb c2 05 88 3e 07 a6 5a 3e 77 99 c0 3d
       -0.0051713255 0.26566893 0.21352397 0.09404271
000030 14 06 1b 3d 2d 90 fd 3d a0 77 52 bd 3e 8a 3e be
       0.037847593 0.12381015 -0.051383615 -0.18607423
000040 18 77 36 3e 65 6d 0d 3e 9c eb 3a 3e a2 92 ba bc
       0.17818868 0.13811262 0.1825394 -0.022774998
000050 1a e0 dd bc 9c d5 d3 3d 26 14 da bd a6 53 b5 3d
       -0.027084399 0.10343477 -0.10648374 0.08853845
000060 80 61 99 be e0 5c 2e be 2c 3a e7 3d a0 71 b8 3e
       -0.299572 -0.17027617 0.11290392 0.3602419
000070 e5 84 c4 bd 67 a6 85 3e fe 5a d5 3d b2 d4 ce 3d
       -0.0959566 0.26103517 0.10417746 0.10099162
000080 c4 5f 81 bd f2 a0 c7 bd a0 dc 9a 3e 7b 10 3e 3e
       -0.06317094 -0.09747495 0.3024645 0.18560974
000090 69 a0 ef 3c c3 45 26 3e be 2e 04 3e e2 80 c7 bd
       0.029251294 0.1623755 0.12908456 -0.09741379
0000a0 58 ec 1c 3e 55 fa 8d bd fc 11 2c 3e 96 c9 bd bd
       0.15324533 -0.06932513 0.16803735 -0.09266965
0000b0 b4 b6 c0 bd 3d b6 84 be ce ed 62 3e 30 85 42 3e
       -0.09409848 -0.25920287 0.22161028 0.1899612
0000c0 b3 e5 05 be 92 d1 40 3e 41 14 4d bd 86 a8 89 3e
       -0.13075905 0.18829945 -0.050068144 0.26886386
0000d0 c8 92 d3 3c 4a 45 1d bd 5b 9b 41 be 4c 70 1b 3e
       0.025826827 -0.038396157 -0.1890692 0.15179557
0000e0 93 0c 05 3e ed 23 17 3d b6 e9 8e 3e 2e 44 fe bd
       0.12993078 0.036899496 0.27912682 -0.12415348
0000f0 a6 72 a7 3e 4a 3a a3 3d b9 b1 fb bd e6 86 79 3e
       0.32704657 0.07970102 -0.12289757 0.24367866

layers.3.weight f4 [32, 64]
000000 71 7c 18 bd da 16 a6 3b 3a 07 df bc a4 d6 a0 bd
       -0.03722805 0.005068642 -0.027225126 -0.078534395
000010 84 26 9d 3c 4a 02 9b bd 30 f8 96 3c 72 d6 b9 bd
       0.019183405 -0.07568796 0.018428892 -0.09074105
000020 1d 31 e8 bb 88 98 f9 3c 1e 43 99 3d dd e9 0e 3a
       -0.007085933 0.03046824 0.07483505 0.00054517185
000030 86 d5 5d 3d 66 d5 a3 3d b8 b5 31 bd 32 66 b7 3d
       0.05415871 0.07999687 -0.04338619 0.08955039
000040 1b 39 27 3d fc 64 a3 bd b4 98 0d bd 18 69 e2 bd
       0.040825944 -0.079782456 -0.034569457 -0.11055201
000050 73 dd 7b 3c ee 45 42 3d 81 8d 65 bd fe 80 97 bd
       0.015372622 0.04742997 -0.05604315 -0.0739765
000060 aa 78 ba bd 6e 2f 5a bd 62 59 a7 3d 6a 13 2e bd
       -0.09105046 -0.05326789 0.08171345 -0.042498983
000070 54 3a d0 bd 31 e8 db bb 37 97 ec bd a4 ee 51 bc
       -0.10167375 -0.006711029 -0.115522794 -0.012813244
000080 9b c2 cc bd 48 7a 83 3d 1c 04 9d 3d 1c 26 81 3c
       -0.099980555 0.06419808 0.076667994 0.015765242
000090 44 b3 76 3d d6 2c 75 bd 56 64 65 bc 98 f7 c0 bd
       0.060229555 -0.059857212 -0.014000973 -0.09422225
0000a0 16 6b b5 bb dc 5c 82 3c ea 8d d6 bc a4 fe de bd
       -0.0055364473 0.01591342 -0.026190717 -0.108884126
0000b0 59 59 ac bd b5 0b ea bd 9c 94 98 bd 48 6d 80 bd
       -0.08415479 -0.11428014 -0.0745022 -0.06270844
0000c0 d0 dd e5 bd 62 01 26 3d 8b b3 13 bd f2 3a 01 be
       -0.11223948 0.040528663 -0.036059897 -0.12620142
0000d0 ff 76 8f bd 86 37 74 3b 3f 70 b3 bd 97 70 00 be
       -0.070051186 0.003726454 -0.087616436 -0.1254295
0000e0 ba 5e e4 3c cd b6 a2 bd ee 65 1e be 5a 2e cc 3d
       0.0278772 -0.07945023 -0.1546857 0.09969778
0000f0 f3 c0 0a 3c e2 38 7d bd f2 e4 f2 bd 0e f8 6a 3d
       0.008468854 -0.061821826 -0.11860074 0.05736547
000100 26 fa f1 3d 1c 7c c8 bc 94 7b 69 bd 4c 16 ec 3d
       0.1181529 -0.024473242 -0.05700262 0.1152769
000110 f2 97 20 3e 4a c9 a0 bc 9c c9 c8 bd 52 1e 93 3d
       0.15682963 -0.019627232 -0.09804079 0.071835175
000120 99 a2 ab bd f4 8b 3f bd 52 aa 8b bb 74 5a fc 3c
       -0.083806224 -0.04676433 -0.004262247 0.03080485
000130 f6 db a9 3d 66 6c 08 3e 04 04 29 3d 13 55 01 3d
       0.08293907 0.133226 0.041263595 0.031575274
000140 15 24 9e 3d 8f ef d6 bc 64 87 98 3d c4 75 d5 bd
       0.07721726 -0.026237277 0.07447699 -0.10422853
000150 66 a7 14 3d 48 ee ce 3d f3 ff b0 3d 70 a8 60 bc
       0.036292456 0.10104042 0.086425684 -0.013712034
000160 b8 85 e8 3c 0e f7 a4 bd d9 5b bf 3c f9 52 aa bc
       0.028384075 -0.080549344 0.023359226 -0.020791518
000170 02 83 fb bd d4 b5 81 3d d6 be cf 3c 36 b5 2d 3d
       -0.12280847 0.06333509 0.025359552 0.042409144
000180 4e 81 78 3d 6a 2b 83 bd 75 84 39 3d e0 db b2 bd
       0.06067019 -0.06404765 0.045292336 -0.08733344
000190 80 28 47 bd 1c ee 1d bc fe 71 47 3d f7 64 a6 3c
       -0.04862261 -0.009639289 0.048692696 0.020311816
0001a0 a0 3c 81 bd a9 17 1b bb 9a 6e 03 bd a4 04 fc bd
       -0.063103914 -0.0023665226 -0.0320879 -0.12305573
0001b0 44 ac 77 bc 32 32 ea 3d 08 c8 04 3e e4 e2 fb 3c
       -0.015116755 0.11435355 0.12966931 0.030747838
0001c0 4c d0 07 3e 52 73 64 3d 89 17 18 bc 79 5b 2c bd
       0.13263053 0.05577404 -0.009282955 -0.042079423
0001d0 80 37 91 bd fe 6f 64 3d 70 97 d9 bd a3 4d c4 3c
       -0.07090664 0.055770867 -0.106245875 0.023962801
0001e0 1a b6 e6 bd c0 a1 cb 3c ce 5c b9 bc a4 47 e1 bd
       -0.11265202 0.024857402 -0.02262726 -0.109999925
0001f0 6a 70 22 be 00 e4 0f 3d 92 06 a6 3c 2b 72 ac bc
       -0.15863195 0.035129547 0.020266805 -0.021050533
000200 ab 8a 67 3d be e8 1a bc 06 59 50 bd b6 98 7a 3d
       0.05652873 -0.009454904 -0.05086615 0.061180793
000210 ed 93 ae 3c c0 f4 e1 3d e6 fd 5e 3e 4e 7a 64 3d
       0.02131077 0.110330105 0.21776542 0.0557807
000220 c8 d9 21 bd 08 ad 17 bd 71 77 71 3e f8 0e 87 bd
       -0.039514333 -0.03703025 0.2358072 -0.06594652
000230 69 06 04 3e 05 5d c4 bd 0c 24 b7 bd 3a a9 db 3d
       0.1289307 -0.095880546 -0.08942422 0.10725637
000240 af e0 11 3b 9e ba 01 3e bf cd 59 bc 0f 94 33 bd
       0.0022259166 0.12668845 -0.013293683 -0.04384237
000250 3a 88 ba 3d ce 10 bb 3d 5c 1a 27 3b 26 77 90 3d
       0.091080144 0.091340646 0.002549789 0.07053976
000260 40 b8 bd bd 64 e7 f4 3d b6 8b cf bc 3d 78 91 3c
       -0.092636585 0.11958197 -0.025335174 0.01775753
000270 a4 63 a9 3c e2 63 8b 3d c8 1e b1 bd 08 93 d6 bd
       0.020677395 0.068061605 -0.08648449 -0.10477263
000280 ad 35 c0 3d 92 33 a3 3d ae 54 e4 3b 94 7e 49 bd
       0.09385238 0.07968821 0.0069681024 -0.04919298
000290 e8 a4 a7 3a 70 fa d5 bc 97 f2 93 3d ae 9a 29 3e
       0.0012790235 -0.026120394 0.07224005 0.16562912
0002a0 11 fb b0 bd 0a 1e 82 3d c5 9c 9c 3d a0 ca ad 3c
       -0.08641637 0.06353386 0.07647089 0.021214783
0002b0 96 34 4c bd d7 28 09 be 35 27 75 bc 50 ee b6 3d
       -0.049854837 -0.13394485 -0.014962961 0.08932173
0002c0 79 6b 13 be 4a 48 d2 bc 56 0b 3e 3e e3 ad ce 3d
       -0.14396466 -0.025669236 0.18559012 0.1009176
0002d0 a3 82 d1 bd 4e dd 24 3d 1c ce e2 bc ed 07 9f 3d
       -0.10229995 0.040250115 -0.027686171 0.077651836
0002e0 70 6a 05 bd ff 4f 94 bc 2c 60 05 3e 84 63 a9 3c
       -0.03257221 -0.018104551 0.13024968 0.020677336
0002f0 c8 ba 4a 3d 75 3f 8b bd 56 20 ff bc 24 57 1d 3d
       0.049494535 -0.06799213 -0.031143349 0.038413182
000300 1e 9c 8d 3d 85 b8 e6 3d 02 67 bf bd f9 1f 94 3d
       0.069145426 0.11265663 -0.09345819 0.07232661
000310 6a 6b b0 bd 1a ec 8b bd 69 7b 1e 3e 18 c4 19 bd
       -0.086142376 -0.06832142 0.15476765 -0.037540525
000320 f6 ec c2 3d 0a 5d 3a 3e 20 33 78 3d ba 62 0f 3d
       0.09517853 0.18199554 0.06059563 0.035006262
000330 a7 a6 bf ba c9 51 11 bd b4 5a 8f 3d 93 56 28 3e
       -0.001462181 -0.035478387 0.06999722 0.16439275
000340 fc 7b a0 3c 17 e5 1e bc 99 2d b0 3d d2 d7 95 ba
       0.01959037 -0.009698174 0.08602447 -0.0011432117
000350 71 ad e9 3c c8 ce 23 3d b0 84 d7 3d a1 0a f1 3d
       0.028525086 0.039992124 0.10523355 0.117696054
000360 dc 2f 11 be e0 75 15 bd 58 b1 aa 3d 88 3c 28 3e
       -0.14178413 -0.036489367 0.08334607 0.16429341
000370 12 d0 be 3d 84 71 c3 3d ee bb a8 3b be f3 f2 bd
       0.0931703 0.09543136 0.005149356 -0.118628964
000380 80 5a b5 3d 26 6b a8 3c 78 1f bd 39 b0 dd ea 3d
       0.08855152 0.020558905 0.00036072335 0.11468065
000390 fe 14 2c 3d fa 80 02 3c 8c 21 97 3d 21 73 09 3e
       0.042012207 0.007965321 0.073794454 0.13422824
0003a0 04 52 ff bc f5 f0 ee bb c4 a9 e4 bb 94 d0 95 3c
       -0.031167038 -0.007291908 -0.0069782455 0.018287934
0003b0 c4 d7 dd 3d 04 f6 b9 bb 3e 76 8c bd 22 dc 72 3b
       0.1083217 -0.0056750793 -0.068584904 0.003705748
0003c0 5e 75 22 be 4d bc 0d 3d 7a 51 19 3e 5c da ba bb
       -0.15865085 0.034603406 0.14972487 -0.0057023
0003d0 4a ea bd 3d e6 c2 af 3c 26 26 52 3e 04 67 5a 3e
       0.09273203 0.02145524 0.20522365 0.2132836
0003e0 d5 ba 11 3e e3 cd 04 3e 00 ac a7 3d e7 53 ba 3d
       0.14231427 0.12969165 0.08187103 0.09098034
0003f0 9e 5b 23 3e ec 52 1c 3d 4a 74 26 bd 07 15 a3 3d
       0.15952918 0.038165018 -0.040638246 0.07962995

layers.3.bias f4 [32]
000000 ac 21 49 bd 95 ce 2a be da 12 0d 3e a2 5e 44 3e
       -0.049104378 -0.16680367 0.13776723 0.19176725
000010 68 85 21 3e 91 9a 5d 3e 31 31 ee 3d ee 6e a8 3d
       0.15773547 0.21640994 0.11630476 0.08224283
000020 f6 2a 3f 3e 32 c0 26 3d fc 9e a7 bd b0 f9 01 3e
       0.18668732 0.040710635 -0.08184621 0.12692904
000030 20 0b 20 3d 0e 5c 5b bd 68 4b a8 3d e4 30 b1 3d
       0.03907311 -0.053554587 0.082175076 0.08651903
000040 e4 be 4a ba 1c af b6 bd c0 0e 3d 3d d3 0e 2f 3d
       -0.00077341334 -0.08920118 0.046156645 0.042738747
000050 6e 06 ab 3d 44 93 84 bc fc 5c 0b bd 14 d1 be 3c
       0.08350836 -0.016183503 -0.034024224 0.023293056
000060 24 73 39 3d d0 78 59 39 e4 bc 44 bd 68 83 0a be
       0.045275822 0.00020739739 -0.048031703 -0.1352669
000070 c1 58 51 3e 6f bc 57 3e c7 5a 52 3e 4c cb be 3d
       0.20444013 0.21067975 0.20542441 0.093161196

layers.6.weight f4 [1, 32]
000000 c4 f2 df 3d ab 08 c4 3d 9a 7a 15 be a2 c4 e7 bd
       0.10934976 0.09571966 -0.1459755 -0.113168016
000010 2e 94 b0 bd fc 9b d0 bd 0e bd 12 be 83 91 3e be
       -0.08622013 -0.10186002 -0.14329931 -0.18610196
000020 cc a0 95 bd ed 9c 2b be fd fe 20 3e 1c ca 9a bd
       -0.0730606 -0.16759081 0.1572227 -0.075580806
000030 e1 6c 60 be 00 a5 00 3e 66 4d 0f be 14 02 ab bd
       -0.21916534 0.12562943 -0.13994369 -0.08350006
000040 28 5f e6 3d 34 69 63 3e 4f 71 0e be 83 35 13 be
       0.11248618 0.222081 -0.13910411 -0.14375882
000050 6e 39 d2 3d c0 84 58 3e 7c 2f 07 3e c2 13 b5 bd
       0.1026486 0.2114439 0.13201708 -0.08841659
000060 3a 0b f4 3d 52 9c f4 3d cc 8e 19 be 92 c2 c2 3d
       0.11916204 0.11943878 -0.14995879 0.095097676
000070 8d 1d f5 bd a3 37 8f bd 82 be c8 bd 11 01 a0 bd
       -0.11968527 -0.06993034 -0.098019615 -0.078127034
