model_checkpoints/model_round_19.pt (torch, 15374 bytes, 5 tensors)

layers.0.weight f4 [64, 15]
000000 98 04 d0 3c eb 01 a5 3d ee 8e 85 3e e8 79 78 3d
       0.025392815 0.080570064 0.2608561 0.060663134
000010 6e b0 dc 3c 6a 59 ab 3d 1e ce ee bd 51 6c 17 be
       0.026939597 0.08366664 -0.116604075 -0.14787413
000020 b1 a9 d6 bd 0b 1e 8a 3d 87 b7 dc bd 38 b8 71 be
       -0.10481585 0.067440115 -0.107771926 -0.2360543
000030 69 d0 56 3e 80 69 23 3e f4 55 7a 3e e6 d3 b6 bc
       0.2097794 0.15958214 0.24446851 -0.022317838
000040 da 57 86 bd aa 5f b9 bb d2 a4 29 be 76 dc ac be
       -0.06559725 -0.005657156 -0.1656678 -0.33761948
000050 1b 1d 66 3d 8c a5 a9 3d 26 11 86 be ef 89 02 3e
       0.0561801 0.08283529 -0.26184958 0.1274793
000060 d4 85 32 3e ee c2 01 be 58 de 38 be 07 a3 92 bd
       0.17433864 -0.12672016 -0.18053567 -0.07160001
000070 64 62 87 3e 9a 23 26 bd 4c 6c 24 bd f6 a1 1d be
       0.26442254 -0.040561296 -0.040142342 -0.15393814
000080 74 d0 7a 3d 0b 97 65 3e 59 ab e4 3d a8 ae 57 3e
       0.061233953 0.224209 0.111654945 0.2106272
000090 0f 98 c4 3d c0 11 09 be 38 37 60 3e f0 47 9a 3d
       0.095993154 -0.13385677 0.21896064 0.07533252
0000a0 0a ce b2 3d 92 9a 6f be 66 d4 e4 3c 12 01 a4 3d
       0.08730705 -0.23398808 0.02793331 0.08008017
0000b0 d0 03 72 bd f8 e1 a2 be ea 01 6a 3d 84 00 8f bd
       -0.059085667 -0.31813025 0.05713073 -0.0698252
0000c0 c3 b5 65 be de f8 8d bd d7 6e c8 3d 20 3a 01 be
       -0.22432618 -0.06932233 0.09786766 -0.12619829
0000d0 58 5a 20 be 8c 36 a2 3d 22 e1 45 be 3c a3 f8 3d
       -0.15659463 0.0792056 -0.19324163 0.121405095
0000e0 4a c2 1e be 5a 47 a8 3d 86 e5 97 be 28 b7 f9 bd
       -0.15503803 0.08216734 -0.296673 -0.121931374
0000f0 84 3a 58 3d 32 2a 41 be 05 ce b2 bd 1e d7 6a be
       0.05279018 -0.18863752 -0.08730701 -0.22933623
000100 5c 17 93 3e b7 b4 75 be 3b b2 26 3e c6 4c fb bd
       0.2872876 -0.23994718 0.16278927 -0.12270503
000110 28 5d 06 3e a2 ff 3c 3e 66 e4 6d 3e 65 33 86 3e
       0.13121474 0.18456891 0.23231658 0.26211086
000120 e6 3e 6f be e7 69 16 be 78 f7 91 3e de c2 99 3d
       -0.23363838 -0.14688836 0.28509116 0.07507871
000130 c0 a9 a8 bd 80 28 24 3e 8a 0c fe 3d 76 66 01 3e
       -0.08235502 0.16031075 0.124047354 0.12636742
000140 6a 2c cf 3d 79 cd 43 3e 4a bf a0 bd a8 1e da 3b
       0.10115893 0.1912135 -0.078489855 0.0066564865
000150 12 ff 50 3e 47 a8 87 be e2 89 4e bc 7c 5a 82 be
       0.20409802 -0.26495573 -0.012606116 -0.2545966
000160 99 46 3c 3e f6 01 6a be 87 82 8b bd 1d 18 be be
       0.18386306 -0.2285231 -0.068120055 -0.37127772
000170 b0 52 20 3e 84 ed fa 3d c0 ea 63 b9 15 45 c5 3d
       0.15656543 0.12252334 -0.00021735858 0.09632317
000180 96 2d 92 be 4d 64 05 be 78 06 1d bc 86 3f 87 be
       -0.28550404 -0.13026543 -0.009584062 -0.26415652
000190 32 79 a7 3d 67 b2 d2 3d 95 5c bd bc c2 cc 99 bd
       0.08177413 0.10287934 -0.023115436 -0.075097576
0001a0 99 6c 78 3e 5b d9 63 be b9 ac bf 3b 30 8f 4a be
       0.24260177 -0.22250883 0.0058494476 -0.19781184
0001b0 1a ae ba 3c aa 07 af be 1c df ef 3d f0 be 4c bd
       0.022788096 -0.34185535 0.117124766 -0.04998678
0001c0 7b 46 00 be d0 bc af 3d 7f ef 8c 3c 54 85 71 3e
       -0.12526886 0.08580935 0.017204044 0.23586017
0001d0 3e 0c ed bd 51 a1 12 be 7b d3 37 bc 42 2e 05 be
       -0.11574601 -0.1431935 -0.0112198545 -0.13005927
0001e0 9b b3 c7 3d d7 9f a3 be 50 61 75 be e8 fe 69 be
       0.09751054 -0.31957886 -0.23962903 -0.22851145
0001f0 ea 4c 81 3d b9 0a 72 bd 4a 59 57 3e ea fa 4d 3e
       0.06313498 -0.059092257 0.21030155 0.20115247
000200 ee 57 0e bd f3 33 ee 3b 7a ca 13 3e 56 3a 29 3e
       -0.034751825 0.0072693764 0.14432707 0.1652616
000210 ce a3 1f be f8 20 22 3e 32 c8 57 be dd 8c 87 3c
       -0.1558983 0.15832889 -0.21072462 0.016546661
000220 0b 9e 23 be 7a b7 b2 3e c9 a6 6d be 82 60 e0 bc
       -0.15978257 0.34905607 -0.23208155 -0.027389769
000230 bc b3 1c be 5e 7a c0 bd e3 49 b6 3d 7e 7e 34 3e
       -0.15302938 -0.0939834 0.089008115 0.17626378
000240 8b b3 ac bc cd d6 81 be 19 1c b1 bd b6 5e 49 3d
       -0.021081707 -0.25359192 -0.08647937 0.04916259
000250 36 f0 e1 bd 00 ff 71 be b5 47 14 be c8 e5 4f be
       -0.11032145 -0.23632431 -0.14480479 -0.20302498
000260 c6 dd c4 bd 2a 6d 8b be b4 11 76 3d aa 60 a7 bb
       -0.096126124 -0.27231723 0.060075477 -0.005107959
000270 ba 79 85 be d7 a9 81 be e5 23 fe bd 05 23 bf bd
       -0.26069432 -0.2532489 -0.1240919 -0.09332851
000280 40 70 34 be a8 b5 05 3e 96 cc 1d 3e c6 2a 02 3e
       -0.17620945 0.13057578 0.15410075 0.1271163
000290 bb 9e 4d 3e 50 35 9f be 4d df 09 3e 8e 0b 75 3b
       0.20080082 -0.31095362 0.13464089 0.003739092
0002a0 52 80 e8 bd 34 e1 e9 bd 12 43 e9 3d 8c 4c 9d bc
       -0.113526 -0.11419907 0.11389746 -0.01920154
0002b0 4b 25 99 3d 17 cd d9 bd 6c b0 85 3e 1d ba 8b 3d
       0.07477816 -0.10634821 0.26111162 0.06822608
0002c0 c6 09 8d 3d a8 ee 9e bd c5 01 84 bd b0 f2 5e be
       0.0688663 -0.07760364 -0.0644565 -0.21772265
0002d0 e4 79 50 be 59 ab 7b 3d e2 23 9a 3e d4 62 24 be
       -0.20358998 0.061442707 0.301055 -0.16053325
0002e0 00 3c 4e bb 83 e2 04 3c bc 98 62 be 1e c6 25 bd
       -0.0031468868 0.008110645 -0.22128576 -0.040472142
0002f0 7e 8b 60 bd c8 1d 10 bd 00 e3 e6 bd 8e a5 64 be
       -0.05482053 -0.03518465 -0.112737656 -0.22328779
000300 7f 1b a3 bd 5e 08 e0 3d 7e c0 95 3d 7f b9 58 3d
       -0.07964229 0.10939096 0.073121056 0.052911278
000310 b4 1e 93 3e 83 9c e5 3d d8 49 86 3c 44 e5 fe bb
       0.28734362 0.11211493 0.016392633 -0.0077787954
000320 42 a6 d1 3d 8f 02 ce bd 5e 30 57 3c 75 39 96 3e
       0.10236789 -0.10059082 0.01313409 0.2934071
000330 f4 84 7b bc c5 77 06 3e 4c 5d a5 3d 00 96 b9 3d
       -0.015351523 0.13131626 0.080744356 0.09061813
000340 f8 54 9d bd 9b d9 e4 3c fb 8d 0b be a0 52 92 3e
       -0.07682222 0.027935794 -0.1362838 0.28578663
000350 bc 0a 17 be 96 be 2e 3e da 1d 19 3d aa 78 82 be
       -0.14750189 0.1706489 0.037381984 -0.25482684
000360 58 36 0c 3e be 01 2d 3d a4 00 a5 bd f8 17 ed bd
       0.13692605 0.04223799 -0.08056763 -0.11576837
000370 2c 28 38 3d a6 d8 26 3e 4c 1f 64 bc 3f 99 ba bd
       0.044960186 0.16293582 -0.013923477 -0.091112606
000380 f9 97 b4 3d 31 2f 67 3d f8 dc f8 bd 8b 4e 80 3d
       0.08818049 0.05644149 -0.121515214 0.06264981
000390 90 b8 6d 3e f0 e2 5a 3e 80 8f 13 3e 96 cf b5 3d
       0.23214936 0.21375632 0.1441021 0.088774845
0003a0 f6 31 9d 3d 7c 0a 57 be f6 ca 78 bc ea 4f a4 be
       0.07675545 -0.21000093 -0.015185108 -0.3209222
0003b0 55 46 f8 3d f4 78 ad 3c c0 34 3f bb bf 61 c7 3d
       0.1212279 0.021175839 -0.0029175729 0.097354405
0003c0 88 0a 7b 3e a3 e5 2d be ff fb 7a be 1e bc 7d be
       0.24515736 -0.1698213 -0.24510191 -0.24778792
0003d0 8a 58 7e be eb 90 ae bd 1a c7 6f be 82 43 fc bd
       -0.24838462 -0.08523735 -0.23415795 -0.123175636
0003e0 ff ff d9 3d 41 2b 35 3e 13 70 8a be cb 24 64 bd
       0.106445305 0.17692281 -0.2703863 -0.05569915
0003f0 4a 80 27 be df 4a ef bd 07 d0 78 3d 08 77 b6 bd
       -0.16357532 -0.116842024 0.060745265 -0.08909422

layers.0.bias f4 [64]
000000 b6 50 43 bc c2 99 cd bc c6 56 b0 3c 11 e4 9a bd
       -0.011921098 -0.025097732 0.021525752 -0.075630315
000010 fc 83 66 be 39 2a 2a be ae 13 a0 3d 6c 3c 70 3e
       -0.22511286 -0.16617669 0.078162536 0.23460549
000020 e8 da 60 bc 60 8d 82 3e f3 89 4e 3e 3e 26 89 3d
       -0.013724066 0.25498486 0.20169811 0.06696747
000030 3a 5a 46 3c c6 f9 aa 3d 4a cc 7f bd da fe 4e be
       0.012106473 0.08348422 -0.062450685 -0.20214406
000040 49 a5 40 3e 1c 11 ee 3d 7b 3b 16 3e 5e 5e 1f bd
       0.18813051 0.11624357 0.14671127 -0.038908355
000050 22 6a 19 bd f1 1b b5 3d 0a 34 c8 bd a0 ab 6c 3d
       -0.03745473 0.0884322 -0.09775551 0.05778086
000060 b0 8e a6 be 52 e6 27 be d0 4f d1 3d 48 27 b9 3e
       -0.32530737 -0.16396454 0.10220301 0.36162782
000070 78 ad 08 be d6 2b 8e 3e 93 16 c4 3d 4c 17 81 3d
       -0.13347423 0.2776782 0.09574618 0.06303272
000080 ae c5 d4 bc 91 a1 ba bd 0b ea 99 3e 3c bf 13 3e
       -0.025973167 -0.091128476 0.30061373 0.14428419
000090 b6 26 db 3b 8c 9a 0d 3e 6e 8d f0 3d 8d 83 a1 bd
       0.0066879643 0.13828486 0.117457256 -0.078864194
0000a0 16 19 09 3e 47 67 45 bd 27 3d 28 3e 5e 7f ca bd
       0.13388476 -0.048194196 0.16429578 -0.098875746
0000b0 76 58 12 be e5 e1 9a be 34 1e 5a 3e 31 c8 30 3e
       -0.14291558 -0.3025047 0.21300584 0.17263867
0000c0 fe d0 0f be f6 e6 29 3e bb c7 8d bd d8 17 8d 3e
       -0.14044568 0.16592011 -0.06922861 0.27557254
0000d0 bd 32 e4 3b bc 9f 90 bd b8 e6 3e be fa 7f 03 3e
       0.0069640563 -0.07061717 -0.186427 0.12841788
0000e0 3d a2 de 3d b0 35 56 3d 48 4e 7f 3e 0a 94 fd bd
       0.10870788 0.052297294 0.24932206 -0.12381752
0000f0 da da 9f 3e e9 31 5f 3d 40 4f 19 be df 9b 6f 3e
       0.31221658 0.054490957 -0.14971638 0.23399304

layers.3.weight f4 [32, 64]
000000 de 88 0f bd bc 6a 8f ba 11 17 c4 bc 7d 65 9a bd
       -0.035042636 -0.0010941844 -0.02393678 -0.075388886
000010 57 54 70 3c e6 a5 92 bd be 50 8c 3c a8 49 b5 bd
       0.014668546 -0.07160549 0.017128345 -0.088519394
000020 25 da 04 bc 10 5b cb 3c 44 a4 83 3d be 4b 00 3c
       -0.00810865 0.024823695 0.064278156 0.007830558
000030 34 12 6b 3d 0c 3b a5 3d fe 26 42 bd 77 f1 b4 3d
       0.057390407 0.08067903 -0.047400467 0.08835118
000040 28 7c 1a 3d 1a 37 9e bd 21 76 06 bd 1e b6 df bd
       0.03771606 -0.077253535 -0.0328275 -0.10923408
000050 0a 36 42 3c 33 00 34 3d 84 de 59 bd 6e 12 8d bd
       0.011853704 0.043945502 -0.053190723 -0.06888281
000060 bd ad ba bd 4c 1d 4b bd ac b1 b0 3d b6 94 4a bd
       -0.09115169 -0.049588487 0.08627638 -0.049458228
000070 60 a1 da bd 6b 4f 0e bc 82 46 ea bd fa 89 70 bc
       -0.10675311 -0.008685927 -0.114392295 -0.014681334
000080 ec b7 c6 bd a4 46 7c 3d 19 be a5 3d e3 3b ee 3b
       -0.09703049 0.061590806 0.08092899 0.0072703226
000090 39 53 7e 3d 78 9b 87 bd c8 69 63 bc 2c 7d bb bd
       0.062091086 -0.0662145 -0.013880201 -0.09154734
0000a0 70 5f a1 b9 a0 5e 7a 3b af 8b 15 bd 20 bc e5 bd
       -0.0003077942 0.0038203374 -0.036510166 -0.112175226
0000b0 a8 96 a9 bd 60 b7 e9 bd 22 c3 9c bd a6 94 5d bd
       -0.082806885 -0.11411929 -0.07654406 -0.05409684
0000c0 cc d5 e2 bd 7a 0c 28 3d cb 1a 29 bd 1f 31 01 be
       -0.11075935 0.041027524 -0.041285317 -0.12616394
0000d0 9b 2f 90 bd e8 5b ff 3b a3 7c af bd ae 6d 01 be
       -0.0704033 0.0077929385 -0.085686944 -0.12639496
0000e0 df 51 8c 3c 0d fc 8f bd 6b 2f 1c be 0a 5d b7 3d
       0.017128883 -0.07030497 -0.15252464 0.08953293
0000f0 f1 88 8c 3a b3 05 6e bd 53 5f f4 bd 5a 6e 7b 3d
       0.0010721964 -0.058110904 -0.11932244 0.061384536
000100 cb 13 fd 3d 07 ca e1 bc 96 4b 91 bd 3a b2 d9 3d
       0.12357291 -0.027562154 -0.07094495 0.10629697
000110 69 61 37 3e fb 39 d0 bc c5 1e d6 bd 8d ba 94 3d
       0.17908253 -0.025418272 -0.104550876 0.07262144
000120 cc 56 9d bd 36 63 65 bd 84 a4 14 bd 75 5f 3b 3d
       -0.07682571 -0.056002818 -0.036289707 0.04574533
000130 bc 60 af 3d d1 bb 07 3e 26 15 69 3d 35 c6 04 3c
       0.085633725 0.1325524 0.056904934 0.008103897
000140 f0 35 bb 3d 46 10 55 bd 1e d1 44 3d 1f e1 e7 bd
       0.09141147 -0.052017473 0.048050992 -0.11322235
000150 18 c2 a4 3b 3a 69 9c 3d 58 4f ce 3d 9c e5 c3 bb
       0.0050280206 0.07637258 0.10073727 -0.0059782993
000160 36 ef f2 3c a6 8f 07 be 2e 2e d9 3c 2d 58 40 bc
       0.02965508 -0.13238391 0.026511278 -0.011739773
000170 fc 8e 02 be b2 e7 72 3d 26 2e f1 3c ec 09 9f 3d
       -0.12749857 0.059302993 0.02944095 0.07765564
000180 35 90 80 3d 04 6b ac bd 0e be 9a 3d 3e 5e cc bd
       0.06277505 -0.08418849 0.07555781 -0.09978913
000190 80 85 5f bd a7 ff 67 bd 76 66 3d 3d fe e6 cc bc
       -0.054570675 -0.056640293 0.046240292 -0.02501249
0001a0 ca 08 6d bd 7e 35 0d bd 63 0a 3d bd f1 80 20 be
       -0.05786971 -0.034474842 -0.046152484 -0.15674187
0001b0 00 83 6c bc e4 cd ec 3d b4 70 06 3e f7 4d 10 3d
       -0.01443553 0.11562708 0.1312893 0.035230603
0001c0 8d 01 0e 3e f8 2e 57 3d c7 9d 2f bd 81 5b b3 bc
       0.13867779 0.052535027 -0.042875078 -0.021894218
0001d0 d6 13 b7 bd aa f8 4e 3d 94 a7 f8 bd 62 57 88 3c
       -0.0893933 0.050530113 -0.12141338 0.01664323
0001e0 e9 cb fa bd e6 85 2c 3c d4 2b d3 bc c9 27 11 be
       -0.12245924 0.010529971 -0.025777735 -0.14175333
0001f0 fa 17 29 be 20 84 c0 3c 78 fd 54 3d 96 df c1 bc
       -0.16513053 0.023500502 0.05199954 -0.023666184
000200 52 c8 84 3d 88 60 f5 3b 10 14 5b bd f8 e7 7f 3d
       0.064835206 0.007488314 -0.05348593 0.062477082
000210 34 d6 52 bc 0e b3 ea 3d c1 cd 56 3e 82 b6 99 3d
       -0.012868453 0.11459933 0.20976926 0.07505514
000220 f2 18 d8 bc 8b 19 10 bd 32 a8 63 3e 76 3f 62 bd
       -0.026379082 -0.03518061 0.2223213 -0.055236302
000230 6a d2 ff 3d 38 31 8f bd 52 0a 8c bd 19 88 f9 3d
       0.12491305 -0.069918096 -0.06837906 0.12184162
000240 49 bb 13 3c b4 cd 03 3e 40 2f 6e bc 00 e2 fa bc
       0.00901682 0.12871438 -0.014537632 -0.030625343
000250 64 f4 ae 3d 80 d8 d3 3d c8 8b 12 bd 72 0d 6a 3d
       0.085427076 0.103440285 -0.035777837 0.05714173
000260 6e 04 cb bd c9 c4 12 3e d5 f6 b3 bc 5b 78 c9 3b
       -0.09912954 0.1433288 -0.021968285 0.0061483807
000270 a9 25 6b 3c 5e 90 7f 3d d1 02 9e bd bf 2f ed bd
       0.014352241 0.06239354 -0.07715381 -0.115813725
000280 5b 8b c8 3d 23 7e fe 3d 78 42 58 3b 7e 0c 78 bd
       0.09792205 0.124264024 0.0032998603 -0.06055879
000290 b8 f0 ca bc ea ce ae bc 04 dc b0 3d 2f 39 2e 3e
       -0.024772987 -0.021338899 0.08635715 0.17014001
0002a0 dc 4d c0 bd 83 2f 68 3d 88 5b 91 3d 06 0f 07 3c
       -0.093898505 0.056685936 0.07097536 0.008243328
0002b0 2d 6f 15 bd 2e 35 3e be c2 6c 96 bc 5a c5 ce 3d
       -0.03648298 -0.18574974 -0.018362407 0.100962356
0002c0 92 2a 20 be 58 ed ed bc ce 0e 70 3e b0 8b b5 3d
       -0.1564124 -0.029043838 0.23443148 0.08864534
0002d0 55 a4 cb bd 7c b1 05 3d 0a 9e 89 bb 92 18 9e 3d
       -0.09943453 0.032639965 -0.004199748 0.0771953
0002e0 44 83 f5 bc bd 10 92 3c 32 3c 11 3e 16 75 94 3d
       -0.029969819 0.017830247 0.14183119 0.07248895
0002f0 3e 96 97 3c 0d cd a1 bd c9 67 d7 bc 3a bc 0b 3d
       0.018504258 -0.079004385 -0.026294606 0.034115054
000300 16 f9 8c 3d 20 6c 03 3e 87 0f dd bd 1a 7c a4 3d
       0.06883447 0.12834215 -0.10793977 0.08031483
000310 d4 97 e6 bd 20 eb a6 bd 21 09 0d 3e 5a 78 18 bd
       -0.11259428 -0.08150315 0.13773014 -0.03722415
000320 92 45 a7 3d ea 49 31 3e 38 7e 87 3d 86 56 c0 3c
       0.08167566 0.17313352 0.06615871 0.023478758
000330 c5 b5 06 bc 4a 76 d1 bc 9a 08 50 3d 84 29 35 3e
       -0.008222048 -0.0255691 0.050789453 0.17691618
000340 9c d6 95 3c 8a 75 26 bb a6 ae a0 3d b2 23 d1 ba
       0.01829081 -0.0025399649 0.078458115 -0.0015956073
000350 36 1d eb 3c d3 2c 27 3d ba 34 8b 3d 43 da ed 3d
       0.028700452 0.040814232 0.06797166 0.11613896
000360 69 11 1c be 42 7f 2b bc 24 07 92 3d fc 4f 16 3e
       -0.15241016 -0.010467352 0.07130268 0.14678949
000370 e2 10 97 3d a8 12 c5 3d d0 9d 90 39 40 c8 02 be
       0.07376267 0.09622699 0.000275834 -0.12771702
000380 6f c9 c6 3d b6 d5 0a 3d c6 1b 35 bc a7 fe b5 3d
       0.09706389 0.033895217 -0.011053985 0.08886462
000390 fc 62 bc 3c 52 ba 56 3c 9e 32 9a 3d 84 a7 11 3e
       0.022996418 0.013105946 0.07529186 0.14224058
0003a0 75 67 3f bd 36 8e 29 bc ce 8c c9 bc 9f 57 25 ba
       -0.046729524 -0.010348847 -0.024603274 -0.0006307307
0003b0 74 ff c7 3d b9 16 b9 bc 60 cc a0 bd 86 83 0b 3c
       0.09765521 -0.022593843 -0.078514814 0.008515244
0003c0 79 17 22 be 07 d6 1a 3c a0 9c 46 3e a1 a6 95 bc
       -0.15829267 0.009450442 0.19395685 -0.018267931
0003d0 ef a5 b4 3d 20 63 37 3c 8c 53 5f 3e 2e e0 63 3e
       0.08820712 0.011193067 0.21809214 0.22253487
0003e0 55 1f 0b 3e c1 e3 0c 3e 92 1c bc 3d 9c 3c 05 3e
       0.13586171 0.13758756 0.09185137 0.13011402
0003f0 fa eb 01 3e bc 7a 10 3c a2 ff 97 bd 1f e1 8b 3d
       0.12687674 0.008818325 -0.07421805 0.06830048

layers.3.bias f4 [32]
000000 28 e7 53 bd ab 2f 19 be 18 94 18 3e 76 7f 39 3e
       -0.05173412 -0.1495959 0.14900243 0.18115029
000010 3a e0 34 3e fc 85 69 3e 3d 8f ee 3d 05 e3 88 3d
       0.1766366 0.22805017 0.11648414 0.066839255
000020 a0 95 42 3e 81 dd 49 3d 20 1f 37 bd 14 bc 0c 3e
       0.1900239 0.04928351 -0.044707417 0.13743621
000030 1d af 57 3d dd a9 4a bd fa 78 ad 3d 90 f7 dd 3d
       0.052657235 -0.0494784 0.0847034 0.108382344
000040 13 9d aa 3c 47 f8 80 bd 00 6d 7e 3d a8 2d 4e 3d
       0.020826852 -0.06297355 0.06211567 0.05033651
000050 b4 67 c6 3d e8 94 e8 bb b6 84 91 bc db 57 3f 3d
       0.096877486 -0.007097829 -0.017763477 0.046714645
000060 67 43 a1 3d 11 b8 35 3d 51 63 34 bd a8 4a f3 bd
       0.07874184 0.044364993 -0.044040028 -0.11879474
000070 4a d0 51 3e bd a1 66 3e 02 53 46 3e ce 9c e6 3d
       0.20489612 0.22522636 0.19367602 0.11260377

layers.6.weight f4 [1, 32]
000000 7a 8d e6 3d 38 46 09 3e cb 22 15 be ca 59 b8 bd
       0.11257453 0.13405693 -0.14564054 -0.09001501
000010 85 38 f1 bd aa 77 c7 bd 02 ed 08 be bc 09 2c be
       -0.11778358 -0.09739621 -0.13371661 -0.16800588
000020 c4 db a4 bd be 57 2b be fc 1b 4f 3e d2 86 b0 bd
       -0.080497295 -0.1673269 0.20225519 -0.08619465
000030 40 fb 5a be c8 18 1a 3e c2 9e 02 be 4c 4c c9 bd
       -0.21384907 0.15048516 -0.12755874 -0.098290056
000040 9e 05 24 3e 13 e0 87 3e 35 e7 07 be c2 2c 07 be
       0.16017768 0.26538143 -0.13271792 -0.13200668
000050 32 74 1e 3e e0 af 86 3e 5f b5 3f 3e 60 f1 de bd
       0.15474012 0.26306057 0.18721531 -0.108858824
000060 9a 53 39 3e 48 81 52 3e af d7 05 be 8a 9a 18 3e
       0.18098298 0.2055713 -0.13070558 0.14902702
000070 7c ff e9 bd c9 3e 8f bd 99 d1 9d bd 9d ac e3 bd
       -0.11425683 -0.06994397 -0.07705993 -0.11116908
