model_checkpoints/model_round_8.pt (torch, 15364 bytes, 5 tensors)

layers.0.weight f4 [64, 15]
000000 20 4a 58 3c b0 a1 65 be bb ce 8f be 47 75 3a 3e
       0.0132012665 -0.2242496 -0.2808741 0.182088
000010 3f e4 1e be 5d de 3f bd 62 85 8e 3c bf 36 0d be
       -0.15516756 -0.04684292 0.017397586 -0.13790415
000020 ce 91 b1 bb c0 79 22 be 38 d9 e5 3d b7 2b 5f be
       -0.0054189926 -0.15866756 0.11223072 -0.2179402
000030 45 fb 10 bd e9 7d e3 3d 4e 98 74 be 40 ef 90 be
       -0.03539588 0.11108 -0.23886225 -0.28307533
000040 05 88 00 3e 02 ef 5b bd 3b 29 0f 3e 0a 5a 4e 3e
       0.12551887 -0.053694732 0.13980572 0.20151535
000050 f8 39 57 3e e2 f4 96 bd 4d d7 3c 3e 28 b7 3f 3e
       0.21018207 -0.073709264 0.18441506 0.18722212
000060 8e 68 7f 3d 2e 59 36 be 6c 1e 3a 3e 4f 58 69 be
       0.06235557 -0.17807457 0.18175668 -0.22787593
000070 7e de e7 bc 0d ec 4c be 82 44 3e 3e 40 96 52 be
       -0.028304335 -0.20011921 0.18580821 -0.20565128
000080 48 66 25 3e 58 a9 3c 3e 7e 78 83 bc d5 f3 34 ba
       0.16152298 0.18423975 -0.016048666 -0.0006902789
000090 93 53 8d 3d a1 00 85 be bb 0f 7b 3e 51 de c2 3d
       0.06900706 -0.25977042 0.2451772 0.0951506
0000a0 1e 5c 8b 3d 3d e4 9f 3e 6d 54 51 3e 86 7e 99 bd
       0.06804679 0.3122882 0.20442362 -0.074948356
0000b0 78 ce 04 3d cb d8 36 3d 8b fc 40 3e 9b ea 9d 3d
       0.032423466 0.044640344 0.18846337 0.07710763
0000c0 6e 15 28 3e 94 cd c4 bb e1 24 2f bd ef e1 7c 3d
       0.16414425 -0.006005952 -0.04275978 0.061738905
0000d0 db 98 a0 bd f1 26 ca 3d 13 85 89 bd d3 70 1b be
       -0.07841655 0.09870709 -0.06714835 -0.15179758
0000e0 f8 2d 4b 3e 81 ab 39 3c 8b d3 57 3e 1b e1 05 bd
       0.19841754 0.011332394 0.21076791 -0.03268538
0000f0 7b e6 80 be 62 00 5b be 16 2e 86 be 0b 10 46 3d
       -0.25175843 -0.21386865 -0.26207036 0.048355144
000100 0c 9c 8f 3d 44 3b 53 be 6f 91 67 3d f8 61 79 3e
       0.070121855 -0.20628077 0.05653518 0.24353778
000110 b7 f8 d1 bd c3 d9 fe 3d c9 b7 b8 3d 8c d4 85 bd
       -0.10252517 0.124438785 0.09019429 -0.06534681
000120 9e f2 12 3e 85 71 41 be ce ad 23 be 4c 8c 71 be
       0.14350364 -0.1889096 -0.1598427 -0.23588675
000130 dd bb 89 be 23 a7 f9 3d db f8 38 bc 69 b6 47 be
       -0.2690114 0.12190082 -0.0112898005 -0.19503178
000140 00 84 91 3e 35 26 a4 3c b4 22 6a be ce c2 08 3e
       0.2842102 0.02003775 -0.228648 0.13355562
000150 b3 bf 56 bd 96 e5 70 be c8 fd 6e 3d e4 52 78 3e
       -0.052428912 -0.2352508 0.058347493 0.2425037
000160 4c 45 76 bd fc 15 57 be 9d 97 1c be 70 46 87 be
       -0.06012468 -0.2100448 -0.15292211 -0.26420927
000170 f5 4f af bc 9a 0a d6 bd 93 e3 62 3c 33 ab 01 3c
       -0.021400431 -0.10451241 0.013848203 0.007914352
000180 7f 07 c4 bd 3c f5 35 be 0b c1 61 be 9c 18 b9 3d
       -0.09571742 -0.1776933 -0.22046296 0.09037897
000190 1a bf 30 be 09 28 95 bb 2f 07 49 be 7a 06 dc bd
       -0.172604 -0.0045518917 -0.19631647 -0.10743423
0001a0 3d d2 05 bc c3 09 2e 3e a7 96 7e be ce 1b 0b be
       -0.0081678005 0.16995911 -0.24862157 -0.13584825
0001b0 0f fa 45 be 5c c3 55 be 00 d0 2c be 95 2b 56 3d
       -0.19333671 -0.20875305 -0.1687622 0.052287657
0001c0 d7 8a 55 be 3a cd 59 3e 58 3c 2e 3e be 45 47 3e
       -0.20853744 0.21269694 0.17015207 0.19460198
0001d0 58 0f 16 be 28 23 78 be 04 dd 47 3d 64 ef 07 be
       -0.1465429 -0.24232161 0.04879476 -0.13274914
0001e0 d6 60 31 be 86 89 98 3d d3 03 56 bd a7 2b d7 3d
       -0.17322096 0.074481055 -0.05224974 0.10506373
0001f0 94 f6 81 be 64 39 50 be 5b 75 93 bd bf 45 83 be
       -0.25383437 -0.20334393 -0.07200118 -0.2563915
000200 82 dc 2d 3d b9 18 e6 3d 40 a9 ea 3d 51 2d 43 3e
       0.04244662 0.11235184 0.11458063 0.19060256
000210 56 83 93 3d fc 1e 0c 3e a0 63 26 bd d9 39 a1 3d
       0.07202785 0.13683695 -0.040622354 0.07872362
000220 46 56 5d 3e c7 69 3a 3e a6 8f 35 bd 3e 88 52 be
       0.21614942 0.18204413 -0.044326447 -0.20559785
000230 1f 1f 94 3d a3 1b 6f 3e ad 88 64 be a5 fd 70 bd
       0.072324984 0.23350386 -0.22317763 -0.058835644
000240 c1 1c 26 3d fd 1c 5c 3d 9f 1d 39 be c7 73 fe 3d
       0.040554766 0.053738583 -0.18077706 0.124244265
000250 66 55 0d be b3 4f 60 be e7 84 a4 3d 8e 59 9a bc
       -0.13802108 -0.21905403 0.080331616 -0.018841531
000260 db c9 3b 3e c9 84 42 3d 0e bf 78 3e d4 43 9d 3c
       0.1833872 0.047489915 0.24291632 0.019197382
000270 ad 73 fa 3d f4 99 6a 3d 74 7d a1 3d cc 76 46 3e
       0.12229095 0.057275727 0.078852564 0.19381255
000280 e1 b0 5e 3c c8 80 90 3d 3f 66 58 be 73 bb 0f be
       0.013591976 0.07055813 -0.21132754 -0.1403635
000290 3d 92 de bd d4 8f e1 3d 57 82 5f 3e 3c 8d 4c 3d
       -0.108677365 0.11013761 0.21827064 0.04993938
0002a0 63 66 6c be ca c4 e8 bd d4 af 2b 3e 86 28 e0 3d
       -0.23085932 -0.113656595 0.16766292 0.10945229
0002b0 e9 10 04 be 2a af 02 3d 7f 80 0e 3e 95 50 2b bd
       -0.12897076 0.03190533 0.13916205 -0.041824896
0002c0 17 07 59 be 38 25 8f 3c 83 c3 1d 3e bc a3 d1 3d
       -0.21194111 0.017473802 0.15406613 0.10236308
0002d0 cb e1 b7 bd 56 36 59 be 88 0a cf 3d 4f a8 3e 3e
       -0.089786135 -0.21212134 0.101094306 0.18618892
0002e0 b8 5b 5a 3e a1 78 b8 3d da dd 28 be c4 8a 7d be
       0.2132405 0.09007383 -0.1649088 -0.24759966
0002f0 83 ca 09 be 1b e7 a5 3d d6 b4 90 be 9f 00 02 be
       -0.13456158 0.081007205 -0.28262967 -0.1269555
000300 74 34 36 be 1d 99 b4 bd d6 4c 43 3e db 5a 53 be
       -0.17793447 -0.088182665 0.1907228 -0.20640127
000310 1a 00 2f 3e bd fb 9a 3d c3 ff 80 3d 01 05 79 be
       0.17089882 0.075675465 0.06298783 -0.24318315
000320 0a cb 5b 3e 8e f2 9c bd 0e e4 72 3e b5 8d 06 3e
       0.21464172 -0.07663451 0.23719808 0.13139994
000330 8b 05 e3 3d 1c 33 ee bc 75 50 9e 3d 07 c3 0a 3e
       0.110850416 -0.029077105 0.0773019 0.1355096
000340 c5 1c ed bd b1 de 15 3e d5 6c 81 be 98 20 9a 3d
       -0.11577753 0.14635731 -0.25278345 0.07525748
000350 30 12 90 3d 35 14 88 3d 75 3c 21 3e 66 95 bc bd
       0.07034719 0.06644479 0.15745719 -0.09208183
000360 b8 fd 1b 3e 74 22 6f 3e 2d a4 38 be df db 74 be
       0.15233505 0.23352987 -0.18031378 -0.23911999
000370 d9 5a 09 3c a7 30 69 be 23 2a 5c 3d 62 13 5b be
       0.008383476 -0.22772466 0.053751122 -0.21394113
000380 ae 8c 2c bd da f2 ac 3d f8 84 50 be 06 e3 59 3e
       -0.04212635 0.08444758 -0.20363224 0.21278009
000390 b2 a4 8c bd 63 72 ac bd 97 72 61 bd 6a 03 32 be
       -0.06867351 -0.08420255 -0.055040922 -0.17384115
0003a0 39 3e 76 3e 51 bb 0f 3e a4 f9 12 bc 04 3f 55 be
       0.24047174 0.140363 -0.008970652 -0.2082482
0003b0 8c 81 20 3e ab 44 74 3e 9c 11 a0 3d a2 b6 c7 3d
       0.15674418 0.2385432 0.07815859 0.09751631
0003c0 6a 5a 20 be 21 a4 6a 3d d2 ba df 3c 2d f4 2f 3e
       -0.1565949 0.05728543 0.027310763 0.1718299
0003d0 48 1a f7 bd c0 4b 50 be d1 7b 20 3e ec 3e e8 bc
       -0.120655596 -0.20341396 0.15672232 -0.028350316
0003e0 04 bf fb bd e3 af 09 be 73 f5 58 be 29 0f 8f 3d
       -0.12292293 -0.13446002 -0.21187381 0.069853134
0003f0 d9 3b 0f be 76 69 60 3e 81 36 33 3e 75 ec 25 3e
       -0.13987674 0.2191523 0.1750126 0.16203482

layers.0.bias f4 [64]
000000 18 1e 04 be cd 29 aa 3d f8 3c dc bd 66 a6 5b 3d
       -0.12902105 0.08308754 -0.10753816 0.053625487
000010 42 ca 81 bd 04 e9 83 be ae 24 82 bc 50 45 dc bc
       -0.06337406 -0.25763714 -0.01588663 -0.02688852
000020 c2 79 58 3e f3 8c 41 3e cd 37 89 be 73 5d 8f 3c
       0.21140197 0.18901424 -0.26800385 0.017500615
000030 a2 ee 1a 3c 6b 71 9b bd 83 eb 2e 3e 0f 2c 0b 3e
       0.009456309 -0.07589992 0.17082028 0.13591026
000040 56 51 a8 3c 65 0a f8 3c 2e 33 9b bd f7 0b 22 be
       0.020546596 0.030278394 -0.07578121 -0.15824877
000050 8b 89 9b bd e1 3c 84 3d 3e a9 0b 3e 51 9f 10 3e
       -0.075945936 0.06456924 0.1363878 0.14123274
000060 83 20 52 be a0 79 39 3e 2f 15 78 3e e5 8e 67 be
       -0.20520215 0.18112803 0.24226831 -0.22613104
000070 66 20 66 bd 4a 1f bb 3c ae 62 64 3d da 7b 0f bd
       -0.05618324 0.022842068 0.05575817 -0.035030223
000080 39 7c 3c be df 35 ef bc 41 8c 47 be 19 20 7d 3d
       -0.18406762 -0.029200492 -0.19487096 0.06179819
000090 51 64 09 3e 89 13 1a bd 2b c4 07 bd 9d 75 63 be
       0.13417174 -0.037616286 -0.033146065 -0.22212835
0000a0 53 15 60 be 21 15 4f 3e 88 c6 c5 bd a1 46 58 bd
       -0.21883135 0.20222904 -0.096570075 -0.052801732
0000b0 9a e1 cc 3d 3f 16 25 be 32 14 87 be 9e 34 37 bc
       0.100039676 -0.16121767 -0.26382595 -0.0111819785
0000c0 af a3 9f bd 7e 05 f7 3d 86 1c 4a 3d 40 fa b3 3d
       -0.07794892 0.120615944 0.04934361 0.08787966
0000d0 f4 f7 33 3e 70 ba 10 3d af 14 55 3e 1e 7e 43 bd
       0.17575055 0.03533405 0.20808671 -0.047727697
0000e0 15 00 67 be 56 83 97 bc ea 3e b9 3c f3 ea 58 3d
       -0.22558625 -0.018495243 0.022613008 0.05295844
0000f0 c2 c0 e5 bd 81 dc 73 3e e8 c0 33 bd b5 23 4a 3e
       -0.11218406 0.23814584 -0.04388514 0.19740184

layers.3.weight f4 [32, 64]
000000 06 98 cf bc 62 fc 00 3c f5 2e 85 3d a2 bf 03 bd
       -0.025341045 0.007872673 0.06503097 -0.032165177
000010 76 ef 1d bd ee 19 89 bd c8 6f d1 3d f2 94 37 bd
       -0.038558446 -0.06694399 0.10226399 -0.04481978
000020 9a 28 11 bc 14 47 8b 3d 7b 87 88 3d df 8b 01 be
       -0.008859778 0.068006665 0.06666466 -0.12651013
000030 e7 77 d0 bd 80 a2 19 bd 14 88 d6 3d 4c f7 c9 3d
       -0.101791196 -0.037508488 0.104751736 0.09861621
000040 6a 49 b4 bd 09 58 90 bd 6f b4 9c 3d d6 97 26 3d
       -0.08803065 -0.070480414 0.076516025 0.040672146
000050 0e d5 b7 bc 16 4d 10 bd f9 c6 ee 3d 77 ab 3b 3d
       -0.02244046 -0.035229765 0.11659045 0.04581782
000060 90 bf c5 3d 51 35 fb 3d 1c 43 a4 3c 9c 18 bc 3c
       0.09655678 0.12266029 0.020051531 0.022960953
000070 d2 54 dd 3d 0a a5 99 bd 6e f5 8f bd 66 2e 0b bd
       0.10807194 -0.07502182 -0.07029234 -0.033979796
000080 9d 2e 89 bd 2f 9f bb bd dc 0e c4 bc e1 ca d4 bd
       -0.06698344 -0.09161221 -0.023932867 -0.103902586
000090 88 cf 22 3d 03 d7 f7 3d b1 ea 0c 3e 91 ea b8 bc
       0.0397487 0.12101557 0.13761403 -0.022572787
0000a0 74 64 82 3d f2 b8 b4 3d 3b 97 13 3a 47 cb 9c 3c
       0.06366816 0.08824338 0.000563014 0.019139899
0000b0 d8 26 98 3d 74 b1 e6 3b 50 71 84 3c 24 58 cf 3d
       0.07429284 0.007040197 0.016167313 0.10124233
0000c0 ee 73 87 3d 8a 60 37 bc 8a 04 95 bd 50 c1 07 be
       0.06613909 -0.01119245 -0.072762564 -0.13257337
0000d0 dc c8 79 bd 9c f4 c9 bd 37 29 f0 3d 99 e3 a4 bd
       -0.06098257 -0.09861109 0.11726611 -0.08051223
0000e0 38 77 e9 bd 1f 3d 08 be 45 64 c6 3d a4 d0 a6 bd
       -0.11399692 -0.13304566 0.09687094 -0.08145264
0000f0 45 b3 f0 bd 70 99 bd bc f9 e1 4a 3d 33 68 fc 3d
       -0.11752943 -0.023144454 0.04953191 0.12324562
000100 95 02 5f bd 96 7e be bd ae 84 a8 3d 71 dc 45 3d
       -0.05444582 -0.09301488 0.08228432 0.048305932
000110 c5 da f9 3d cc d1 01 be 4b ff 2c 3e 43 c8 39 bd
       0.1219993 -0.12677687 0.16894262 -0.045357
000120 3e 6e 8e b9 b5 e6 a5 bd 58 99 e2 3d c9 2a 87 bd
       -0.00027166487 -0.081006445 0.11064404 -0.065999575
000130 84 53 1e be bd 3f 53 bc 76 9e 75 3d 2d 3b 77 3d
       -0.15461546 -0.012893614 0.059965573 0.06035917
000140 18 cf 1d bd a2 59 dd 3d 3a d7 c1 3d 38 fb a7 bd
       -0.038527578 0.10808112 0.09464879 -0.08202213
000150 db ac 01 3c 73 cf 87 bd f6 b1 18 bd df 38 d4 3d
       0.007914747 -0.06631365 -0.03727909 0.1036241
000160 01 58 3b bd 9e ee ee bd 62 77 a5 bd 14 c2 91 bd
       -0.045738224 -0.11666606 -0.08079411 -0.071170956
000170 be e3 1a bc ab 63 cc bd 15 c3 9e bd 74 f2 c6 bd
       -0.009453712 -0.09979948 -0.07752053 -0.09714213
000180 ba 84 31 3d 58 e4 a0 3d 02 25 bf bd c1 b7 92 3d
       0.04333947 0.07856053 -0.093332306 0.071639545
000190 37 e0 46 bd e7 db 67 3d 85 1f cc 3d 50 4c fd 3c
       -0.04855367 0.0566062 0.099669494 0.030920178
0001a0 b1 eb 0d 3e 0e 84 a2 bd a7 ba d1 bd 52 62 fa bd
       0.1385944 -0.07935344 -0.10240679 -0.12225784
0001b0 35 21 13 bc f5 d6 31 3c 00 32 1f 3e 6b f1 6d 3d
       -0.008980085 0.010854472 0.15546417 0.058091562
0001c0 26 38 2e bd 12 19 fc bd 84 a6 53 3d 77 f2 bd bd
       -0.042534016 -0.12309469 0.051672474 -0.09274762
0001d0 52 b1 7f 3d 7b b0 d5 3c 90 84 b8 bd 7b de ef bd
       0.062424965 0.026085129 -0.09009659 -0.11712357
0001e0 51 0c 8a bc 01 3b fe 3d 5a 18 d8 3c bb 2a ab bd
       -0.016851576 0.12413598 0.0263788 -0.083577596
0001f0 00 33 97 bd 48 a6 24 3d ed 57 f1 bc 27 d1 ed bb
       -0.07382774 0.04019764 -0.029460872 -0.007257599
000200 f8 33 d9 3d 8b 2f 4f bd b4 3c 4a bd cf 4a b1 3d
       0.106056154 -0.05058245 -0.049374297 0.08656847
000210 c9 af 10 3d 0f 4c 0c bd 5a 2b 73 3d 4b ea 05 be
       0.03532389 -0.034252223 0.059367515 -0.13077657
000220 79 1f 03 be 3f b9 03 be 04 70 24 3d 37 d4 b7 3c
       -0.12804975 -0.12863635 0.04014589 0.02244006
000230 4a 19 71 3d cb d9 35 bc d8 78 78 bd e4 5c e0 3c
       0.05886201 -0.011099289 -0.06066212 0.027388044
000240 05 61 8c bd 09 49 a1 bd f8 73 f0 bd ab 1d 90 bc
       -0.068544425 -0.078752585 -0.11740869 -0.017592272
000250 98 dd ed 3d 0f 48 9f 3d 79 5c da 3d c2 c9 57 3d
       0.11614531 0.07777416 0.10662169 0.052682646
000260 94 15 43 3d 92 e1 ff bd 92 9e cb 3d 0a c3 f9 3d
       0.047628 -0.12494196 0.09942354 0.12195404
000270 c7 03 ff bc f4 97 3b bc ab 66 79 3c 63 eb 52 bd
       -0.03112973 -0.011449803 0.015222232 -0.051494014
000280 f6 e6 17 bc 4c 09 80 bd 10 03 a2 bd ac 6d 6c 3b
       -0.009271374 -0.06251773 -0.079107404 0.0036076112
000290 ab c4 93 bd d3 c7 9b bc dc 64 5a 3d 48 77 1e bd
       -0.07215246 -0.019016182 0.053318843 -0.038687974
0002a0 19 f3 48 bb fb a4 ab bd da e2 b3 bd 64 18 20 3d
       -0.0030662476 -0.08381077 -0.08783503 0.03908576
0002b0 be a1 13 bd f2 c7 fe 3c 62 dc d2 bd c7 07 51 3d
       -0.03604292 0.0311012 -0.10295941 0.051032808
0002c0 78 cf b5 bc d4 6b c8 bd 11 d0 00 3d 85 17 87 3d
       -0.022193655 -0.097861916 0.031448428 0.06596283
0002d0 87 d5 23 3e c0 87 c6 3d 08 61 a7 bd 71 f4 a2 bd
       0.15999423 0.09693861 -0.08172804 -0.0795678
0002e0 a1 4f ea 3c 7a e0 7e bd ce af 03 3e 4b d8 ba bd
       0.028602423 -0.062225796 0.12860033 -0.09123286
0002f0 eb fb c0 bd 4a 1a aa bc 5f d9 17 3e 3b 44 6e bc
       -0.094230495 -0.020764489 0.14829014 -0.014542635
000300 ab 33 02 3e 76 b4 58 bd b8 39 c6 ba c4 39 16 3c
       0.12715022 -0.052906476 -0.0015123403 0.009169046
000310 3a ff 22 3e 19 f1 79 bd e3 ae d4 3d 6a 20 c4 3c
       0.15917674 -0.061020944 0.103849195 0.023941237
000320 c6 07 91 bc 33 0f ce bc ae ab 97 bd 2a 2a 15 3d
       -0.017703902 -0.025153732 -0.07405792 0.036417164
000330 66 e3 bf 3d 73 b9 04 be 59 80 ef ba f3 c5 7a bd
       0.09369545 -0.12961368 -0.0018272504 -0.061223935
000340 fd 00 09 3b 03 f3 c8 3d 0a e1 9b bc d1 8d c0 bd
       0.002090513 0.09811976 -0.019028205 -0.09402049
000350 b3 8c 92 3d df 82 f0 3b a6 50 c8 3d 29 08 8b bd
       0.071557425 0.00733982 0.097810075 -0.06788666
000360 1c 1a e0 bd 24 7b ac 3d 82 b6 d9 bc cd 95 06 be
       -0.1094248 0.08421925 -0.026576284 -0.13143082
000370 db 88 2a be 43 10 d0 bc 41 97 9b bd 1c 4c a9 3d
       -0.16653769 -0.02539838 -0.07597209 0.0826647
000380 52 9f 0e 3d a3 9d 73 bd a1 77 53 bd 5a f2 cd 3c
       0.03481991 -0.059476506 -0.05162776 0.025139976
000390 81 da 78 3d f2 f6 b3 bd 3f 7f 9c bd 82 ac b1 bc
       0.060755257 -0.087873355 -0.07641458 -0.021688703
0003a0 34 79 0e bd 43 33 02 be 39 8c 87 3c ee b7 86 3d
       -0.034783557 -0.12714867 0.016546356 0.065780506
0003b0 9a f5 c9 3d 21 c5 57 bb d5 bd b5 bd f7 5b 1d bd
       0.09861298 -0.0032923894 -0.08874098 -0.038417783
0003c0 90 35 a0 3c b2 f4 82 bd 38 36 ed bd 58 43 c7 3d
       0.01955679 -0.06394328 -0.11582607 0.09729642
0003d0 ed aa 86 bd 35 55 81 bd 89 d5 a6 3d 12 cc 73 bd
       -0.0657557 -0.0631508 0.08146197 -0.05952079
0003e0 ed 9d f0 bc 3a 60 58 bd 3e 13 cc bc b7 d5 7e bd
       -0.02937218 -0.052826144 -0.02491152 -0.062215533
0003f0 0b aa 1a 3c 60 e9 1c 3c 6c c9 60 bb 05 6f dd 3c
       0.009439955 0.009577125 -0.0034299744 0.027030477

layers.3.bias f4 [32]
000000 17 6a 4f 3c 49 c2 4f bd 20 07 d7 bc ef 71 c0 3d
       0.012659571 -0.050722394 -0.026248515 0.09396731
000010 6f 73 ea bb 28 5d 0d bd ce 52 29 bd bd c1 02 3c
       -0.007154874 -0.03451267 -0.041338734 0.007980761
000020 30 3e 02 3d d8 22 8e bd 26 55 b8 3d cc f4 eb bd
       0.031797588 -0.0694024 0.09000616 -0.11521301
000030 81 21 57 3c 93 cf c0 3d ca b9 03 be 02 b1 2c bd
       0.013130547 0.09414592 -0.12863842 -0.042160995
000040 eb 20 e4 3d 2a 2a 1b be ec 46 da 3c 79 16 54 bd
       0.11139091 -0.15152803 0.026645146 -0.051779244
000050 65 ad 08 bd b8 c3 6b 3d 4b 08 b2 bd 6f 84 ea 3d
       -0.033368487 0.0575597 -0.08692988 0.11451041
000060 87 25 1a 3d 0d 33 b5 3d 48 5f 53 3d b8 24 a6 3d
       0.037633445 0.08847628 0.05160454 0.08112472
000070 35 26 57 3d fe c9 ae bd 3f c6 0c be b4 38 8a bd
       0.05252667 -0.08534621 -0.137475 -0.067490965

layers.6.weight f4 [1, 32]
000000 93 ed e6 bc 8e 0c 04 be 5f 96 1e 3e a9 c6 bb 3d
       -0.028189456 -0.12895414 0.1548705 0.09168751
000010 e9 23 19 bd 22 52 2f be d3 67 f2 bd 61 dd 23 bd
       -0.037387762 -0.17121175 -0.11836209 -0.040006045
000020 fb bb 9e bd 22 6e cd bc c0 23 e7 3c 68 2d 35 be
       -0.07750698 -0.02507693 0.02821529 -0.17693102
000030 23 41 ed 3b 16 4c 99 bd b7 5f dc 3d 0d 7f 47 be
       0.007240431 -0.07485215 0.10760444 -0.1948206
000040 ed d4 b6 bc 14 b4 f6 3d 3e 3e ac 3c d2 07 e9 bd
       -0.022318328 0.12046066 0.021025773 -0.11378445
000050 84 01 a0 3d 71 32 1f 3a fc b3 a0 3d 11 db 8e 3d
       0.07812789 0.0006072885 0.07846829 0.06975377
000060 2a 24 f1 3d fa 6d 20 be f3 ea ab bd e8 55 44 bd
       0.11774476 -0.15666953 -0.083944224 -0.04793349
000070 bc 9e 42 be 96 ae be bd 83 db cd bd 7d 7b 76 bd
       -0.19005865 -0.093106434 -0.10051634 -0.06017636
