model_checkpoints/model_round_12.pt (torch, 15374 bytes, 5 tensors)

layers.0.weight f4 [64, 15]
000000 92 2f 09 ba 40 37 75 be ce 5c 8a be 08 6e 27 3e
       -0.0005233224 -0.23946857 -0.2702393 0.16350567
000010 8e 41 19 be 9c 57 52 bd 72 8d 4b 3c 2d 37 16 be
       -0.14966413 -0.051353082 0.01242386 -0.14669485
000020 63 2b 8b 3c dc a9 29 be ae 92 e9 3d 8e ff 47 be
       0.016988462 -0.16568702 0.1140493 -0.1953108
000030 7a b7 f9 bc 24 17 c5 3d 85 af 69 be 4c 21 87 be
       -0.030482996 0.09623554 -0.22820862 -0.2639259
000040 31 17 ff 3d 1f 27 a3 bd f2 46 00 3e 08 0e 56 3e
       0.12455595 -0.07966446 0.12527063 0.2090379
000050 72 87 6a 3e 5f 18 b0 bd 97 a8 54 3e fc 36 46 3e
       0.22903231 -0.085983984 0.20767437 0.19356912
000060 af da c3 3d 19 81 39 be 67 1e 20 3e 72 a2 67 be
       0.09563195 -0.18115653 0.15636598 -0.22620562
000070 30 a6 ad bb 03 cf 5c be 36 89 12 3e 11 05 44 be
       -0.005299352 -0.21563344 0.14310154 -0.19142558
000080 5e 18 31 3e 42 2b 42 3e 08 09 98 bc a8 80 88 3b
       0.17294452 0.18961814 -0.018558994 0.0041657276
000090 23 10 bd 3d 8f 7c 88 be 6a 7f 8a 3e cf 56 a4 3d
       0.092315935 -0.2665753 0.27050334 0.0802437
0000a0 e6 50 c1 3d 99 eb 9b 3e 38 e4 5d 3e 7b 38 ad bd
       0.09439258 0.30453184 0.2166909 -0.084580384
0000b0 60 89 0d 3d 4a 48 05 3d 85 8c 4c 3e b7 09 7b 3d
       0.03455484 0.032539643 0.19975479 0.06128856
0000c0 2d cb 10 3e c8 2e 2a bc 7e 60 8e bc 66 66 3e 3d
       0.14140005 -0.01038713 -0.017379995 0.046484374
0000d0 22 d9 6c bd c5 59 bb 3d df 15 72 bd 91 86 0f be
       -0.05782426 0.091479816 -0.05910289 -0.14016177
0000e0 17 8b 60 3e 25 42 d8 3b 08 e3 5f 3e e0 f1 aa bc
       0.21928059 0.006599682 0.2186395 -0.020867288
0000f0 f4 33 77 be 48 a6 4e be 7c bd 85 be 02 54 a0 3d
       -0.24140912 -0.20180619 -0.26121128 0.07828523
000100 74 3d ac 3d 86 eb 3f be 89 eb aa 3d 8c 9b 63 3e
       0.08410159 -0.18742189 0.08345706 0.22227305
000110 7e d5 d0 bd 7b c0 14 3e f0 36 c2 3d 3a 1c 40 bd
       -0.101969704 0.1452655 0.09483135 -0.04690192
000120 42 62 ff 3d 39 f3 38 be 5d 84 1d be 51 03 68 be
       0.12469913 -0.18061532 -0.15382524 -0.22657515
000130 e4 bd 86 be ae d7 f9 3d 46 85 b9 3c 58 a0 51 be
       -0.2631675 0.12199341 0.022646558 -0.20471323
000140 23 a6 88 3e 24 e0 ef 3b 10 51 70 be 99 82 15 3e
       0.26689252 0.007320421 -0.23468423 0.146006
000150 e5 db e1 bc 76 59 74 be 9d 62 7e 3d c3 86 64 3e
       -0.027570674 -0.23862252 0.062105764 0.22317033
000160 37 bf 4f bd 5d 56 59 be 42 15 4a be 4f ed 8c be
       -0.050719466 -0.21224351 -0.19734672 -0.27524802
000170 8c 34 88 bc b9 e2 e6 bd d6 5e 90 3c 8d 3e f8 3c
       -0.016626619 -0.11273713 0.017623346 0.030303264
000180 3c 8b d3 bd 87 a7 3f be a9 2a 61 be d1 f9 7e 3d
       -0.10329291 -0.1871625 -0.2198893 0.062249962
000190 c9 8d 22 be a5 c7 b1 3c c9 7d 3b be b9 f9 a1 bd
       -0.15874399 0.021701643 -0.18309702 -0.07908959
0001a0 b6 16 1f bc 14 ff 3b 3e 36 4a 5f be 1f 4a f4 bd
       -0.009710005 0.18359023 -0.21805653 -0.119282
0001b0 d1 d8 35 be dc f7 6e be 06 b0 31 be 15 7b f7 3c
       -0.1775849 -0.23336738 -0.17352304 0.030210057
0001c0 81 d4 68 be e1 31 52 3e 0a 5e 46 3e 5c d8 47 3e
       -0.22737314 0.2052684 0.1937181 0.19516128
0001d0 88 72 26 be 3a 10 6f be b7 b9 8f 3d 8d e0 f1 bd
       -0.16254628 -0.23346034 0.07017844 -0.11810408
0001e0 46 2e 31 be 4a 1b 88 3d 60 f9 72 bd 39 ad eb 3d
       -0.17302808 0.0664583 -0.059319854 0.11507649
0001f0 11 b4 7e be 42 20 5c be 5a e9 84 bd ea 0e 74 be
       -0.24873377 -0.2149668 -0.06489821 -0.23833814
000200 b4 6d 39 3d d5 62 e2 3d a5 bf 07 3e 40 be 48 3e
       0.045270637 0.11054007 0.132567 0.19603825
000210 9b a1 af 3d ad c3 0e 3e 68 3f 45 bd 6e 7c 8e 3d
       0.08575746 0.13941832 -0.048156172 0.06957327
000220 05 f0 61 3e c8 5e 49 3e 86 c6 99 bc e4 0e 57 be
       0.22064216 0.19665062 -0.018771421 -0.21001774
000230 33 0d 8a 3d 42 fc 7f 3e 8c b4 62 be 5f 7f 81 bd
       0.06740799 0.24998572 -0.22139186 -0.06323122
000240 a0 81 43 3d dc cd 34 3d 19 3d 4b be 1a c7 f3 3d
       0.047731042 0.044141635 -0.19847526 0.1190321
000250 66 e6 0c be 28 45 5f be de cc 9c 3d 5c 9a d8 bc
       -0.13759765 -0.21803725 0.07656263 -0.026440792
000260 8d 8e 3a 3e 0e b0 a8 3d f7 71 6c 3e c7 dd 17 ba
       0.18218441 0.08236705 0.23090349 -0.000579324
000270 5c e4 00 3e fe 6c ae 3d ed 61 cc 3d 62 0c 39 3e
       0.12587112 0.08516882 0.09979615 0.1807113
000280 be 8c 11 3d 4f 25 96 3d 79 41 3e be 1d 6d f7 bd
       0.035534613 0.07331335 -0.18579663 -0.120813586
000290 c1 24 8b bd e8 e2 cf 3d 5d 6a 51 3e 5e 80 60 3d
       -0.067941196 0.10150701 0.2045073 0.05480992
0002a0 4d 96 70 be c0 6e ca bd 63 14 1b 3e 32 74 11 3e
       -0.23494835 -0.09884405 0.15144496 0.14204481
0002b0 f9 4c 1c be 8a 9a 21 3d e9 b7 1a 3e 97 9b 92 bd
       -0.15263738 0.03945402 0.15109219 -0.07158583
0002c0 74 a4 55 be b8 d8 b2 3c 84 1b 24 3e a8 b7 dd 3d
       -0.20863515 0.021831855 0.16026121 0.10826045
0002d0 85 aa 0a be 27 25 4f be 31 4f 0a 3e b5 2f 59 3e
       -0.1354161 -0.20229016 0.13506772 0.21209605
0002e0 45 36 4c 3e 14 e7 ce 3d 7e 85 1a be e5 a5 6d be
       0.19942577 0.101026684 -0.15089986 -0.23207815
0002f0 b8 ac 30 be 80 29 59 3d 8a 64 90 be d5 7a f0 bd
       -0.17253387 0.053018093 -0.28201705 -0.11742178
000300 d3 30 20 be f5 41 9e bd 9b 63 2a 3e 97 ac 46 be
       -0.15643625 -0.07727424 0.16639559 -0.19401775
000310 6c 71 3b 3e 8b 49 a4 3d 05 c5 95 3d 15 a2 87 be
       0.18304986 0.0802184 0.07312969 -0.26490846
000320 e1 8d 59 3e 7f 55 c3 bd 62 23 5c 3e 25 a5 fc 3d
       0.21245529 -0.095377915 0.21497872 0.12336186
000330 7d b5 d6 3d ef 2e dc bc 75 8f a5 3d e3 ae 2e 3e
       0.10483835 -0.026877848 0.08084003 0.17058901
000340 3e fa f9 bd 2a 84 0a 3e 05 c0 7d be 19 05 ad 3d
       -0.12205933 0.13526979 -0.24780281 0.08448238
000350 05 7e 8c 3d a2 cc 9c 3d 76 cf 04 3e 93 3d c2 bd
       0.06859974 0.07656218 0.12969765 -0.094844006
000360 c5 49 18 3e 8e f1 70 3e 97 f8 42 be b2 10 88 be
       0.14871891 0.23529646 -0.19040142 -0.26575238
000370 08 f8 80 bc 31 7a 7d be e6 78 65 3d 07 8e 52 be
       -0.01574327 -0.24753644 0.0560235 -0.20561992
000380 5f 88 2a bd bb 8c c9 3d 86 ac 3d be e3 d4 66 3e
       -0.04163396 0.09841295 -0.18522844 0.22542147
000390 aa a6 81 bd 42 b4 b2 bd 51 11 5b bd e4 96 3e be
       -0.06330617 -0.08725788 -0.05348331 -0.18612248
0003a0 94 9f 76 3e 08 2c ff 3d 22 81 88 bc a2 77 51 be
       0.24084312 0.1245957 -0.016663138 -0.20455793
0003b0 b7 7f 15 3e 3d c1 73 3e 74 df a6 3d 4d 2e 65 3d
       0.145995 0.23804183 0.08148089 0.05595236
0003c0 80 e5 f1 bd 0b 48 90 3d e1 57 00 3d bb 86 3a 3e
       -0.11811352 0.07044991 0.031333808 0.18215458
0003d0 0c e0 f8 bd 8d 62 4d be b1 ae 12 3e 6d 68 d8 bc
       -0.121521086 -0.20057125 0.14324452 -0.026416982
0003e0 9b 51 09 be 3e 57 25 be 75 b3 57 be d3 21 a9 3d
       -0.13410036 -0.16146562 -0.21064551 0.082584046
0003f0 a8 fd 2d be a1 07 5a 3e 8b 54 5e 3e 1e 4f 2a 3e
       -0.16991293 0.21291973 0.21711938 0.16631743

layers.0.bias f4 [64]
000000 88 15 e1 bd 2d 5e d1 3d 25 27 da bd 1b 2e 60 3d
       -0.10990435 0.10223041 -0.106519975 0.05473147
000010 9c 91 ab bd 53 cc 87 be 65 31 7d bc 09 37 c5 bc
       -0.08377382 -0.26523075 -0.015453671 -0.024074094
000020 5a ca 84 3e c4 74 6c 3e 66 c5 90 be 56 c5 1d 3d
       0.25935632 0.23091418 -0.28275603 0.038518272
000030 a1 d0 6a b9 04 99 a1 bd 43 26 27 3e 1b 73 eb 3d
       -0.000223937 -0.078905135 0.1632319 0.11496564
000040 5c d8 31 bc 1e de 80 3c 65 21 98 bd ac 36 16 be
       -0.010854807 0.015730914 -0.074282445 -0.14669293
000050 9e be 87 bd cb 79 6e 3d 03 bb 12 3e c8 ec 1f 3e
       -0.06628154 0.05822162 0.14329152 0.15617669
000060 c9 36 5b be 28 80 44 3e 23 a6 72 3e 14 33 70 be
       -0.21407618 0.19189513 0.23696189 -0.23456985
000070 f0 2a 78 bd 97 d9 de 3c b0 f6 42 3d e6 cc 17 bd
       -0.060587823 0.027203364 0.04759854 -0.03706064
000080 c4 f5 3f be 5e 90 96 bc 45 9f 57 be 45 35 75 3d
       -0.18746096 -0.018379387 -0.2105685 0.059865255
000090 9a 8f f8 3d ed ff 2d bd 0b be 0a bd ee 6a 53 be
       0.12136765 -0.042480398 -0.033872645 -0.20646259
0000a0 b6 ce 4d be 00 43 50 3e 9c 1a c5 bd fa 17 68 bd
       -0.20098385 0.20338058 -0.09624216 -0.05666349
0000b0 0c e2 a9 3d 42 d9 34 be 68 ad 7c be 16 da d5 bc
       0.08295068 -0.17661002 -0.24675524 -0.026104968
0000c0 f4 df d9 bd 44 7e dd 3d 35 73 8a 3d 24 ef bc 3d
       -0.10638419 0.10815099 0.06760255 0.092253
0000d0 c4 02 2f 3e c3 08 15 3d 1a 4c 61 3e 0a a4 42 bd
       0.17090899 0.03638531 0.22001687 -0.04751972
0000e0 e2 c3 68 be 46 d0 26 bd 66 8f 62 3d bb 04 04 3d
       -0.22730973 -0.04072597 0.055312537 0.032231074
0000f0 0d 13 fd bd 5f eb 7c 3e c4 67 19 bd 07 ee 39 3e
       -0.12357149 0.24699162 -0.037452474 0.18157206

layers.3.weight f4 [32, 64]
000000 36 98 f3 bc 3a 24 9e 3c c8 b2 79 3d df b4 a7 bc
       -0.029735666 0.019304384 0.060961515 -0.020471988
000010 42 e9 1d bd 10 ce 81 bd fa 3d e3 3d 27 fc 99 bc
       -0.03855253 -0.063381314 0.110958055 -0.018796993
000020 48 96 f2 bc 90 99 53 3d 40 46 45 3d 74 80 06 be
       -0.029612675 0.05166012 0.0481627 -0.13134938
000030 27 a1 9a bd cc 9c 10 bd 9e c7 e2 3d 90 b9 cf 3d
       -0.075502686 -0.035305783 0.1107323 0.10142815
000040 9e d9 c0 bd bb 92 ae bd 3c 70 9c 3d ba a3 3b 3d
       -0.09416507 -0.0852408 0.076385945 0.04581044
000050 28 6b e1 bc 08 ca bd bc f9 ce b1 3d cc 1f 43 3d
       -0.027516916 -0.023167625 0.08682055 0.047637746
000060 f8 b2 92 3d dd ec ff 3d f0 97 96 3b e8 f7 da ba
       0.07163042 0.1249635 0.004595749 -0.0016705962
000070 14 b0 b6 3d ce 94 b4 bd e2 3e 58 bd 9b 2e 9e bc
       0.08920303 -0.08817445 -0.052794345 -0.019309333
000080 c3 62 ad bd f8 7d cc bd a1 01 1e bd b6 0d f5 bd
       -0.08466103 -0.09984964 -0.038575772 -0.11965506
000090 83 b9 69 3d c9 5c 05 3e fe c0 12 3e b3 12 cd bc
       0.057061683 0.13023676 0.14331433 -0.02503333
0000a0 00 b4 c9 3d 8b 35 ad 3d 23 77 68 3a c4 a8 04 3d
       0.098487854 0.08457478 0.00088678504 0.03238751
0000b0 b4 1f 76 3d 27 a5 8a ba 10 b3 65 39 0c c5 ea 3d
       0.06008883 -0.0010577784 0.00021905848 0.11463365
0000c0 e1 9b 9e 3d 5e d0 a1 bc 0a d9 92 bd 1c 53 09 be
       0.07744575 -0.019752678 -0.07170303 -0.1341061
0000d0 e9 6d a9 bd 60 82 e3 bd 7c bf d3 3d 66 81 c0 bd
       -0.08272917 -0.111088514 0.10339257 -0.09399681
0000e0 06 1d d3 bd 32 c5 04 be 3f 0b f3 3d 60 b1 dd bd
       -0.1030827 -0.12965849 0.118673794 -0.10824847
0000f0 b6 ae c3 bd b7 f8 e4 bc c7 33 3d 3d d6 97 f5 3d
       -0.09554808 -0.027950628 0.046191957 0.11991851
000100 b0 87 79 bd 08 d1 bc bd 48 4b 87 3d c7 72 2d 3d
       -0.060920417 -0.09219557 0.06606156 0.04234579
000110 ea 73 ed 3d 2d d3 02 be 0a 50 3f 3e 60 a4 1f bd
       0.115943745 -0.1277587 0.18682876 -0.03897512
000120 5a a6 4f 3c 0a 9f 83 bd 75 04 f0 3d d9 e0 a4 bd
       0.012673939 -0.06426819 0.117196 -0.08050699
000130 4d 2b 18 be 73 64 8d bc 73 84 61 3d 2e b1 65 3d
       -0.14860268 -0.017259812 0.055057954 0.056077175
000140 d8 2a 76 bd f0 36 00 3e 5f f2 04 3e 38 0d 9b bd
       -0.060099453 0.12520957 0.12983082 -0.07570881
000150 eb 11 75 bc 28 d0 b0 bd 19 6c 8f bc 43 ea c4 3d
       -0.014957885 -0.08633453 -0.0175076 0.096149944
000160 0f b8 56 bd 11 0d 09 be d6 7d 94 bd 5b 2d a9 bd
       -0.052421626 -0.1338389 -0.07250564 -0.08260604
000170 34 0d 55 bc 55 56 c5 bd 94 62 b1 bd 98 54 f2 bd
       -0.013003636 -0.09635607 -0.086613804 -0.11832541
000180 b4 5d 8b 3d 0b f7 b7 3d 30 d4 8e bd 63 45 73 3d
       0.06804982 0.089826666 -0.06974065 0.059392344
000190 ab 7b 15 bd 30 81 f3 3c 2f 18 ae 3d 91 a4 3b 3c
       -0.036494892 0.029724687 0.085007064 0.01145281
0001a0 a9 de 10 3e a5 11 cd bd ba 69 9b bd a1 e3 e3 bd
       0.14147438 -0.10013131 -0.07588525 -0.11127401
0001b0 40 af 50 bc 65 a5 e7 3c aa 8a 22 3e a9 f0 69 3d
       -0.012737095 0.028277108 0.15873209 0.057114277
0001c0 39 7b 32 bd e8 f5 f9 bd 16 00 1c 3d e4 01 b3 bd
       -0.043574546 -0.12205106 0.03808602 -0.08740595
0001d0 78 ca b4 3d b2 10 b3 3c 5f f2 c7 bd 53 23 b7 bd
       0.0882768 0.021858547 -0.097630255 -0.089422844
0001e0 cf 92 2e bd 7c 3c d9 3d b4 77 c6 3c cb 6b ab bd
       -0.042620476 0.106072396 0.024227 -0.08370169
0001f0 20 a9 b7 bd 4c 58 55 3d 51 3d 3e bd 96 4b 8e bb
       -0.08967805 0.05208616 -0.046445195 -0.0043425066
000200 dd d3 e6 3d 37 ee 21 bd a7 eb 75 bd cb 73 c6 3d
       0.112708785 -0.03953382 -0.06003919 0.096900545
000210 11 40 25 3d 78 24 e4 bc 25 e9 8b 3d 5f 19 e4 bd
       0.0403443 -0.02784942 0.06831578 -0.11137652
000220 f8 8f fb bd af ce 1d be ed 4e 63 3d 82 96 f3 3c
       -0.12283319 -0.15410875 0.05549519 0.029734854
000230 39 d4 1c 3d cf 4f 5c bb b8 c5 a8 bd ce 86 51 39
       0.03828833 -0.0033616906 -0.08240837 0.00019982012
000240 b4 0a 9a bd 03 79 cb bd 84 5e c8 bd 42 6f ac bc
       -0.07521573 -0.099351905 -0.097836524 -0.021049146
000250 ad 98 eb 3d 47 88 b4 3d eb 89 0d 3e 16 c8 66 3d
       0.1150373 0.08815055 0.13822143 0.05634316
000260 39 09 09 3d 34 ac 11 be 90 f5 d5 3d 44 a8 f4 3d
       0.03345606 -0.14225847 0.10447228 0.119461566
000270 c8 0b 16 bd 69 5c b7 bc 96 94 9c ba d7 ac 44 bd
       -0.03663233 -0.022382932 -0.0011946138 -0.048016395
000280 a7 07 86 bc c9 9c 85 bd 3f 87 8e bd 48 48 3b bb
       -0.01636107 -0.06524045 -0.0695939 -0.0028577019
000290 d9 05 9f bd b3 40 d4 bc 9f c7 62 3d e3 c4 49 bd
       -0.07764787 -0.025909757 0.055366155 -0.04926003
0002a0 27 82 37 bc ad d4 a5 bd c8 16 f0 bd bf d7 bf 3c
       -0.011200464 -0.08097205 -0.11723095 0.023418305
0002b0 87 15 5b bd 6a 80 c7 3c ad 11 c6 bd 4e ec ff 3c
       -0.053487327 0.024353225 -0.0967134 0.031240609
0002c0 a0 c4 1b bd 1c 2f da bd 51 19 b4 3c 16 81 5f 3d
       -0.038029313 -0.10653517 0.021984728 0.054566465
0002d0 d0 de 2b 3e ee ef b3 3d 8c 78 cc bd 6b 06 cd bd
       0.16784215 0.08785997 -0.0998393 -0.1001099
0002e0 aa 30 ed 3c c9 82 63 bd 72 f2 fc 3d 71 a9 c9 bd
       0.028953869 -0.05554465 0.1235093 -0.098467715
0002f0 53 23 cb bd 12 0e 11 bd e4 4d 23 3e d5 77 32 bc
       -0.09918847 -0.03541381 0.15947682 -0.010892828
000300 00 35 06 3e 13 dc 76 bd 8b c4 1c bc 2a 2c ae 3c
       0.13106155 -0.060268473 -0.009568344 0.021261293
000310 86 f7 0f 3e b5 96 81 bd 4e e3 dc 3d f0 c4 21 3c
       0.14059266 -0.06327573 0.107855424 0.009873614
000320 3d 4f 3a bd af cb 0c 3a db 11 5f bd 01 1b 12 3d
       -0.045485724 0.00053709274 -0.054460388 0.035670284
000330 51 b8 b1 3d 3e 8c 04 be 29 92 68 3c 95 f0 61 bd
       0.08677734 -0.12944123 0.014195004 -0.055161078
000340 41 88 76 bc 1a 85 b9 3d 50 a9 f3 bc d3 da e6 bd
       -0.015047134 0.0905859 -0.02974382 -0.11272206
000350 ec 30 4b 3d 81 15 bb 3c 95 04 b3 3d bd 58 b0 bd
       0.049607202 0.022837402 0.08741108 -0.086106755
000360 ab 28 d4 bd 57 e1 ac 3d 99 2b 5e bd de 0e 14 be
       -0.10359319 0.08441418 -0.054240797 -0.14458796
000370 ba 59 27 be 01 49 11 bd a2 6b 74 bd bb 28 e5 3d
       -0.16342822 -0.035470013 -0.05967296 0.11189409
000380 f0 18 80 3d c3 ae 03 bd 95 c0 45 bd d5 30 10 bb
       0.062547565 -0.032149088 -0.048279364 -0.0022001762
000390 c3 77 87 3d 3c 0f cb bd 58 03 84 bd df f6 5b bd
       0.066146396 -0.09915015 -0.0644595 -0.05370223
0003a0 23 ee 1d bd cb 16 d3 bd 69 11 16 3b 1d a7 58 3d
       -0.038557183 -0.10307082 0.002289856 0.052893747
0003b0 90 7b b0 3d f8 b5 f3 ba 4b 52 c8 bd 0b 42 09 bd
       0.08617318 -0.001859366 -0.09781321 -0.03351025
0003c0 a9 ed a5 bb 6f d6 40 bd a1 46 e7 bd a1 1c e5 3d
       -0.0050637317 -0.0470795 -0.11292768 0.11187101
0003d0 13 a2 9a bd a9 9c 92 bd 3b 8b ce 3d 80 be 9b bd
       -0.075504445 -0.07158787 0.1008515 -0.07604694
0003e0 1b 98 0a bd 6a b3 5f bd 3b 85 d6 bc 6a 01 6e bd
       -0.033836465 -0.054614462 -0.026186576 -0.058106817
0003f0 74 3c c2 3c 95 36 8e bb 14 66 61 bb 4d 5a f0 3c
       0.023710467 -0.004340003 -0.0034393119 0.029339934

layers.3.bias f4 [32]
000000 ec 7d 2d 3d 56 11 11 bd 12 41 bc bc 39 a0 a1 3d
       0.042356417 -0.035416923 -0.022980247 0.07891888
000010 49 51 23 3b 76 15 b6 bc ce cd 0d bd 03 db 9b 3c
       0.0024920276 -0.02222703 -0.0346201 0.019025331
000020 f3 55 68 3d f1 94 91 bd 81 56 cc 3d c7 79 d8 bd
       0.056722593 -0.071084864 0.09977437 -0.10570102
000030 03 2a 52 3c 04 9b d2 3d 20 6b 24 be 46 58 4a bd
       0.012827399 0.10283473 -0.1605649 -0.04940059
000040 40 ef c6 3d f1 06 11 be 59 9b 35 3c 46 18 10 bd
       0.09713602 -0.14162804 0.011084401 -0.0351794
000050 51 35 f1 bc e9 75 07 3d b3 28 c2 bd 48 60 e6 3d
       -0.029444369 0.033071432 -0.09480419 0.11248833
000060 eb c1 ff 3c a4 1b b1 3d a6 bc 3b 3d 6f 65 a9 3d
       0.031220397 0.0864785 0.045834206 0.082713
000070 41 a1 6c 3d 74 11 92 bd 5a 87 f0 bd 65 07 88 bd
       0.05777097 -0.07132235 -0.11744566 -0.066420354

layers.6.weight f4 [1, 32]
000000 04 e9 ed bc 7c a0 0b be 51 ee 21 3e 11 d1 83 3d
       -0.029041775 -0.13635439 0.15813567 0.064363606
000010 6d 34 81 bd 15 52 28 be f3 86 2d be 67 42 5c bd
       -0.063088275 -0.16437562 -0.1694601 -0.053774264
000020 6c 5f ec bd 60 cb 1c bd 52 04 07 3c ec ca 48 be
       -0.11541638 -0.03827989 0.008240776 -0.19608659
000030 26 8a 77 bc 7b c8 c0 bd 7d ae ea 3d 6d d5 43 be
       -0.015108621 -0.094132386 0.11459062 -0.19124384
000040 82 ad c0 bc c5 3a 03 3e 74 7b 18 3b a3 c4 11 be
       -0.023520235 0.12815388 0.0023266943 -0.14235167
000050 d3 fa 8b 3d 06 77 22 3c 34 91 8c 3d bc 50 a3 3d
       0.0683495 0.009916073 0.06863633 0.07974383
000060 bf a3 e7 3d 4c 1c 3e be da bc ef bd 2f d7 9e bd
       0.11310529 -0.18565482 -0.117059425 -0.07755887
000070 f6 5d 4f be 9e c8 e7 bd 52 70 d4 bd ea dc 8c bd
       -0.20250687 -0.113175616 -0.10372986 -0.068780735
