model_checkpoints/model_round_4.pt (torch, 16324 bytes, 5 tensors)

fc1.weight f4 [64, 19]
00000000: fa27 183e ddc0 db3c 0bf5 32bb dc54 4b3e
00000010: bd74 41bd 01b5 bbbd cc2b f5bd 6c13 b6bd
00000020: 2d07 893d 3711 633e 20c2 423d 98a1 223e
00000030: 1caf d4bc aa81 fd3d 2487 533e 1245 3e3e
00000040: 6766 0fbd 48d1 79be a2df 2ebe ae66 1fbc
00000050: acf7 3cbe de58 47bd 049e 2fbe c30a 2dbe
00000060: e2c6 9cba 7025 56bd a6fa 523d b897 09bd
00000070: 689f 893d e037 57be cae3 97bd 1031 a63d
00000080: 2274 663e 30de a6bd 562e 0ebd 26ae 583e
00000090: 9e15 48bd c2a2 c13d 5ae7 263e c73b 98bc
000000a0: 6946 e0bc 70ac 103e d016 ba3d 2ff7 a3bd
000000b0: da2d 873e 2e6f 1bbe de76 5bbd 0665 d73d
000000c0: 1dac 133e 4604 28bd 1cf8 9cbd 4ea6 063e
000000d0: 54ba 3cbe 4edd 2c3e 7e4e 473e 97f2 6a3e
000000e0: bdf8 f03d c64b bc3d a8ea cbbd 461d 433e
000000f0: d2d2 313e 3301 b23c bfa2 20be c7cb 11be
00000100: 2c5b 15be 084c 10be 3ea0 39bc 7897 323e
00000110: 08d0 03be 228a 3f3e fc8e 21bd cc6e c0bd
00000120: 7db1 c63b 2ab1 2b3e b6bd 0d3e a315 2d3e
00000130: 1402 063e c7ca 7c3e 9400 5ebe 709d 47be
00000140: bcd9 98bd b000 b4ba d419 853b 44f7 4d3e
00000150: 278e 27be 2fb6 51be c097 ccbd e1ec 28be
00000160: 8e33 17bb ea4c 863d d570 d2bd 6e39 1bbd
00000170: da1e a63d a64c 13be f53b df3d 0857 0cbe
00000180: f4ad 473e 960c 3cbe da0b b9bd 5c35 ce3d
00000190: c6ca d8bc 18b7 44bd 7b9d 633c 4a3f 003d
000001a0: 8cc7 07be e2b0 5d3e f8f6 c43c d703 cc3d
000001b0: 88fa 17bb 94fa 263e e412 b6bd caa2 46be
000001c0: aa5f 26be 5039 773d a0c4 e83d faff 8a3e
000001d0: ea42 80bd 38d1 7bbe 7a4d 343b 2912 a03d
000001e0: 970b 603e d01c 193e 769b 3a3d 06a5 66bd
000001f0: f003 d03d 0ea9 f13d 9a27 d93d 4e74 cdbd
00000200: c26e 803d 2c14 32be 48a5 13be 9235 f23d
00000210: 93b8 b23d e4a8 bdbd f289 2f3e e534 16bd
00000220: 14bb a5bd e877 5d3d 5494 2cbe 54b0 773d
00000230: 5015 b3bc 395e 643e d2c2 3ebe 7211 3e3e
00000240: 1f26 833c aeca 99bb cacc d33d a0fe 8d39
00000250: 6eb3 dd3d 6cb8 333e f99d 953d 9099 153e
00000260: 320c 32bc 20cc 3fbe fd13 3e3e 4019 e73d
00000270: c0f8 51be f80b e4bc fa4a 353e bc75 15be
00000280: aa53 dbbd 8f3f 293e e332 373e 240b c9bd
00000290: 5cd4 57be 42b7 393e 9862 073e 9edf 52be
000002a0: e6f5 54be ce90 44be 8cb3 ad3d f60c 2dbe
000002b0: 3e4c 683e bf3d 6bbe f021 2c3e d45e 093e
000002c0: 20e0 533e 2ec0 edbd 7298 39bd 6624 f93d
000002d0: 9608 8a3d 98b0 03bd 9308 1dbe 62b5 913d
000002e0: 6293 08bd 803d e8b7 fa67 1b3e 42fb 143e
000002f0: e5e2 15be 5812 893c c353 62be c91d 8c3d
00000300: 5e8d b7bc aa52 d03c f621 d43d 9c15 213d
00000310: f5ae 75bc 7eb4 4abc c456 a5bd 5278 913d
00000320: a944 cfbd 44de ec3c 3054 01be 3ca4 8c3c
00000330: 9b7a c73b 57d9 bfbd b00d 6cbe 3127 9e3d
00000340: 60e8 94bd 09f6 353e 5049 20bc 20f8 573e
00000350: 9b4c 203d bcba 393d bc24 4e3e cecc 64be
00000360: 1a65 6cbe 9330 7cbe ecfe 88bd 57c7 82be
00000370: 28fc 19be 4f2e 8abd 747c 2abe 1aff f0bd
00000380: f49d 09be b6da 57be 9697 d9bd 0820 38be
00000390: 7a57 f93d 6e59 2cbe b4ef 37be cca5 703e
000003a0: e6e4 32be 18c8 84bd 6e3e 44be 85f1 343e
000003b0: 9817 b43d e24d 213e ca63 14be bef3 393e
000003c0: 49ee 083e 5a27 963d ce45 993d 64fc 513e
000003d0: 2f59 9a3d 0619 933d 5693 4dbe 0c18 ff3d
000003e0: 107e 583e 6cdd 6abe c239 79be a052 89bd
000003f0: 5e20 673e 9c73 30be d497 c13d 567d ce3c
0.14859 0.026825363 -0.0027306702 0.1985659 -0.04723047 -0.09165383 -0.11971244 -0.08890423
0.06690822 0.22174536 0.047548413 0.15881956 -0.025962405 0.12378247 0.20657021 0.18581036
-0.035009768 -0.2439624 -0.17077497 -0.009729071 -0.18453854 -0.048668735 -0.17150122 -0.16898637
-0.0011961127 -0.052281797 0.05150857 -0.033591956 0.067198575 -0.21017408 -0.07416494 0.08114827
0.22505239 -0.08147848 -0.03471216 0.21160182 -0.04884874 0.09454872 0.16299191 -0.018583192
-0.027377324 0.1412828 0.090863824 -0.08006131 0.2640217 -0.1517913 -0.053580157 0.105173156
0.14421125 -0.0410197 -0.076645106 0.13149378 -0.18430454 0.16881296 0.19463536 0.22944103
0.11766193 0.0919414 -0.099568665 0.19054136 0.17365578 0.021729087 -0.15687083 -0.14237891
-0.1458556 -0.14091504 -0.011329709 0.17440593 -0.12872326 0.18705037 -0.039443 -0.09396133
0.0060636387 0.16766801 0.138419 0.16902785 0.1308673 0.24686728 -0.21679908 -0.19493651
-0.074634045 -0.0013733115 0.004061917 0.20113856 -0.1636282 -0.20479654 -0.099898815 -0.16496612
-0.00230715 0.06557639 -0.10275427 -0.037896566 0.08111353 -0.14384708 0.10900108 -0.13705075
0.19499952 -0.18364176 -0.09035464 0.10068771 -0.026463877 -0.048026174 0.013892527 0.031310357
-0.13259715 0.21649507 0.024043545 0.0996167 -0.00231901 0.16306525 -0.08890322 -0.19398037
-0.1624743 0.06035739 0.11365628 0.2714842 -0.06262763 -0.2459153 0.0027512 0.07815964
0.21879421 0.14952397 0.045558415 -0.056309722 0.10157001 0.11799823 0.106032565 -0.10031949
0.062711254 -0.17390507 -0.14418519 0.11826624 0.08726611 -0.09260729 0.17142466 -0.036671538
-0.08092323 0.05406943 -0.16853458 0.060470894 -0.021860749 0.22301568 -0.18629006 0.18561342
0.016009388 -0.0046933508 0.10341795 0.00027083326 0.10825239 0.1755082 0.073055215 0.1460936
-0.010867165 -0.18730211 0.18562312 0.11284113 -0.20505047 -0.027837738 0.17704383 -0.14595693
-0.10709317 0.16528152 0.17890505 -0.09816578 -0.21077102 0.18136314 0.13221204 -0.20593116
-0.20796928 -0.19195864 0.084815115 -0.16899475 0.22685334 -0.22972773 0.16809821 0.1341508
0.20690966 -0.11608921 -0.0453114 0.121651456 0.06739919 -0.032150835 -0.15335302 0.07114674
-0.03334368 -2.7685193e-05 0.15176383 0.14548972 -0.14637335 0.01673238 -0.22102265 0.068416186
-0.022406276 0.025430042 0.1035804 0.03932725 -0.014995326 -0.012372134 -0.0807319 0.071030274
-0.10120518 0.028914578 -0.12629771 0.017168157 0.0060876138 -0.09367626 -0.23052096 0.07722319
-0.072708845 0.17769636 -0.009783104 0.21090746 0.039135557 0.0453441 0.201312 -0.22343752
-0.23085442 -0.24627905 -0.066892475 -0.2554271 -0.15037596 -0.06747114 -0.16649038 -0.11767407
-0.1343916 -0.21079525 -0.10624616 -0.17980969 0.12174888 -0.1683099 -0.17962533 0.23500746
-0.1747013 -0.06483477 -0.1916444 0.17670257 0.08793563 0.15752366 -0.14491192 0.18159387
0.13372149 0.073317245 0.07484017 0.20506436 0.07536542 0.07182507 -0.20075735 0.124557585
0.21141839 -0.22936028 -0.24338439 -0.067052126 0.22570941 -0.17231601 0.09452787 0.02520625

fc1.bias f4 [64]
00000000: f68c 12be 14b7 ae3d 5c76 95bd 62e3 55be
00000010: 6e02 be3d 54c7 07be 6554 29bc 28ec 24be
00000020: f526 0b3e df9a d5bd 0859 d13c 1056 5abd
00000030: aab3 503e 7a26 f2bd 3804 58be 2249 bcbd
00000040: 8e69 2b3e b177 8e3b 32b4 a13d bb1f 253d
00000050: fad2 e43d 887a 1a3e cdfa dc3d 6aa4 293e
00000060: 0cc2 d3bd 80ab 5037 2359 2d3e 6995 91bd
00000070: 94bb 0e3e 1778 4b3e f151 4f3e 7c13 773e
00000080: 2adb 093c 8743 1c3d f0c2 5e3e 5305 033e
00000090: b627 42bd ce2c 5f3e 0496 683d 3cbf 263b
000000a0: be8d 91bd 30c1 4f3d ccc0 443d ec81 8ebd
000000b0: bda0 1b3e 07fa bc3d 26ae 4b3e d884 0bbe
000000c0: 0c98 b73d 5875 b3bd 3f8e 733b fad6 6e3d
000000d0: 4a73 2ebc bf8e debd fa8e e23d 6ee9 3fbe
000000e0: 3c80 4bbe 14da 043e c6fb 10bd cf12 22be
000000f0: 9ce6 ba3c 987e bb3d 7610 2cbd 6e52 d6bd
-0.14311585 0.08531013 -0.07297966 -0.20887521 0.09277807 -0.13259631 -0.010335063 -0.16105711
0.1358908 -0.1042993 0.025555149 -0.05330473 0.20381036 -0.11823745 -0.2109536 -0.091936365
0.16739485 0.0043477644 0.07895698 0.040313464 0.11173053 0.15085804 0.10790024 0.16566625
-0.10339746 1.2437697e-05 0.16928534 -0.07108576 0.13938743 0.1987003 0.20246102 0.24128526
0.008414069 0.038150337 0.2175405 0.12795 -0.047401153 0.21794435 0.05678369 0.0025443574
-0.07107113 0.050721347 0.048035428 -0.069583744 0.15198036 0.092273764 0.19890651 -0.13624895
0.089645475 -0.08762616 0.0037163643 0.058310486 -0.010647604 -0.108670704 0.11062427 -0.1874139
-0.19873136 0.12973815 -0.03539636 -0.15827487 0.022815041 0.09155005 -0.042007886 -0.10464941

fc2.weight f4 [32, 64]
00000000: 0e50 7a3d 4887 de3c 5052 67bd 8a21 c5bd
00000010: d68b 193d b1ef dcbd d934 0dbe b051 68bd
00000020: 73d3 013d cc30 fcbd ae4a 6abc ca9c 08bd
00000030: 9621 1cbe 43b0 f33c 9c27 933d 877c 1fbd
00000040: 4c56 8fbd 18b7 8a3d b2e0 bcbc 0510 75bd
00000050: f300 443d 4302 94bd 44cd 7c3d 2c6c c43c
00000060: 0a0e 2a3d c9a5 20be 68e5 a7bd 8803 1dbd
00000070: 7c3f 90bd 022d 0cbe 1feb 9f3d 2515 b2bd
00000080: 64d0 9abc 9a2f ddbc 0e14 5cbd f2d2 a83c
00000090: 11b3 a2bd 4686 1dbe 0a7c 21bc ac13 00be
000000a0: f474 a5bd 72b1 3ebc 84f6 02be b357 85bd
000000b0: d32f 87bc 3157 f43c a9bc 02bb b7cf ba3d
000000c0: 2c13 dbbc fedd c13d ec6d 8dbd 220e d9bb
000000d0: 9ef7 b5bd 7005 47bd b46f ab3d 4c71 6dbc
000000e0: 9346 34bc 3eff 863c 3822 0abe 54d9 90bc
000000f0: b174 093b 9e7a 6abd e08c 7bbb a6cb 20be
00000100: 0a72 fdbd a48b 043e 37c5 03bc 16c8 f03d
00000110: 8a91 9bbd 46d5 03be b4f6 0c3c 0cb1 943d
00000120: 42c5 cc3c 7c4e 44bd 3065 073e 589f 053e
00000130: a92c 013d 32c9 b0bc a407 acbd d3f7 903d
00000140: b911 b43d 7c11 ad3c b5df 7bbd 5ad3 333e
00000150: 8003 54ba d0aa c83c c3c0 c1bc 1ee5 67bc
00000160: 808f 9e3c e14b 01be 02bf b7bc 0702 a13b
00000170: aed1 a4bd 90ac dfbc 79df 20bc 1ca2 ec3d
00000180: 898d c8bd a0ab 263d 630b 083e 0404 023e
00000190: 0be0 03be 5a84 c8bc 4c46 c8bd e909 37bc
000001a0: b29f 86bd 37c8 39bd b0ba 993c af00 233c
000001b0: 688f a43d ff6a 8a3d 4d78 4e3d 2407 113e
000001c0: ce65 56bd 80d8 86bd 680f a03b adf7 823d
000001d0: 3809 d83d 40ea 723c 3e5e 323d d13c 36bd
000001e0: 3c9f 87bc 3ead 19bc f8d6 1d3d 4272 4d3c
000001f0: ada1 063e f051 243e 221f 33bd 8849 a23d
00000200: 27d1 253c 35eb 6ebd e602 d3bd 6a05 fc3c
00000210: 555d 6e3d 8158 4e3d 5525 f03c c85c 003d
00000220: 6aca d23d fe19 07be 9707 863d 4a7c a13d
00000230: 12b9 08bd f89c 3dbc 70b3 633d e06a 3bbd
00000240: bd22 d8bb 6bec 49ba 4a30 27bc 5039 1aba
00000250: 5c4f e3bd b228 05bb 3fd5 d2bc a275 293e
00000260: 30b9 893d 62eb a93d 6bd8 7b3d a7ec 1c3d
00000270: fe43 cbbc 7362 983b aeca 8abd 162f 843d
00000280: 08cc e63d c8ec fbbc 128d adbc 4153 7a3d
00000290: eec4 9b3d d8db a93d 920e fdbd 1787 483e
000002a0: a006 913c 50df 9a3d 4bde acbd 3438 a6bd
000002b0: be7a c23d 2ec2 683d d1fa 8e3d 1e76 f73d
000002c0: bc42 993d 8466 6cbd 7303 0a3e 671d 243d
000002d0: d552 c63d 25c1 77bd c693 e13d e6b0 bc3d
000002e0: 696e 8e39 1a58 06be d2b9 abbd b053 bc3d
000002f0: f42f 4d3b dc45 ceba 06b1 9ebd fc75 2cbd
00000300: cbbb 56bc 8927 0e3d b968 7abd 2e25 e23d
00000310: a43d e33d 49be a33d 8ae1 3ebd 0643 ba3d
00000320: ea19 1a3e 1f44 b5bd 2b40 bcbb 9d42 e63d
00000330: e2a2 91bd 66b8 c83c 7271 de3d 849d c1bd
00000340: bf1e 9fbc aaa6 a33d 7f66 26bb d440 00bc
00000350: 7e0e d6bd dabd 06bc dd9d 9cbd ca23 f93d
00000360: f860 fe3c 284a a9bd 1871 aa3d 3c75 90bd
00000370: 19c2 8dbd a8ca 12bd 321b 5bbd b44f 3a3d
00000380: c22e 89bd 8214 6e3c e0dc b03d b7b9 c03c
00000390: 8c59 ac3d 509e e5bc 7d87 a2bd 469c 083e
000003a0: 95cb 1b3d 767c 3abd 12e3 5d3d 9376 193e
000003b0: 19da a1bd c41a b2bc b4a0 9c3d 56ce c93d
000003c0: bda1 ef3c 94a2 6a3c 882b 2bbb bae7 f23c
000003d0: d62a 9a3c d8d7 f2bb 3b8a e63d 0333 8abd
000003e0: e41c b9bd 4ed1 89bd 7cd0 563c 0e48 063e
000003f0: aaed c03d 54b6 2a3e b462 143e 693c fd3c
0.061111502 0.027164117 -0.056474984 -0.09625538 0.037486874 -0.10787905 -0.13789691 -0.05671853
0.031695794 -0.12313995 -0.014300032 -0.03335265 -0.15247187 0.029747134 0.07185289 -0.038937118
-0.06998882 0.067732036 -0.023056362 -0.05982973 0.047852468 -0.07226994 0.061719194 0.023977362
0.041517295 -0.15688242 -0.08198053 -0.038333446 -0.07043359 -0.13689044 0.07808518 -0.08695439
-0.018898197 -0.027000237 -0.053730063 0.020608399 -0.079443105 -0.15383253 -0.009856233 -0.12507504
-0.08078948 -0.011638986 -0.12789351 -0.06510868 -0.016502297 0.029826732 -0.0019948876 0.0912165
-0.02674254 0.0946617 -0.069057316 -0.006623999 -0.0888512 -0.04858917 0.08370915 -0.014492344
-0.011003154 0.01647913 -0.13489616 -0.017681755 0.0020974095 -0.057245843 -0.0038383529 -0.15702686
-0.12375267 0.12943894 -0.008042625 0.11756913 -0.07596119 -0.12874326 0.0086037405 0.072603315
0.024996404 -0.04792641 0.13222194 0.13049066 0.031536732 -0.021580312 -0.08399895 0.07078519
0.08792443 0.021126501 -0.06149264 0.17561093 -0.000808768 0.024495512 -0.023651486 -0.014153747
0.019355536 -0.12626602 -0.022429947 0.0049135718 -0.08047806 -0.027303964 -0.009818905 0.115543574
-0.09792621 0.040691018 0.13285594 0.12696844 -0.12878434 -0.024477173 -0.09779033 -0.011171796
-0.06573428 -0.045356955 0.018765777 0.009948893 0.08035165 0.06758689 0.050407697 0.1416288
-0.052343182 -0.06584263 0.004884649 0.06394897 0.10548633 0.014826357 0.043546908 -0.044491593
-0.016555421 -0.009379683 0.03853509 0.012539448 0.13147612 0.16046882 -0.043730862 0.07924181
0.010120667 -0.05832978 -0.10303287 0.0307643 0.058194477 0.050377373 0.029314676 0.031338483
0.10292514 -0.13193509 0.065444164 0.078850344 -0.03337962 -0.011573069 0.055591047 -0.04575622
-0.006595938 -0.00077027705 -0.010204384 -0.0005883174 -0.11099121 -0.0020318446 -0.02573645 0.1654878
0.06724775 0.08296849 0.06148569 0.038311627 -0.024812695 0.004650408 -0.06776939 0.064542934
0.112693846 -0.030752555 -0.021185432 0.061114553 0.07605921 0.08293885 -0.12356295 0.19582783
0.017703354 0.07562125 -0.084408365 -0.08116189 0.094960675 0.05682581 0.06981433 0.12083076
0.07483432 -0.057714954 0.13477878 0.040067103 0.09683768 -0.06048693 0.11014514 0.09213428
0.00027166613 -0.13119546 -0.08385052 0.091956496 0.00313091 -0.0015737372 -0.07748608 -0.042104706
-0.013106297 0.034705672 -0.061135028 0.11042248 0.110957414 0.079952784 -0.04660181 0.09094815
0.15048948 -0.08850884 -0.005744954 0.11243174 -0.071111456 0.02450199 0.10861482 -0.09453872
-0.01942384 0.07990773 -0.0025390682 -0.007827956 -0.10451983 -0.008223975 -0.076472975 0.12165029
0.031052098 -0.08266097 0.08322352 -0.07053611 -0.06921787 -0.0358378 -0.053492732 0.045486167
-0.066983715 0.014531257 0.086358786 0.023526056 0.08415517 -0.02802959 -0.079359986 0.13340864
0.038035948 -0.04552885 0.05417163 0.14986639 -0.07902927 -0.021741278 0.07647839 0.098538086
0.029251928 0.014320988 -0.0026118476 0.029651511 0.018819254 -0.0074109845 0.11256834 -0.06748011
-0.090387136 -0.06729375 0.01311123 0.13113424 0.09420331 0.16671115 0.14490777 0.030912595

fc2.bias f4 [32]
00000000: 7b50 8cbd c6f2 5dbd 5310 863d 60c0 93bd
00000010: 2da7 94bc 6e2b e13d 1020 4f3d 6448 a23c
00000020: 90bb 85bd a92f bfbb 4e16 fdbd 6ef0 9cbd
00000030: ac65 0c3c fa24 05bd 85ba abbb 9709 d33b
00000040: 60e7 48bd 3811 99bd 5232 bdbc 7877 f33c
00000050: 8e3a b8bd 0977 a83b fed4 153d ec34 f43d
00000060: dd82 30bd 02cd d13d 90bf cdbd f875 bebb
00000070: 14a4 733d fba4 973c 5cf5 c73d 0e08 cfbc
-0.06851288 -0.054186605 0.06546082 -0.07214427 -0.018146122 0.10994612 0.050567687 0.01980991
-0.06529915 -0.005834539 -0.1235777 -0.07663046 0.008569162 -0.032505967 -0.0052407407 0.006440352
-0.04904878 -0.07473987 -0.023095284 0.029720053 -0.089955434 0.005141143 0.03658008 0.119241565
-0.04309355 0.1024418 -0.10046303 -0.005812403 0.05948265 0.018511286 0.097635955 -0.025272395

fc3.weight f4 [1, 32]
00000000: 14bc ea3d 6c52 c8bd 36b0 11be 9016 c3bd
00000010: 687a 273e 8900 1e3e 184a 403e 2ca5 133e
00000020: 8760 383e a428 f13d 12b1 263e 7644 7bbd
00000030: aee5 483e bf99 cc3c 4a77 803d 5266 413e
00000040: 363c 32be 01bb 14be 0d30 cb3d bd4b e6bd
00000050: 7cec c83d 15cd 36be a0f0 d43d f88e 84bd
00000060: 960f 10be 023d afbd 6995 2f3e 3ac3 97bc
00000070: cbf3 143e da03 183e 7db3 803d c152 dc3d
0.11461654 -0.09781346 -0.14227375 -0.09525788 0.16355288 0.15429892 0.18778265 0.14418477
0.18005572 0.1177533 0.16278484 -0.061344586 0.19618866 0.024975656 0.062727526 0.18886688
-0.17405781 -0.14524461 0.09921274 -0.11244915 0.09810731 -0.1785167 0.10397458 -0.064725816
-0.14068446 -0.08556558 0.17146839 -0.018525708 0.14546125 0.14845219 0.06284235 0.107579716
