model_checkpoints/model_round_1.pt (torch, 15364 bytes, 5 tensors)

layers.0.weight f4 [64, 15]
00000000: 0ed1 0f3e ee77 4b3e 0ee0 9c3d 9107 e23c
00000010: 67ea 1e3d 1b67 db3d 80e1 50bd 5deb 5e3c
00000020: c8ad 7f3d bf60 97bd b717 b6bd a597 70be
00000030: 4e12 48bc 7854 72be ae8e 38be 547f 203e
00000040: 373f 7a3e dfa5 0a3e 4d19 3c3e 35d8 363d
00000050: e7f7 8c3d bbe0 6d3e cb20 e6bd 9444 3d3e
00000060: 5471 853c d19d 79bd 5254 0bbe 53c3 98bc
00000070: 9a42 84bd 8485 523e 7f18 66be 1c70 65be
00000080: 3cd1 29bd 4a70 f6bd baa0 b0bd c95f 4bbe
00000090: 2550 0abd 4f35 9e3d adb1 ecbd d04b d13d
000000a0: 5a50 19be b5ac 983d ce84 663e 41bc e6bb
000000b0: 53a9 6a3e c5db 683e 3aec eebd 1fa2 5cbe
000000c0: f015 aa3c a5c7 1d3e 8633 29be 6f78 7fbe
000000d0: 01a9 a1bb cd78 143e 88fa 7dbc 0de8 87bd
000000e0: 4a08 9abd 109a efbd 3bc0 41be b09c 6dbe
000000f0: c43c 7f3e 0b6b 6fbe 990e 62be a5f6 fabd
00000100: 103a 843e 1dcc 08be feae 39be 1cb9 1e3e
00000110: 1743 f83d 5cd6 633e 3121 eb3d e26f 49be
00000120: 5494 f6ba cc41 703e ea39 49be 76cc 123e
00000130: 5cb6 a03c 6ef5 80be 81e8 73be d667 4f3d
00000140: 6c15 73be 8c0a 30be df5e 4b3e 1f0c 5a3e
00000150: bf64 fe3d 3e22 193d 09a1 b0bd cf3c 4c3e
00000160: 48fb 143e 1349 173e c0e6 e93a 3fe0 7a3e
00000170: 588a 073e 390b 4f3e 3837 2a3e b4cf 233d
00000180: 65d7 dd3d ba80 0b3e 1983 3b3e 89a2 2ebe
00000190: 757f 653e 13aa 9fbd 0f11 173e 33cd 173e
000001a0: 693f 353e c298 66be d262 8ebd 27df 2bbe
000001b0: 9fa3 9fbd e8a3 4f3e b5fb fbbc 5144 7dbd
000001c0: 0004 813e 5cd1 bdbc 8761 e6bc 332d fdbd
000001d0: 84ed 7dbe d26d f03d 5992 41be 8617 453e
000001e0: dd7f 873d dbd8 7f3e 1908 16be 410e 66be
000001f0: b4a7 2a3e 8c94 b03d a2ff 0fbe 1f81 1fbe
00000200: e592 c03d 955c 05bd 93dc 1d3e d9d6 0ebd
00000210: 1925 653e 9dcf aebc 97ad 91bd 4a34 6dbe
00000220: f101 323d 8adc 62bd 4504 09be 0e09 4abe
00000230: bd28 0abe 5252 a9bd ed84 9abd f943 fe3d
00000240: d11c 323e 0043 9cbd bf77 263e 0762 36be
00000250: 92c8 723e 0664 463e c902 8ebd 4315 973d
00000260: 1273 b0bd 6c66 4f3d 0c0b 453e 6f31 583d
00000270: 6f07 76be 0803 4b3e ca7b 1a3e 33c5 6f3d
00000280: ba4f 1d3e a362 3bbe a536 a2bd e0a5 373e
00000290: a826 013e 4f25 31bd 05c4 36be 9530 d2bd
000002a0: 34c6 a43d bf00 5fbe 1c0d 173e 351a 843e
000002b0: c50b 23bd 8709 6f3e c2a3 b33d 8b5b 323e
000002c0: 928b 43be dd8a 81be 16d7 c43d 29c9 1c3e
000002d0: c6d5 053e f873 9c3d 5dbb 603d 87c7 17be
000002e0: 255b 193e 4c53 00be a846 223b a9ca 4cbd
000002f0: 6f51 e73d 348d 17be 760a 13be 171f 483d
00000300: 26ab a9bb 62fb 6abe 4e1f 99bb e537 833e
00000310: 482b 153e 177b 4abe faed ce3d 4577 2d3e
00000320: 7a97 77bb 8948 2dbe 092e 153e bb6e 48be
00000330: 0e17 6a3e c8fd 25be 40b9 4f3e 63ce ab3c
00000340: 1490 863c 5dda 3bbe fed7 363e ba2e 16be
00000350: 76ed 4dbd 28a6 09be 2eed 093e edbf 05be
00000360: e590 18be ff3d fcbd 3f71 353e 9a23 b83d
00000370: 5492 393e 7bf2 873d 6935 31be b92b 5b3e
00000380: 03df 5e3e f945 123e 2e26 81be 3a76 f43c
00000390: 6f01 463e 0f5a 303e 1935 753e ff32 fc3d
000003a0: a57c 643e 2681 803e 6691 6a3e f57c adbd
000003b0: 9ae5 803e 6831 65be 8efb 5e3e f27a 99bd
000003c0: 2e6e 78be d3d2 97bc 5297 3cbc cc33 963c
000003d0: f6f3 6bbe d4fa 18be a9ed e5bc ebbf 13bd
000003e0: c95e 33be 5fae 223e 274f 1cbb 5902 0e3e
000003f0: 7c8c f4bd d887 4bbe 3d78 93bd 12b8 353e
0.14044592 0.19869968 0.076599225 0.027591499 0.038797762 0.10713025 -0.050996304 0.01360592
0.06242159 -0.073915 -0.08891242 -0.23495348 -0.012211395 -0.23665035 -0.18023178 0.15673572
0.24438177 0.13539837 0.18369026 0.044639785 0.06883221 0.23230259 -0.112367235 0.18483192
0.01628939 -0.06094152 -0.13606384 -0.018647825 -0.06458016 0.20558745 -0.22470282 -0.22406048
-0.041459307 -0.12033136 -0.08624406 -0.19860758 -0.033767838 0.077250116 -0.115573265 0.10219538
-0.14972058 0.07454816 0.22511598 -0.0070414846 0.22916155 0.22740085 -0.116661504 -0.2154622
0.020762414 0.1540819 -0.16523561 -0.24948286 -0.004933477 0.14499207 -0.015501626 -0.06636057
-0.07521112 -0.11699307 -0.18920986 -0.23204303 0.24925524 -0.23380677 -0.22075881 -0.12254075
0.25825548 -0.13359113 -0.1813316 0.15500301 0.12122171 0.2224974 0.1148094 -0.19671586
-0.0018812516 0.234626 -0.19650999 0.14335808 0.019618206 -0.25187248 -0.23819162 0.050636135
-0.2373864 -0.17191523 0.19860409 0.21293686 0.124215595 0.03738617 -0.08624465 0.19945072
0.14548981 0.1477397 0.0017845258 0.24499606 0.13236368 0.20219125 0.16622627 0.039993003
0.10832099 0.13623324 0.18311729 -0.1705419 0.22411902 -0.07796111 0.14752601 0.14824371
0.1769997 -0.2251921 -0.06952442 -0.16784345 -0.0779488 0.20277369 -0.030759672 -0.06183273
0.25198364 -0.02317112 -0.028122677 -0.12362137 -0.24797636 0.117396966 -0.18903483 0.19247255
0.06616185 0.24985068 -0.14651527 -0.22466375 0.16665536 0.08622083 -0.1406236 -0.155766
0.09403018 -0.032558996 0.15416174 -0.034872863 0.22377433 -0.021339232 -0.07113188 -0.23164478
0.043458883 -0.055386104 -0.13380535 -0.19730017 -0.13492103 -0.082676545 -0.07544885 0.124153085
0.17393805 -0.07629967 0.16256617 -0.17810832 0.23709324 0.19374093 -0.06934125 0.07377102
-0.08615698 0.050634786 0.19242495 0.05278152 -0.24026273 0.19825375 0.15086284 0.058537673
0.15362445 -0.18299346 -0.07920579 0.1793437 0.12612402 -0.04324847 -0.17848213 -0.102631725
0.08045617 -0.21777628 0.14751095 0.25801244 -0.039806146 0.23343478 0.08771469 0.17417733
-0.1909621 -0.25301257 0.09611337 0.15311112 0.1306983 0.07639307 0.054866184 -0.14822207
0.14976175 -0.12531775 0.0024761353 -0.04999796 0.11294829 -0.14799958 -0.1435946 0.048857775
-0.005177873 -0.22947457 -0.0046729213 0.25628582 0.14567292 -0.19773518 0.10103984 0.16940029
-0.0037779496 -0.16922201 0.14568342 -0.1957349 0.22860357 -0.16210091 0.20285511 0.020972436
0.016426124 -0.18345018 0.17855832 -0.14666262 -0.05027529 -0.1344229 0.13469383 -0.13061495
-0.14899023 -0.12316512 0.17718981 0.089911655 0.18122226 0.06638046 -0.1730553 0.21403398
0.2176476 0.14284505 -0.2522444 0.029841531 0.19336484 0.17221855 0.23946036 0.12314414
0.22313173 0.25098532 0.22907028 -0.08471099 0.25175172 -0.22382128 0.21775648 -0.07494153
-0.2426078 -0.018533146 -0.011510687 0.018335246 -0.23042282 -0.14939433 -0.028067427 -0.0360717
-0.17516626 0.1588683 -0.002385089 0.13868083 -0.11940858 -0.19876039 -0.07200668 0.17745999

layers.0.bias f4 [64]
00000000: 1ea5 0b3e e5a0 563e db3a 843e 3acc 1ebd
00000010: f87f 0e3d 7bb0 153e 85b4 743d a6b9 823b
00000020: 269c 213d 2570 3b3e bd50 1d3e d24f 223e
00000030: afc5 9d3d 4423 2fbe 242a 683d e4c7 23be
00000040: a78f 56be 0e51 313e aa5c 19be e30b 843d
00000050: bc02 433e f04e 1ebe cc8a 08be c50c 24be
00000060: ef7f 933d eadf 71bc 1410 0e3e bf92 83bd
00000070: e42c 093e ac79 5cbe 7c15 a13c 7772 6e3e
00000080: 1c9f d53d 1d83 73be 2042 943d 278f 47bd
00000090: bc3b 4e3d 49cb 14bd 6465 80be 7ba8 07be
000000a0: e740 77be fc97 43bd 60d8 28be 5b21 6d3e
000000b0: a10d 80be b1a3 92bc 07e5 07be 5844 41be
000000c0: c456 2f3e f3fb e5bc ea7a 813e f180 dd3d
000000d0: f88b 05be 442e 29bd b2b2 4dbe fdaf 4f3e
000000e0: a49e 74be dc8d 603e 391c a3bc b8ee 97bd
000000f0: 37b8 81bc 7d39 13be b78f 7b3d 3e0f 393e
0.13637206 0.20959814 0.25826153 -0.038768984 0.03479001 0.14618103 0.05974247 0.003989416
0.039455555 0.18304498 0.1536283 0.15850762 0.07703721 -0.17103297 0.056680813 -0.15994221
-0.20953237 0.17316076 -0.14976755 0.0644758 0.19044012 -0.154598 -0.13334197 -0.16020496
0.07202136 -0.014762858 0.13873321 -0.06424474 0.1339603 -0.21530789 0.019663565 0.23285852
0.10430738 -0.23780484 0.07239175 -0.048720505 0.050349936 -0.03632668 -0.25077355 -0.13247864
-0.24145852 -0.047752365 -0.1648879 0.23157255 -0.25010398 -0.01790032 -0.13270961 -0.18873727
0.17122942 -0.02807424 0.25289088 0.10815609 -0.13041675 -0.041303888 -0.20087698 0.20281978
-0.23888642 0.21929115 -0.019910919 -0.07418579 -0.01583491 -0.14377399 0.061416354 0.1807222

layers.3.weight f4 [32, 64]
00000000: 7a36 393c 7df2 613d c26a bf3d 8640 ca3d
00000010: 96d6 f23a b95f 1d3d e433 803d 47ff e3bd
00000020: 8143 e23d eb86 da3c 013e 2dbd fcba a43d
00000030: 1131 d13d 5eac ed3d ae63 843d 219e bdbd
00000040: f075 673d 5d48 263d ef2c b9bd 331d c6bd
00000050: 3b20 e9bd c003 2ebd 09b0 a5bc a22d 0dbe
00000060: 2293 81bc 17fb ff3d 9a69 183a 15e9 e9bd
00000070: 80f5 173d cf3a cebd fa02 20bd d874 c73d
00000080: d95f e3bd 7daf 693c 5305 c83d b857 46bd
00000090: c4a5 98bd 6959 a9bd 5e6d 423d b1aa 18bd
000000a0: 207d 8ebc 69c3 51b8 65e7 e73d 9ddf a8bd
000000b0: 8e21 e3bd b906 c23d ea5d f9bd 896b 4ebd
000000c0: 945e dc3d 6f2e 4b3d 0fd4 cabd 0256 abbd
000000d0: 42f0 c93d e829 76bd f4d0 033d 8083 99bd
000000e0: 803c 4a3d c67d 3bbd f86b 85bd 4538 bcbd
000000f0: 4e52 683d ac70 1b3d 3de0 8c3d 0cae a33d
00000100: 7519 e2bc 900f 2dbd 9d44 94bb ef50 e93d
00000110: d13e 8f3d 058a 723d 73d7 91bd 0a87 8fbb
00000120: a828 06be be65 d33c afed 0f3d 5ecd 77bc
00000130: 9ee7 b7bd efd0 f03d c1df aabd 7f98 71bc
00000140: 554a df3d b2c5 51bc 63b7 a4bd d20d 9bbc
00000150: 36d9 823d b4ec 393d 49c8 9cbd a021 b6bc
00000160: 9496 053d 3d45 b9bb 50d9 ab3d 99b3 dc3c
00000170: 6d92 39bd c810 2c3d d3fc 88bd 2461 84bd
00000180: 5c5f a33b d980 023e 1334 303d 6038 1c3c
00000190: 150a 953d 84d5 9bbd afd5 8cbd bfd2 f5bd
000001a0: f299 d3bd f464 63bd 1dd9 3fbd 0d71 eebc
000001b0: 0c4c 14bc b911 e4bd c599 d63d 82c1 983d
000001c0: 206f bdbd b8f6 78bd 8252 9abd 20bc c13d
000001d0: 87d0 733d fe6f 1b3c a619 913a 740f b7bc
000001e0: 9a1c 093d dd11 903d 906c 44bc 5198 efbc
000001f0: 5a7e 863d 0a49 46bc 1f58 78bd 13e2 11bd
00000200: 6b27 d53d 8409 4a3c 8f2c acbd ccc2 edbd
00000210: 7da0 97bd 3e71 783d 7eb1 02be 3725 d03c
00000220: f431 a5bc d463 02be bb49 933d ebb3 91bb
00000230: ea7d 033d ba78 6b3d 2e4e 0a3c 4149 5c3d
00000240: 65a2 f23d ac0d bb3b 7355 f53d 388e fcbc
00000250: edb2 e0bd f7cd 8b3d eed1 de3d f62f dcbd
00000260: 48ae dd3d 37a8 843d 80b0 6ebd ec85 983d
00000270: cf0a a3bb 129b 8a3d 4d7f acbd 9614 543c
00000280: bc00 a7bd 9e7c b5bd 8edc fdbd 6944 383d
00000290: 6a27 963c 6b2b cdbc ee1c d13d a527 d6bd
000002a0: 6124 d6bd 2e04 5e3c 7eb5 7b3c 1001 7fbd
000002b0: e64c d2bd a1d4 4bbd 4513 943d 09a0 81bd
000002c0: 64ce 27bd f3cf 953d 11d5 bbbc 8662 b2bd
000002d0: e941 adbd 81df 38bb 13d5 413d ed97 d9bd
000002e0: 104b 98bd 485f c43d 7f0d ff3d 2926 463c
000002f0: 58a1 6d3d 728b af3d 2da8 fe3b 4f78 1cbd
00000300: f17f ddbd ac6a cd3d 82bf 4c3d 72f4 553c
00000310: f6f1 9d3d 4093 15bb 5d17 50bd a3ca c8bd
00000320: b801 bdbd f65a f23d 8180 41bd 31d3 843d
00000330: 04bd efbd 19c0 9ebd f4d2 483d 2d37 febd
00000340: 50cf f53b d50a 183d 68a9 3dbc 78ad 743c
00000350: 5110 4f3d 7b32 91bd f70f c73d a068 e83d
00000360: dee1 abbd c4af d43d 6896 b73d 5ad3 8a3d
00000370: c25b db3d b1ee 993d 91fa f7bb c196 97bd
00000380: 43f3 e8bd 3558 febd 53fc f1bd c42b d33d
00000390: 77f8 6d3d 8e19 65bd afc2 f13c 68dd cd3d
000003a0: 257a 9fbd e108 b2bd f7d8 883d 13e4 4dbd
000003b0: 5a9b 863d 67f3 a63d 0e31 5e3d c9f0 a23c
000003c0: 2fa2 ea3d ddff 73bd 8f8a 8f3d ab89 e039
000003d0: 72c7 a1bc e6b6 2bbd 3d0d 49bd 1943 3ebc
000003e0: bce0 403b ea07 983c df53 03bc a05f aebd
000003f0: 1364 cf3d 03d7 953d 7bf5 bfbd d2e1 d03d
0.011304492 0.055162895 0.09346534 0.09875588 0.0018527086 0.038421366 0.06259897 -0.11132675
0.110480316 0.026675662 -0.04229546 0.08043477 0.10214437 0.11605142 0.06464325 -0.09258676
0.05650896 0.040596355 -0.090417735 -0.09673538 -0.113831006 -0.042484045 -0.020225542 -0.13786939
-0.015817229 0.124990635 0.00058140757 -0.1142141 0.03709936 -0.100698106 -0.03906534 0.09739083
-0.11102266 0.014263031 0.097666405 -0.0484235 -0.07453492 -0.08269007 0.047467582 -0.03727216
-0.017393649 -5.0011473e-05 0.11323432 -0.08245776 -0.110903844 0.094739385 -0.12176116 -0.050395522
0.10760227 0.04960483 -0.09903728 -0.08366014 0.09860279 -0.06009856 0.032181695 -0.07495785
0.049374104 -0.045774244 -0.06514734 -0.0919042 0.056719117 0.03794925 0.068787076 0.07992181
-0.02760003 -0.04225117 -0.004524781 0.1139239 0.06994403 0.059213657 -0.07121172 -0.0043801116
-0.13101447 0.02580535 0.035138782 -0.015124647 -0.08979724 0.11758601 -0.08343459 -0.014745831
0.109028496 -0.012803482 -0.08042791 -0.018927488 0.06389086 0.045391753 -0.07655389 -0.02223283
0.032614306 -0.005654006 0.083910584 0.026941108 -0.045305658 0.04200819 -0.066888474 -0.064638406
0.004985733 0.12744464 0.04301841 0.009534925 0.072773136 -0.07609084 -0.068766944 -0.12003087
-0.10332097 -0.0555162 -0.046837915 -0.029106641 -0.009051334 -0.11136193 0.10478548 0.07458784
-0.09249711 -0.060782164 -0.07535268 0.0945971 0.05952504 0.00948715 0.0011070266 -0.022346236
0.033474542 0.07034657 -0.011988774 -0.029247435 0.065670684 -0.012102375 -0.060630914 -0.03561599
0.10407909 0.01233137 -0.084069364 -0.1160942 -0.074036576 0.06065487 -0.1276302 0.02540837
-0.020165421 -0.12733394 0.07191797 -0.0044464967 0.032102503 0.05748818 0.008441491 0.053780798
0.118473805 0.005708417 0.11979189 -0.030829534 -0.109716274 0.06826394 0.10879885 -0.10751335
0.10824257 0.06477397 -0.058273792 0.074474186 -0.0049756537 0.067678586 -0.08422718 0.012944361
-0.08154437 -0.088616595 -0.12395583 0.044987116 0.018329341 -0.025045117 0.10210596 -0.1045678
-0.104561575 0.013550801 0.015363095 -0.062256873 -0.102685735 -0.049763326 0.07230238 -0.063293524
-0.040968314 0.07315054 -0.022928746 -0.08710198 -0.08459837 -0.002820939 0.047322344 -0.10624681
-0.07436192 0.09588486 0.12453746 0.012094059 0.058015198 0.08571519 0.007771513 -0.038200673
-0.108154185 0.10030112 0.049987324 0.013058769 0.07712166 -0.0022823364 -0.05080353 -0.09804275
-0.092288435 0.11833756 -0.04724169 0.06485594 -0.11705974 -0.077514835 0.049029306 -0.12412868
0.00750152 0.037119705 -0.011576034 0.014933936 0.05055267 -0.070897065 0.09719842 0.11348081
-0.0839269 0.10385087 0.089642346 0.06778593 0.10710861 0.0751623 -0.0075677116 -0.07401801
-0.113745235 -0.12419168 -0.11815705 0.10311082 0.058098283 -0.055932574 0.029511778 0.100519955
-0.07786969 -0.086931 0.06682008 -0.050266337 0.065726 0.08151894 0.054246 0.019890206
0.11456715 -0.059570182 0.0700885 0.0004282718 -0.019748423 -0.041922472 -0.04908489 -0.011612677
0.0029430827 0.018558461 -0.008015602 -0.08514333 0.101265095 0.07316401 -0.093729936 0.10199322

layers.3.bias f4 [32]
00000000: 84ae 9fbd c027 d33d 03b6 123d 9691 593d
00000010: a93d bb3d 0244 b73d 297b acbd e4f9 e4bc
00000020: 0f09 0e3d 15da a4bd 9af0 a23d 8e9b 773d
00000030: a58a 6b3d 11ac c3bd 73f9 b3bd 03d3 34bd
00000040: faff 1b3d fbc5 433d c65f 573d 5f54 0a3d
00000050: 3038 f3bd c7df a5ba f3d8 873d dc2a cebd
00000060: 2b70 cc3d 5499 7b3d afc9 68bd 36b4 a7bc
00000070: cb2e f23c 2dbf fe3d 5f8a ab3d f4e2 a1bd
-0.07796958 0.10310316 0.03581811 0.053117357 0.0914262 0.08948518 -0.084219284 -0.027951188
0.034676608 -0.08049408 0.07956047 0.060451083 0.05750527 -0.095543034 -0.08787813 -0.04414655
0.038085915 0.04779623 0.05258157 0.03377187 -0.11875951 -0.0012655192 0.06633177 -0.100667685
0.09982332 0.061425522 -0.056832965 -0.020471673 0.029563328 0.12438808 0.083760016 -0.07904616

layers.6.weight f4 [1, 32]
00000000: 6a4b 5dbd 01fc 14be cfc5 2b3e 93c0 92bc
00000010: b791 a0bb a703 0d3e a95b 5f3c 622c 9f3d
00000020: c5bf 44bb 659c 23bd d34c 31be 08ac 533d
00000030: d861 d3bc 7a61 11bd d000 1a3e 2b6b 0ebe
00000040: f056 863d 8f52 173e 503b 2ebd 27d7 7abd
00000050: d93b eabd d361 113e 299f 8cbd 50ee ff3d
00000060: e23c f73d e551 463d 51a1 e7bc bd6c 1a3e
00000070: fe91 01be cc20 82bd e067 e9bc e744 fbbd
-0.054027 -0.14549257 0.16774677 -0.017914092 -0.004900183 0.13770925 0.013632693 0.07772137
-0.003002153 -0.03994407 -0.17314462 0.051677734 -0.025803491 -0.03549335 0.15039372 -0.13908069
0.06559551 0.14777587 -0.042537034 -0.06124034 -0.11437196 0.14197473 -0.06866295 0.124966264
0.12072159 0.048417944 -0.028275164 0.15080543 -0.12653348 -0.06353912 -0.028491914 -0.122690015
