model_checkpoints/model_round_5.pt (torch, 15364 bytes, 5 tensors)

layers.0.weight f4 [64, 15]
0.14045382 0.21890514 0.07043972 0.04997466 0.031954817 0.10743334 -0.047367983 0.015398163
0.058098223 -0.09859625 -0.07927704 -0.23802516 0.0066218767 -0.22845808 -0.19344515 0.15955271
0.25984365 0.12037604 0.18334658 0.04929794 0.08244459 0.22934577 -0.105070256 0.19748418
0.010894837 -0.05803786 -0.1488119 -0.016583622 -0.0873605 0.1921042 -0.24180387 -0.21893817
-0.03805153 -0.13868114 -0.081366904 -0.22225142 -0.028069718 0.058604226 -0.09015673 0.11205374
-0.14794572 0.08038737 0.22701284 0.008479889 0.24319358 0.23705342 -0.097690366 -0.24334247
0.024863027 0.15272208 -0.15600027 -0.26085678 0.0048130127 0.13806957 -0.0014615303 -0.031705655
-0.10340764 -0.11115288 -0.19677617 -0.22392176 0.2526988 -0.25349084 -0.21361126 -0.12307997
0.26302186 -0.12818766 -0.18394344 0.16157578 0.14018461 0.21993542 0.097398594 -0.2114796
0.0062560253 0.23432125 -0.1728785 0.12453154 -0.0062614637 -0.22763036 -0.25142688 0.05095338
-0.2332861 -0.17245322 0.17686602 0.22593442 0.10553943 0.051572297 -0.07537177 0.1988714
0.1288205 0.13455167 -0.00011530925 0.24673633 0.13919596 0.18650305 0.17836498 0.025405508
0.11229389 0.13935317 0.18769574 -0.16953133 0.21303055 -0.0671306 0.15939668 0.14534053
0.18536961 -0.24985024 -0.068175554 -0.17141508 -0.0805242 0.19998226 -0.049298134 -0.056995828
0.23253818 -0.013320816 -0.046245366 -0.12494079 -0.24950676 0.093983844 -0.17747526 0.19445525
0.07183421 0.25829002 -0.14362408 -0.2184985 0.15373774 0.09701123 -0.15541059 -0.16135375
0.0907422 -0.048131365 0.1565859 -0.014673444 0.24493773 -0.029543517 -0.08921682 -0.21481694
0.030348705 -0.06276041 -0.12706925 -0.19298662 -0.12870735 -0.060172297 -0.06788773 0.11610921
0.18314186 -0.052189 0.15558353 -0.18276599 0.24166696 0.19884768 -0.074161686 0.075817876
-0.08040002 0.024614595 0.15585867 0.05129895 -0.2438484 0.18150847 0.1335367 0.06609801
0.17827952 -0.18008056 -0.09238631 0.16020489 0.12418969 -0.04298767 -0.19888438 -0.10501103
0.08652815 -0.22721657 0.16820803 0.26841354 -0.019171247 0.2333797 0.063867256 0.19733758
-0.17629533 -0.2514897 0.07715113 0.16155966 0.13674754 0.0915615 0.053224016 -0.1622435
0.16504025 -0.14627692 0.0056275018 -0.042992212 0.10252361 -0.12435331 -0.14699844 0.03528366
0.020438883 -0.2251341 -0.013903241 0.24859123 0.14796034 -0.21051663 0.112412035 0.18701671
-0.0045784083 -0.17872973 0.15505287 -0.19155286 0.2144402 -0.16598172 0.20506485 0.009693741
0.0022441254 -0.2090956 0.17281814 -0.16134901 -0.04752121 -0.11558592 0.13634317 -0.13313766
-0.13612035 -0.13282457 0.16078405 0.07125254 0.17241926 0.049889095 -0.17823955 0.22882894
0.20404369 0.15745807 -0.27487728 0.069166474 0.1850745 0.16421022 0.23309085 0.118053265
0.26581368 0.24512656 0.21913624 -0.09059998 0.2617883 -0.24706501 0.20022704 -0.07958716
-0.23107055 -0.030470418 -0.0145114325 0.0046726908 -0.2228111 -0.1532031 -0.04879773 -0.014316898
-0.1664369 0.15496811 -0.0022342112 0.12578318 -0.11651806 -0.18078373 -0.07480673 0.16897538
00000000: 20d3 0f3e ab28 603e b342 903d 3bb2 4c3d
00000010: 0ee3 023d 0306 dc3d ee04 42bd 9448 7c3c
00000020: 67f8 6d3d d5ec c9bd 005c a2bd debc 73be
00000030: 54fc d83b eaf0 69be 7c16 46be c961 233e
00000040: 3a0a 853e b787 f63d 35bf 3b3e a3ec 493d
00000050: b6d8 a83d 9ed9 6a3e 132f d7bd 4b39 4a3e
00000060: 4280 323c 1bb9 6dbd 2662 18be 60da 87bc
00000070: 10ea b2bd f7b6 443e 6f9b 77be 5431 60be
00000080: ecdb 1bbd 6e02 0ebe b1a3 a6bd e095 63be
00000090: 77f2 e5bc fc0a 703d 17a4 b8bd 6e7c e53d
000000a0: 157f 17be 22a2 a43d 0e76 683e 3bef 0a3c
000000b0: bd07 793e 22be 723e e311 c8bd c52e 79be
000000c0: 8cad cb3c 2d63 1c3e 89be 1fbe 058f 85be
000000d0: 7ab6 9d3b 1c62 0d3e d290 bfba cadd 01bd
000000e0: 62c7 d3bd 1fa4 e3bd b17f 49be bf4b 65be
000000f0: bd61 813e 8dc9 81be e9bc 5abe 5a11 fcbd
00000100: cdaa 863e a043 03be ab5b 3cbe 1f74 253e
00000110: 8e8c 0f3e c036 613e ea78 c73d 1c8e 58be
00000120: 58ff cc3b e9f1 6f3e 1007 31be 640a ff3d
00000130: f72c cdbb ef17 69be 06bb 80be 7eb4 503d
00000140: 8de2 6ebe 9497 30be 5e1c 353e 5a5b 673e
00000150: 0f25 d83d 793d 533d 845c 9abd f2a4 4b3e
00000160: 85e9 033e eac7 093e 2fd2 f1b8 73a8 7c3e
00000170: 6389 0e3e a8fa 3e3e 4fa5 363e 361f d03c
00000180: 57fa e53d 99b2 0e3e 5033 403e 9f99 2dbe
00000190: ae24 5a3e c57b 89bd e238 233e 26d4 143e
000001a0: 88d1 3d3e bed8 7fbe a09f 8bbd 6f87 2fbe
000001b0: dfe9 a4bd 26c8 4c3e d7ec 49bd 7574 69bd
000001c0: 7d1e 6e3e 8d3f 5abc c86b 3dbd f5e0 ffbd
000001d0: b37e 7fbe 9a7a c03d 13bc 35be 471f 473e
000001e0: d01d 933d 973e 843e 3112 13be 12be 5fbe
000001f0: 6d6d 1d3e d3ad c63d f423 1fbe eb39 25be
00000200: 0cd7 b93d 6525 45bd 0e58 203e e368 70bc
00000210: f5d0 7a3e 3f05 f2bc 4fb7 b6bd f9f8 5bbe
00000220: d99d f83c 8888 80bd 711e 02be 499e 45be
00000230: dccb 03be 3a77 76bd b908 8bbd aaca ed3d
00000240: 8a89 3b3e 22c4 55bd 4a51 1f3e 0227 3bbe
00000250: 8b77 773e ba9e 4b3e 15e2 97bd 6746 9b3d
00000260: c4a8 a4bd 8ca4 c93c 6a99 1f3e d91e 523d
00000270: 65b3 79be 5bdd 393e d8bd 083e 655e 873d
00000280: e88e 363e 0a67 38be 0935 bdbd c00c 243e
00000290: 2a57 fe3d d713 30bd 59a8 4bbe 0610 d7bd
000002a0: ac35 b13d 76ab 68be ba3e 2c3e 806d 893e
000002b0: 050d 9dbc 17fb 6e3e d6cc 823d dd12 4a3e
000002c0: c386 34be 42c3 80be 6901 9e3d e56f 253e
000002d0: 8c07 0c3e 9984 bb3d 6d01 5a3d 2923 26be
000002e0: 5000 293e 9ec9 15be e866 b83b 9a18 30bd
000002f0: e6f7 d13d f3ac febd c286 16be 9985 103d
00000300: 726f a73c 8e89 66be 6bca 63bc b38e 7e3e
00000310: ea82 173e ac91 57be 4838 e63d 4f81 3f3e
00000320: 7906 96bb ed04 37be 2ec6 1e3e 6f26 44be
00000330: 3696 5b3e 1df7 29be 85fc 513e 7fd2 1e3c
00000340: 2d12 133b 281d 56be 3df7 303e ad38 25be
00000350: 9aa5 42bd 50b8 ecbd 8b9d 0b3e 3d55 08be
00000360: 2263 0bbe 2a03 08be 93a4 243e daec 913d
00000370: ad8e 303e 8258 4c3d 6e84 36be 2252 6a3e
00000380: d4f0 503e b03c 213e b7bc 8cbe 27a7 8d3d
00000390: 2b84 3d3e b926 283e 5eaf 6e3e e9c5 f13d
000003a0: bb18 883e 7502 7b3e 4065 603e 7b8c b9bd
000003b0: 1e09 863e 9cfe 7cbe 5108 4d3e 98fe a2bd
000003c0: c29d 6cbe 199d f9bc 5cc1 6dbc 5f1d 993b
000003d0: 9828 64be 46e1 1cbe 21e0 47bd 6c91 6abc
000003e0: 6f6e 2abe f6af 1e3e d86b 12bb 4ecd 003e
000003f0: 05a1 eebd 5f1f 39be 4534 99bd e207 2d3e

layers.0.bias f4 [64]
0.15256497 0.20523329 0.26929158 -0.033844233 0.03637807 0.1425263 0.056687236 0.014883793
0.048399698 0.17181577 0.15200548 0.14243224 0.10065409 -0.17880389 0.039934598 -0.15287802
-0.2032547 0.193672 -0.1494786 0.06770417 0.19020836 -0.17116149 -0.1300294 -0.16113648
0.07581625 -0.014068849 0.13931826 -0.07380737 0.14318635 -0.18082336 0.009141475 0.24250597
0.10530637 -0.24076486 0.080736816 -0.05102728 0.061977625 -0.013773244 -0.2656559 -0.13505448
-0.24715137 -0.040041406 -0.16294245 0.20920347 -0.26985538 0.009622731 -0.12551534 -0.18429081
0.18285953 -0.04921222 0.2623238 0.118644856 -0.107329026 -0.01713299 -0.20489533 0.22348854
-0.26046896 0.23841065 -0.05552359 -0.1015162 -0.0356921 -0.14885616 0.049653433 0.1708833
00000000: fe39 1c3e ad28 523e 96e0 893e 40a0 0abd
00000010: 2c01 153d 6af2 113e e030 683d 27db 733c
00000020: c33e 463d 79f0 2f3e 53a7 1b3e c2d9 113e
00000030: bb23 ce3d 5e18 37be 7692 233d 0e8c 1cbe
00000040: 0022 50be f451 463e eb10 19be 7ca8 8a3d
00000050: fbc5 423e f544 2fbe 6d26 05be f600 25be
00000060: 8d45 9b3d 0881 66bc 72a9 0e3e 5228 97bd
00000070: 719f 123e c229 39be 20c6 153c 7c53 783e
00000080: deaa d73d 108b 76be 5859 a53d fb01 51bd
00000090: 40dc 7d3d 2ca9 61bc 0d04 88be b94b 0abe
000000a0: 4015 7dbe 7502 24bd 63da 26be 6f39 563e
000000b0: 7c2a 8abe a9a8 1d3c 1887 00be bbb6 3cbe
000000c0: 873f 3b3e c192 49bd 4e4f 863e 13fc f23d
000000d0: 52cf dbbd 7c5a 8cbc 15d0 51be 2eda 643e
000000e0: 305c 85be ec21 743e b46c 63bd bae7 cfbd
000000f0: e131 12bd c06d 18be 6661 4b3d 08fc 2e3e

layers.3.weight f4 [32, 64]
0.0005751153 0.037313946 0.0926788 0.11588966 -0.03412629 0.063132204 0.07817769 -0.11824085
0.12928492 0.028079044 -0.05488665 0.08674583 0.08883149 0.15348837 0.07548014 -0.09036911
0.07567591 0.047283716 -0.08046667 -0.08104604 -0.08548594 -0.05531929 -0.023939569 -0.1506606
-0.028857604 0.13566937 0.00304132 -0.09973024 0.062198967 -0.12622611 -0.03644275 0.108538635
-0.110234566 0.0036806185 0.0945864 -0.05448184 -0.09083412 -0.08924928 0.07217735 -0.024406467
-0.03173531 -0.0054502264 0.10907868 -0.0777622 -0.1054326 0.08819734 -0.12981528 -0.059552673
0.10538008 0.05124655 -0.09594192 -0.08542828 0.09772239 -0.091087624 0.035262436 -0.06360254
0.030116467 -0.06066121 -0.051011268 -0.09526627 0.06914562 0.035958175 0.05085544 0.078984134
-0.05044986 -0.01836553 0.005663071 0.122953184 0.09416451 0.07911333 -0.088160954 0.02867009
-0.11536914 0.02285989 0.028100222 -0.012060001 -0.069688 0.10920339 -0.096785516 -0.013963799
0.0939534 0.0031016495 -0.080178216 -0.023129672 0.07180726 0.028400004 -0.07182489 -0.01425489
0.039988678 0.0146884415 0.08506416 0.012783133 -0.04904344 0.022872014 -0.042512182 -0.07691537
-0.012681357 0.11316049 0.045461323 -0.009371337 0.07737627 -0.06746359 -0.07881143 -0.13912548
-0.10747001 -0.043343674 -0.03160079 -0.03090382 -0.030362528 -0.11263433 0.06306376 0.09403439
-0.13145095 -0.0551743 -0.081971355 0.12217667 0.056165744 0.0036648207 0.027090117 -0.01827433
0.049261894 0.0645542 -0.008327652 -0.044440433 0.06988093 -0.0044924356 -0.05129394 -0.046134636
0.1048975 0.008531292 -0.103349715 -0.1064443 -0.09021773 0.055063248 -0.15263517 0.04653336
-0.023515327 -0.13075086 0.08181672 0.0013514842 0.031108946 0.07241676 0.0022611376 0.041950695
0.09331936 0.009765163 0.10435565 -0.046116747 -0.12411133 0.041176464 0.11221619 -0.10956848
0.104441024 0.05409226 -0.07463558 0.07284994 -0.023025166 0.0821445 -0.09141561 0.023399938
-0.102786854 -0.092543945 -0.15494382 0.06220348 0.028482419 -0.023295132 0.09293006 -0.101710305
-0.12023281 0.007255855 0.007292018 -0.04504908 -0.112381786 -0.052514546 0.061712913 -0.06929593
-0.016598139 0.07680549 -0.0054062754 -0.09233659 -0.10752515 -0.004584476 0.07184898 -0.09986447
-0.09135382 0.106318206 0.10018665 0.022201221 0.05843458 0.07823986 0.0020999545 -0.0038091636
-0.098061875 0.10670496 0.05275378 0.013260433 0.083315454 0.0112775 -0.036113475 -0.07037866
-0.07995717 0.13018192 -0.04108591 0.07425097 -0.111689344 -0.10372744 0.044269044 -0.10891672
0.013389074 0.04408871 0.00632249 -0.0020801956 0.0489743 -0.07438905 0.11408724 0.123496294
-0.090262674 0.11148587 0.09373818 0.046116076 0.12167299 0.06294817 -0.0070715104 -0.04963239
-0.116653435 -0.13693537 -0.09944869 0.11507479 0.09734576 -0.04380529 0.042796094 0.11574198
-0.060380824 -0.08632798 0.046415135 -0.04764536 0.066175275 0.123629265 0.039816953 0.009151308
0.13242868 -0.06512611 0.07469361 0.012727026 -0.033439323 -0.0338849 -0.035072267 -0.0038700218
-0.012212959 0.008506723 -0.010474435 -0.08561133 0.10025246 0.10040578 -0.07315788 0.081594124
00000000: 56c3 163a 82d6 183d 62ce bd3d 8f57 ed3d
00000010: 02c8 0bbd 754b 813d a01b a03d 4228 f2bd
00000020: 4463 043e 0606 e63c d3d0 60bd cca7 b13d
00000030: 49ed b53d 0e2c 1d3e 5595 9a3d 7113 b9bd
00000040: f9fb 9a3d 92ac 413d b6cb a4bd 77fb a5bd
00000050: 4113 afbd 7b96 62bd ea1c c4bc c646 1abe
00000060: c866 ecbc e9ec 0a3e e250 473b 5e3f ccbd
00000070: 58c4 7e3d 6b41 01be fe44 15bd 8149 de3d
00000080: a9c2 e1bd 8836 713b 84b6 c13d 5a28 5fbd
00000090: 3d07 babd 54c8 b6bd b8d1 933d 12f0 c7bc
000000a0: e2fc 01bd d097 b2bb a564 df3d ca41 9fbd
000000b0: 0ced d7bd cfa0 b43d 4cee 04be 81ed 73bd
000000c0: 83d1 d73d e7e7 513d 337d c4bd 06f5 aebd
000000d0: ad22 c83d 268c babd 586f 103d 0c42 82bd
000000e0: cfb6 f63c e477 78bd 31f1 50bd f61a c3bd
000000f0: 389c 8d3d e148 133d cb4d 503d 6fc2 a13d
00000100: 83a4 4ebd 4f73 96bc 4891 b93b e1ce fb3d
00000110: 53d9 c03d 2b06 a23d bb8d b4bd 89dd ea3c
00000120: a846 ecbd aa44 bb3c 7032 e63c 4f97 45bc
00000130: 95b8 8ebd 07a6 df3d 7c37 c6bd 6bc8 64bc
00000140: a46a c03d 0b45 4b3b 7a34 a4bd 707a bdbc
00000150: af0f 933d 20a7 e83c ee18 93bd 588d 69bc
00000160: 2bcb 233d caa7 703c 1e36 ae3d 5970 513c
00000170: c6e1 48bd 175e bb3c 4121 2ebd ce85 9dbd
00000180: 77c5 4fbc b0c0 e73d a735 3a3d 3c8a 19bc
00000190: 7377 9e3d 5a2a 8abd e367 a1bd e976 0ebe
000001a0: 3d19 dcbd 2389 31bd d46f 01bd 022a fdbc
000001b0: d6ba f8bc d4ac e6bd 9327 813d 1a95 c03d
000001c0: 149b 06be 72fe 61bd 99e0 a7bd c337 fa3d
000001d0: 0d0e 663d 7d2d 703b 18ec dd3c 0cb4 95bc
000001e0: d7c6 493d fe34 843d b470 08bc 2c07 36bd
000001f0: bc1d 8f3d 4835 93bb 9819 52bd acf7 3cbd
00000200: 80d4 d63d d5c6 0b3c 04a9 d3bd 78ff d9bd
00000210: 13c4 b8bd 008a 613d 654c 1cbe c499 3e3d
00000220: 37a3 c0bc 8ee3 05be 868f a73d 4924 b13a
00000230: 30d8 fe3c 3d4f 943d 982f 143b 7ed4 2b3d
00000240: 381e bf3d 10fe 1f3c 6ab8 d53d eae4 3cbd
00000250: 152e febd a7a8 283d 9ad1 e53d 7065 e0bd
00000260: 2de5 d53d d88f 5d3d 8ada 98bd 5932 953d
00000270: 469f bcbc 603b a83d 1b38 bbbd 3ab1 bf3c
00000280: ea81 d2bd ae87 bdbd 98a9 1ebe 14c9 7e3d
00000290: f653 e93c 6fd5 bebc 1e52 be3d 7e4d d0bd
000002a0: 9f3c f6bd 86c2 ed3b e1f1 ee3b 6285 38bd
000002b0: 6c28 e6bd 7e19 57bd aec6 7c3d 06eb 8dbd
000002c0: d2f8 87bc 324c 9d3d 2027 b1bb f71a bdbd
000002d0: 2536 dcbd 5f39 96bb 8f25 933d be85 ccbd
000002e0: b617 bbbd 5cbd d93d a92e cd3d 56df b53c
000002f0: 1959 6f3d 383c a03d 649f 093b 29a3 79bb
00000300: aad4 c8bd 2188 da3d 5914 583d 4a42 593c
00000310: 4ba1 aa3d 43c5 383c b9eb 13bd b022 90bd
00000320: 96c0 a3bd 694e 053e b349 28bd e410 983d
00000330: 62bd e4bd 0d6f d4bd 7553 353d bb0f dfbd
00000340: d95d 5b3c 5d96 343d e42c cf3b e453 08bb
00000350: 4799 483d 4959 98bd 92a6 e93d a0eb fc3d
00000360: a3db b8bd b452 e43d cef9 bf3d 36e4 3c3d
00000370: b02f f93d f8ea 803d 21b8 e7bb 554b 4bbd
00000380: ffe7 eebd c938 0cbe c1ab cbbd 55ac eb3d
00000390: 375d c73d 2d6d 33bd f54a 2f3d 220a ed3d
000003a0: e251 77bd b9cc b0bd cc1d 3e3d c827 43bd
000003b0: e786 873d 5731 fd3d 1a17 233d 5eef 153c
000003c0: 629b 073e d760 85bd f7f8 983d 0485 503c
000003d0: acf7 08bd e5ca 0abd f0a7 0fbd 31a0 7dbb
000003e0: dd18 48bc c85f 0b3c f79c 2bbc fe54 afbd
000003f0: 2951 cd3d 8ca1 cd3d ccd3 95bd d21a a73d

layers.3.bias f4 [32]
-0.057429735 0.11284106 0.012281033 0.068905465 0.08480654 0.070578024 -0.090466894 -0.00930949
0.030599503 -0.07744626 0.09543072 0.07116868 0.063629024 -0.09488946 -0.09085069 -0.022027463
0.065050855 0.041612007 0.047607873 0.016606541 -0.10337787 -0.00053106574 0.05294607 -0.1154385
0.09022388 0.03548862 -0.057906896 -0.03974237 0.037926942 0.1485729 0.07777542 -0.08152987
00000000: 713b 6bbd 3719 e73d 6336 493c 4f1e 8d3d
00000010: 0daf ad3d 368b 903d b546 b9bd d586 18bc
00000020: cfab fa3c 259c 9ebd 2e71 c33d e3c0 913d
00000030: ef4f 823d 6855 c2bd ed0f babd f072 b4bc
00000040: 6239 853d 5a71 2a3d 7900 433d 710a 883c
00000050: c7b7 d3bd 3837 0bba fadd 583d 056b ecbd
00000060: 4cc7 b83d 845c 113d c82f 6dbd e5c8 22bd
00000070: 4859 1b3d 7f23 183e b848 9f3d 22f9 a6bd

layers.6.weight f4 [1, 32]
-0.06873129 -0.14228354 0.16347267 -0.033083808 -0.009250067 0.16793421 0.005776463 0.06245315
-0.039550237 -0.035125855 -0.1995743 0.055576343 -0.06375035 -0.02990161 0.11226892 -0.14774676
0.044257935 0.085128784 -0.104861945 -0.06982572 -0.1271616 0.13298911 -0.08536515 0.123268336
0.11052543 0.039334353 -0.04099895 0.14563677 -0.13521731 -0.08677511 -0.021344347 -0.1275043
00000000: fec2 8cbd c7b2 11be 6165 273e e382 07bd
00000010: 988d 17bc f2f6 2b3e 7c48 bd3b e0ce 7f3d
00000020: 6eff 21bd 21e0 0fbd 355d 4cbe 05a4 633d
00000030: 8b8f 82bd 39f4 f4bc 3fed e53d ed4a 17be
00000040: cf47 353d 0058 ae3d dcc1 d6bd c900 8fbd
00000050: a736 02be 4c2e 083e ecd3 aebd 1c74 fc3d
00000060: 285b e23d 0f1d 213d 84ee 27bd ce21 153e
00000070: 6876 0abe 26b7 b1bd 57da aebc 7d90 02be
