model_checkpoints/model_round_4.pt (torch, 15364 bytes, 5 tensors)

layers.0.weight f4 [64, 15]
0.14024518 0.21626413 0.07830222 0.04124223 0.03219596 0.103759244 -0.03835263 0.013302208
0.06528318 -0.09288665 -0.07791027 -0.24048315 0.0057264045 -0.23280069 -0.18868698 0.16500047
0.2517907 0.13472785 0.17588475 0.04547391 0.07181405 0.23671605 -0.10168918 0.18264747
0.0063664103 -0.060266126 -0.15112446 -0.022243334 -0.070530936 0.19239776 -0.23085327 -0.22019559
-0.0288349 -0.13304372 -0.08605421 -0.2224418 -0.025997726 0.047084756 -0.102715865 0.10405508
-0.16004784 0.09117432 0.21585827 -0.005125819 0.23505673 0.2377224 -0.107261345 -0.22542271
0.022796132 0.16982819 -0.15406317 -0.2681063 0.005575638 0.14230692 -0.015033697 -0.033021413
-0.09445433 -0.106275864 -0.18982215 -0.22506335 0.2549422 -0.24058758 -0.20825616 -0.12867197
0.26319623 -0.12850161 -0.1749861 0.16086611 0.13432047 0.22311047 0.101955645 -0.19323172
0.008773733 0.22678033 -0.17600289 0.12649383 0.008895423 -0.23935911 -0.23837514 0.056773115
-0.23142208 -0.17031361 0.19025116 0.22534133 0.11036395 0.043368395 -0.08862789 0.2095919
0.12757094 0.13313346 -0.0033886312 0.23929995 0.14202665 0.18755184 0.16563152 0.026890913
0.11469277 0.13303664 0.1923966 -0.16062164 0.21131583 -0.080277115 0.16544867 0.14242819
0.17240927 -0.24625844 -0.07050933 -0.16781645 -0.06503862 0.19297959 -0.040450335 -0.06388787
0.24420814 -0.0070844935 -0.042072166 -0.11702011 -0.24480078 0.095867805 -0.19007944 0.19158916
0.071094766 0.2546054 -0.14813529 -0.22605427 0.15628849 0.090374045 -0.15471935 -0.16053312
0.09954614 -0.043806504 0.16577198 -0.02247121 0.23514447 -0.028347885 -0.08661579 -0.2235297
0.03238776 -0.051536504 -0.13184784 -0.20196088 -0.11811265 -0.06337891 -0.07124223 0.11730981
0.18483251 -0.05634196 0.16671748 -0.18773444 0.24185637 0.19192666 -0.068051875 0.08434846
-0.08558205 0.022448672 0.16406104 0.049469735 -0.24614914 0.18425818 0.1374321 0.07487057
0.16983551 -0.18358727 -0.09097087 0.16397393 0.13227937 -0.050900515 -0.17707802 -0.098654784
0.083097525 -0.2154069 0.15713945 0.2651304 -0.029059827 0.22951946 0.07142716 0.19208783
-0.1735229 -0.25846913 0.07682924 0.15335125 0.13392197 0.093950376 0.049146958 -0.16353188
0.15311986 -0.14400241 0.0017373258 -0.036322664 0.11177742 -0.12057921 -0.13660674 0.02478601
0.010229902 -0.22769141 -0.002604486 0.2603079 0.14970957 -0.21407044 0.11500148 0.18135948
-0.0035697068 -0.16479881 0.13708436 -0.18499626 0.2069342 -0.15910828 0.20251314 0.011328717
0.017408477 -0.19402613 0.18009073 -0.16419195 -0.05408513 -0.118296735 0.14098974 -0.12164153
-0.14333823 -0.13876311 0.14979628 0.074612334 0.17126094 0.048827887 -0.17652869 0.22252649
0.20388101 0.1441914 -0.2575311 0.05749211 0.19963913 0.16819529 0.23047417 0.12552711
0.25220132 0.24056393 0.21401696 -0.08959875 0.2643507 -0.23637544 0.20120826 -0.08149459
-0.22858548 -0.032281406 -0.016582599 0.009198329 -0.2196536 -0.12828474 -0.044120047 -0.022894755
-0.1667022 0.15663794 -0.012807687 0.13220456 -0.11161003 -0.19381073 -0.06997286 0.16643785
00000000: 6f9c 0f3e 5874 5d3e ea5c a03d 9ded 283d
00000010: e9df 033d ba7f d43d a617 1dbd 81f1 593c
00000020: 30b3 853d 5b3b bebd 6b8f 9fbd 3741 76be
00000030: 90a4 bb3b 4e63 6ebe 2937 41be e2f5 283e
00000040: b6ea 803e 19f6 093e 221b 343e da42 3a3d
00000050: 3f13 933d b165 723e 6b42 d0bd f007 3b3e
00000060: 529d d03b 9dd9 76bd 5fc0 1abe a737 b6bc
00000070: 8672 90bd eb03 453e cd64 6cbe f47a 61be
00000080: 2b37 ecbc 9d3c 08be 313d b0bd c9c7 63be
00000090: 2ff9 d4bc f2db 403d b25c d2bd d41a d53d
000000a0: 95e3 23be 9ab9 ba3d f309 5d3e 7cf6 a7bb
000000b0: b6b2 703e 806d 733e d6ab dbbd 36d5 66be
000000c0: f4be ba3c 71e7 2d3e bcc2 1dbe 3b45 89be
000000d0: d7b3 b63b e8b8 113e e54f 76bc 7641 07bd
000000e0: 4671 c1bd 29a7 d9bd bd60 42be 0277 66be
000000f0: c987 823e 975c 76be 1a41 55be 96c2 03be
00000100: a8c1 863e ed95 03be 8e2f 33be 16ba 243e
00000110: 4e8b 093e 1277 643e 1fce d03d 89de 45be
00000120: b4bf 0f3c 1a39 683e 1a3a 34be 9987 013e
00000130: 1cbe 113c 8e1a 75be 9d18 74be ed8a 683d
00000140: e9f9 6cbe b166 2ebe 33d1 423e e1bf 663e
00000150: 7f06 e23d 0fa3 313d 8a82 b5bd 429f 563e
00000160: f5a1 023e 2354 083e cc13 5ebb 0c0b 753e
00000170: 6f6f 113e 970d 403e 4f9b 293e 554a dc3c
00000180: 0be4 ea3d c23a 083e 9d03 453e 007a 24be
00000190: 2d63 583e 5468 a4bd 606b 293e b2d8 113e
000001a0: 0e8c 303e 2c2b 7cbe 3267 90bd 13d8 2bbe
000001b0: f832 85bd 719c 453e 40af 25bd a5d7 82bd
000001c0: b311 7a3e 0a25 e8bb dd53 2cbd 3da8 efbd
000001d0: 0ead 7abe 5756 c43d 2fa4 42be f32f 443e
000001e0: 229a 913d a45b 823e c7b0 17be c57a 67be
000001f0: 170a 203e 0716 b93d c06e 1ebe cb62 24be
00000200: d9de cb3d 736e 33bd 21c0 293e 8b15 b8bc
00000210: b6c9 703e d339 e8bc 9f63 b1bd f8e4 64be
00000220: 07a9 043d f117 53bd 1f03 07be d5ce 4ebe
00000230: 0ce5 f1bd cdcc 81bd 72e7 91bd 2040 f03d
00000240: bc44 3d3e d4c6 66bd fdb7 2a3e 753d 40be
00000250: 32a9 773e 6c88 443e c85e 8bbd e3be ac3d
00000260: a445 afbd 47e6 b73c 9eff 273e c7a0 4a3d
00000270: 850e 7cbe 2dae 3c3e 00bb 0c3e be55 993d
00000280: 5ce9 2d3e 4dfe 3bbe ef4e babd c8e8 273e
00000290: 3e74 073e 0f7d 50bd f153 35be 850b cabd
000002a0: 092f aa3d a093 5cbe 2ae9 203e 2cbf 873e
000002b0: e00e eebc 2607 6b3e 6748 923d acb2 443e
000002c0: fdaf 31be 1156 84be a658 9d3d 1c08 1d3e
000002d0: d722 093e 0e69 c03d 524e 493d e774 27be
000002e0: 74cb 1c3e 5e75 13be fbb6 e33a 13c7 14bd
000002f0: 8feb e43d 3cf2 f6bd a3e2 0bbe 080c cb3c
00000300: 529b 273c f027 69be 06b0 2abb 1447 853e
00000310: 774d 193e 4835 5bbe e585 eb3d 4db6 393e
00000320: bef1 69bb 05c1 28be d85f 0c3e a96f 3dbe
00000330: 8fe6 533e 48ed 22be 9b5f 4f3e 159c 393c
00000340: 399c 8e3c c9ae 46be b469 383e ef21 28be
00000350: 5f88 5dbd 8f45 f2bd 9d5f 103e 321f f9bd
00000360: 42c7 12be eb17 0ebe 3264 193e 5ace 983d
00000370: 075f 2f3e c0ff 473d f0c3 34be fcdd 633e
00000380: 2fc6 503e e9a6 133e 1edb 83be d97c 6b3d
00000390: 336e 4c3e 633b 2c3e 6c01 6c3e 2e8a 003e
000003a0: 8820 813e 6456 763e 4327 5b3e 8d7f b7bd
000003b0: fa58 873e 670c 72be 8a09 4e3e a3e6 a6bd
000003c0: 5012 6abe 8239 04bd 3bd8 87bc 97b4 163c
000003d0: e0ec 60be 135d 03be 39b7 34bd c88d bbbc
000003e0: fbb3 2abe b265 203e 55d7 51bc a260 073e
000003f0: cd93 e4bd 5276 46be ee4d 8fbd af6e 2a3e

layers.0.bias f4 [64]
0.14180918 0.2004038 0.26630884 -0.041869678 0.035805825 0.14877711 0.039773293 0.01182887
0.05427307 0.18034475 0.15057407 0.15200849 0.095760025 -0.18245918 0.04687262 -0.15315631
-0.20657314 0.18096188 -0.15178186 0.07182147 0.19489999 -0.16123006 -0.11916773 -0.16848108
0.06626435 -0.008908895 0.14159079 -0.063214734 0.13340753 -0.20180605 0.00481125 0.23995732
0.11629544 -0.241197 0.07124303 -0.059432145 0.06439261 -0.029776009 -0.25940782 -0.13493478
-0.2613436 -0.043978356 -0.16991857 0.21953472 -0.27166364 -0.0061897733 -0.12545608 -0.18862063
0.168173 -0.05109785 0.26824355 0.11961272 -0.100891 -0.012403938 -0.21390104 0.21314599
-0.25911972 0.24731757 -0.04518554 -0.088721395 -0.036731467 -0.14383389 0.05477825 0.18324144
00000000: 6d36 113e a736 4d3e a259 883e 8a7f 2bbd
00000010: 21a9 123d 0759 183e 52e9 223d e0cd 413c
00000020: 704d 5e3d 4bac 383e 1730 1a3e 1da8 1b3e
00000030: d51d c43d 94d6 3abe 81fd 3f3d 02d5 1cbe
00000040: e987 53be 124e 393e b46c 1bbe 2317 933d
00000050: dd93 473e 7e19 25be 360e f4bd 4e86 2cbe
00000060: 9bb5 873d 9df6 11bc 2dfd 103e ba76 81bd
00000070: fc9b 083e 3fa6 4ebe b1a7 9d3b 5fb7 753e
00000080: 4e2c ee3d 59fc 76be dee7 913d 1f6f 73bd
00000090: 46e0 833d d1ec f3bc 1ad1 84be 582c 0abe
000000a0: d4ce 85be a622 34bd 22ff 2dbe b6cd 603e
000000b0: 7f17 8bbe 95d3 cabb 8f77 00be c425 41be
000000c0: 8b35 2c3e fb4b 51bd 3857 893e 84f7 f43d
000000d0: f19f cebd e339 4bbc e008 5bbe f142 5a3e
000000e0: 57ab 84be d140 7d3e 7914 39bd 90b3 b5bd
000000f0: bc73 16bd 3149 13be 295f 603d a5a3 3b3e

layers.3.weight f4 [32, 64]
0.008292256 0.03571771 0.07988898 0.120288044 -0.017702596 0.05247234 0.07048742 -0.13139446
0.124497935 0.021458909 -0.057179622 0.08973836 0.08863631 0.15059987 0.07021212 -0.09228637
0.058059923 0.037081942 -0.091923065 -0.08532326 -0.0922698 -0.051749427 -0.02096077 -0.1466525
-0.023666268 0.13283925 0.008780306 -0.10535802 0.054439742 -0.1081632 -0.0357651 0.113518186
-0.11520613 0.008495116 0.1036063 -0.048793197 -0.093040906 -0.08615596 0.054890633 -0.018571252
-0.025169736 -0.004755513 0.121783905 -0.084775575 -0.10112267 0.08666678 -0.12849139 -0.062142123
0.09809145 0.05430718 -0.09722697 -0.08315099 0.09560933 -0.08433965 0.03726489 -0.0646598
0.031057874 -0.056222416 -0.060506087 -0.09406035 0.070607655 0.041826997 0.053602275 0.08470409
-0.039573304 -0.020229239 0.00729857 0.10901067 0.08291065 0.074826345 -0.09104044 0.024848986
-0.117695674 0.0022597848 0.020837516 -0.013977593 -0.07489663 0.11468189 -0.093109645 -0.017911846
0.08786766 0.009490306 -0.071818344 -0.020370923 0.082534224 0.031265672 -0.066101 -0.008912858
0.030337587 0.021354774 0.072041415 0.013626955 -0.046005618 0.024371587 -0.060675044 -0.068113
-0.005297575 0.11568626 0.042035684 -0.005301397 0.075674556 -0.075495966 -0.07300641 -0.1353228
-0.09338963 -0.040475786 -0.037827738 -0.031177796 -0.031269204 -0.09918852 0.081907116 0.10026257
-0.12833495 -0.0509853 -0.06636858 0.1210147 0.07033178 0.0076142135 0.023647878 -0.019659922
0.043722462 0.06876892 -0.016950151 -0.02381385 0.07693468 0.00111199 -0.051191874 -0.05071271
0.1035215 -0.005590219 -0.100683846 -0.10289927 -0.08532503 0.060312968 -0.16067034 0.031211514
-0.027893232 -0.13753526 0.07998788 0.0007782056 0.03664159 0.06689691 0.012979244 0.042713437
0.101601176 0.008711242 0.11282345 -0.047911678 -0.11626425 0.050230898 0.11648844 -0.111734726
0.08895465 0.053859483 -0.063168034 0.06593487 -0.014489258 0.07774558 -0.08253736 0.031019289
-0.10572432 -0.0980162 -0.15292354 0.05500624 0.024738854 -0.01762179 0.09751479 -0.09479259
-0.10888622 0.0071481527 0.017140826 -0.05113138 -0.116611436 -0.055743482 0.06516605 -0.060327493
-0.027966898 0.071412526 -0.01720417 -0.083797105 -0.1044801 -0.00909658 0.07795779 -0.10334492
-0.08684578 0.10493543 0.09807496 0.01701974 0.067525186 0.07564696 -0.0069306553 -0.018490253
-0.09994598 0.114250496 0.05860764 0.008629607 0.0742992 0.013844478 -0.027864363 -0.07944245
-0.08190127 0.14560223 -0.03760167 0.0835647 -0.11574821 -0.10179187 0.051422045 -0.10899823
0.008231679 0.045638215 -0.00029898432 0.0008835414 0.046887185 -0.078217864 0.111734934 0.11308184
-0.09066483 0.11175194 0.08996843 0.045010377 0.11692962 0.06636917 -0.008739927 -0.047825605
-0.11457223 -0.14127195 -0.09650256 0.10034042 0.08136329 -0.0613383 0.04157481 0.11522617
-0.06607551 -0.09765287 0.051355656 -0.048822846 0.065566614 0.12303032 0.03921163 0.016186986
0.12879117 -0.07403394 0.08253291 0.015264282 -0.03689724 -0.041247904 -0.05296233 -0.006904387
-0.0025918148 0.014922212 -0.00063590036 -0.08173941 0.09970466 0.08815309 -0.08472071 0.09373577
00000000: 3edc 073c bc4c 123d d59c a33d 9459 f63d
00000010: 0905 91bc 3ded 563d b55b 903d 458c 06be
00000020: c6f8 fe3d 98ca af3c 2e35 6abd bfc8 b73d
00000030: f486 b53d da36 1a3e 5fcb 8f3d a300 bdbd
00000040: 3ed0 6d3d 3ce3 173d 2942 bcbd f6bd aebd
00000050: f3f7 bcbd 35f7 53bd ecb5 abbc 132c 16be
00000060: c3df c1bc 0307 083e 46db 0f3c f2c5 d7bd
00000070: 35fc 5e3d ab84 ddbd 6d7e 12bd 397c e83d
00000080: 31f1 ebbd 192f 0b3c 8a2f d43d 60db 47bd
00000090: 3b8c bebd 8972 b0bd 00d5 603d bd22 98bc
000000a0: c330 cebc 22d4 9bbb d769 f93d d19e adbd
000000b0: 6719 cfbd 5a7e b13d 3f93 03be bd88 7ebd
000000c0: 2ce4 c83d 3571 5e3d ef1e c7bd 114b aabd
000000d0: d3ce c33d 44ba acbd 12a3 183d 5b6c 84bd
000000e0: 156d fe3c 7a49 66bd 3bd5 77bd b6a2 c0bd
000000f0: bf9a 903d c952 2b3d 0f8e 5b3d 5779 ad3d
00000100: 9e17 22bd cab7 a5bc d828 ef3b fc40 df3d
00000110: 0fcd a93d 8e3e 993d 6973 babd 1a90 cb3c
00000120: 6e0a f1bd e618 143b 70b3 aa3c 4602 65bc
00000130: 6863 99bd 57de ea3d 45b0 bebd ddbb 92bc
00000140: f6f3 b33d 3a7d 1b3c 7f15 93bd ece0 a6bc
00000150: b407 a93d 6f10 003d f65f 87bd 3c07 12bc
00000160: 8886 f83c 35f0 ae3c 738a 933d 9843 5f3c
00000170: 6370 3cbd eca6 c73c 6586 78bd d47e 8bbd
00000180: 4897 adbb ebec ec3d 9c2d 2c3d 57b7 adbb
00000190: 43fb 9a3d a19d 9abd 6284 95bd 0f92 0abe
000001a0: 1043 bfbd f0c9 25bd 42f1 1abd 9468 ffbc
000001b0: 2314 00bd 5a23 cbbd ebbe a73d 7656 cd3d
000001c0: 3d6a 03be f6d5 50bd 40ec 87bd 8ed6 f73d
000001d0: 1c0a 903d a780 f93b 32b9 c13c d80d a1bc
000001e0: 5316 333d b8d6 8c3d 0bdb 8abc 4315 c3bc
000001f0: ee8f 9d3d 31c0 913a 92ae 51bd 21b8 4fbd
00000200: 1503 d43d 282e b7bb 5533 cebd dabc d2bd
00000210: e4be aebd bb0a 773d c486 24be 4aaf ff3c
00000220: 5980 e4bc 0bd6 0cbe b0d0 a33d 7e00 4c3a
00000230: 7e15 163d 3f01 893d e5a6 543c 49f4 2e3d
00000240: 4714 d03d 99b9 0e3c fb0f e73d 093f 44bd
00000250: f31b eebd eabe 4d3d 7e91 ee3d 2dd5 e4bd
00000260: db2d b63d c39b 5c3d 3e5e 81bd dc08 873d
00000270: 5a64 6dbc 1339 9f3d 5909 a9bd 2a1c fe3c
00000280: fe85 d8bd b8bc c8bd fd97 1cbe 394e 613d
00000290: 23a9 ca3c 925b 90bc d6b5 c73d 9e22 c2bd
000002a0: bdff debd 0d3b ea3b eb6a 8c3c 236f 51bd
000002b0: fad1 eebd 4753 64bd c775 853d f619 77bd
000002c0: d61a e5bc bb40 923d c2ef 8cbc d19d abbd
000002d0: aaf9 d5bd d209 15bc 55a8 9f3d 80a6 d3bd
000002e0: 33dc b1bd 63e8 d63d 86db c83d fb6c 8b3c
000002f0: a54a 8a3d cbec 9a3d 8d1a e3bb df78 97bc
00000300: 7ab0 ccbd 2afc e93d 910e 703d 3263 0d3c
00000310: 2e2a 983d f3d3 623c ce43 e4bc b9b2 a2bd
00000320: dabb a7bd c018 153e 3504 1abd f823 ab3d
00000330: 660d edbd 4278 d0bd ec9f 523d 773a dfbd
00000340: 2ade 063c 23ef 3a3d ffc0 9cb9 769d 673a
00000350: c70c 403d b030 a0bd 49d5 e43d 7497 e73d
00000360: 7bae b9bd 33de e43d 5e41 b83d cd5c 383d
00000370: cc78 ef3d 8fec 873d e931 0fbc c8e4 43bd
00000380: d8a4 eabd 98a9 10be 22a3 c5bd 477f cd3d
00000390: cca1 a63d df3d 7bbd 594a 2a3d b3fb eb3d
000003a0: 9952 87bd 3afe c7bd 4f5a 523d 77fa 47bd
000003b0: ca47 863d 52f7 fb3d 609c 203d 929a 843c
000003c0: d5e1 033e 1b9f 97bd 0407 a93d 0a17 7a3c
000003d0: 8f21 17bd 90f3 28bd 07ef 58bd 323e e2bb
000003e0: 70db 29bb 4b7c 743c 8db2 26ba fe66 a7bd
000003f0: f531 cc3d 9b89 b43d 0d82 adbd 8af8 bf3d

layers.3.bias f4 [32]
-0.05930835 0.10755729 0.01967656 0.065577276 0.09328204 0.07757435 -0.09053487 0.004363595
0.034997456 -0.069266744 0.08928804 0.068222314 0.06481021 -0.09712448 -0.09592268 -0.033722725
0.054970734 0.042752836 0.048944056 0.020051582 -0.11095012 0.008502197 0.053838667 -0.108062655
0.098078184 0.051937636 -0.05993939 -0.04031395 0.036716443 0.14413749 0.076296434 -0.08760291
00000000: 50ed 72bd ff46 dc3d bd30 a13c 614d 863d
00000010: a70a bf3d 4ddf 9e3d 596a b9bd 7dfc 8e3b
00000020: 7e59 0f3d b9db 8dbd a6dc b63d 24b8 8b3d
00000030: 37bb 843d 33e9 c6bd 1c73 c4bd d720 0abd
00000040: fe28 613d 991d 2f3d 9079 483d 3743 a43c
00000050: d139 e3bd cd4c 0b3c ef85 5c3d f44f ddbd
00000060: 37dd c83d 8fbc 543d 0183 75bd 3e20 25bd
00000070: fb63 163d c798 133e 4e41 9c3d 2869 b3bd

layers.6.weight f4 [1, 32]
-0.06917711 -0.13762347 0.15831713 -0.027942892 -0.0038005973 0.15793283 0.013811896 0.07250114
-0.03182545 -0.034972284 -0.19173208 0.050744746 -0.052108917 -0.025832616 0.12472017 -0.14744455
0.033396896 0.096135885 -0.08863974 -0.07037516 -0.11680174 0.13808309 -0.08263475 0.12765668
0.11753972 0.043239787 -0.03250907 0.14854433 -0.13041209 -0.072414026 -0.034888174 -0.13289842
00000000: bbac 8dbd 2bed 0cbe e31d 223e 7ee8 e4bc
00000010: 7113 79bb 25b9 213e 4a4b 623c 7a7b 943d
00000020: 675b 02bd 193f 0fbd 6a55 44be b9d9 4f3d
00000030: 2970 55bd ec9e d3bc 4a6d ff3d b4fb 16be
00000040: 2fcb 083d e4e2 c43d c188 b5bd da20 90bd
00000050: c035 efbd a765 0d3e 683c a9bd 6fb8 023e
00000060: aab8 f03d 341c 313d 3b28 05bd 011c 183e
00000070: bf8a 05be ce4d 94bd e7e6 0ebd 8616 08be
