model_checkpoints/model_round_19.pt (torch, 15374 bytes, 5 tensors)

layers.0.weight f4 [64, 15]
0.024325581 -0.27343497 -0.2694308 0.16914278 -0.13866165 -0.021619339 0.026195746 -0.14353938
0.022179889 -0.17640571 0.08656613 -0.20503268 -0.016020497 0.09240408 -0.17258169 -0.26976478
0.10645335 -0.073644966 0.115615614 0.22755827 0.2136566 -0.08299285 0.18386456 0.19043845
0.11151389 -0.1865566 0.12208321 -0.19918926 -0.012935031 -0.22221099 0.15395518 -0.1586304
0.11953152 0.19444385 0.037063975 0.015988074 0.095153995 -0.25608948 0.2886245 0.09031934
0.08580339 0.33634788 0.2162208 -0.05149042 0.06663639 0.07075949 0.22992334 0.107113846
0.11826112 -0.037193853 0.018687082 0.07724838 -0.061464988 0.104253754 -0.051203143 -0.13946529
0.23249267 0.025427533 0.1971031 -0.031330235 -0.26799542 -0.21403101 -0.25536007 0.08388869
0.089121684 -0.17179634 0.09088283 0.23952918 -0.105034724 0.11027457 0.09392077 -0.055332858
0.12624837 -0.16937254 -0.13553791 -0.22882037 -0.24934323 0.11035133 0.035768818 -0.22826584
0.2772794 0.012257674 -0.24801284 0.18066181 -0.028203122 -0.20989443 0.08787119 0.24444585
-0.06916822 -0.2509001 -0.19607724 -0.2899877 -0.011930264 -0.107948795 0.012400532 0.03641738
-0.10631416 -0.21418992 -0.2153334 0.055453796 -0.15284029 0.05173347 -0.22118354 -0.093108684
-0.010639616 0.1680731 -0.22639807 -0.11226142 -0.17652671 -0.1984963 -0.16728558 0.023933616
-0.23038903 0.1848296 0.141836 0.22018012 -0.12261808 -0.23486193 0.064091094 -0.13579533
-0.17869408 0.07529429 -0.047576983 0.16586676 -0.27661216 -0.22423331 -0.06992805 -0.21349503
0.062159944 0.102107994 0.13151471 0.19141975 0.08714614 0.14712884 -0.056305353 0.030181136
0.23505895 0.17139769 -0.042101715 -0.23986709 0.057628565 0.27902353 -0.24921763 -0.06841669
0.032760676 0.012900495 -0.19410999 0.13435568 -0.14754167 -0.24850963 0.0755915 -0.012279199
0.1980788 0.10556287 0.2515871 -0.0029138005 0.13159922 0.062640026 0.10398693 0.17930312
0.038080074 0.07592884 -0.20057039 -0.14594989 -0.08305695 0.12101336 0.24809629 0.066281244
-0.22942847 -0.11433251 0.14609495 0.14622976 -0.13114864 0.02085079 0.14204751 -0.08851911
-0.19855636 0.019009518 0.18641244 0.088317476 -0.16157149 -0.21723676 0.15053569 0.23978579
0.17574987 0.07607117 -0.14743488 -0.24711645 -0.14439368 0.07934293 -0.3054823 -0.11968242
-0.16540125 -0.0449403 0.14632346 -0.17678815 0.20952186 0.11373012 0.077879906 -0.28244007
0.21330741 -0.10543892 0.22993916 0.10575208 0.1102754 -0.03534955 0.036234394 0.17501129
-0.12752444 0.11111403 -0.24523541 0.06275724 0.05529619 0.059657082 0.14476937 -0.08967778
0.14878695 0.25046432 -0.16692038 -0.28111142 -0.022203544 -0.26096782 0.07313029 -0.22701003
-0.048497647 0.11194238 -0.22686069 0.24265304 -0.044527 -0.09092362 -0.05558018 -0.1768218
0.2126694 0.11518991 -0.012479928 -0.19791399 0.13573496 0.25308716 0.113554314 0.044564307
-0.15635473 0.06440426 0.07130944 0.2017568 -0.122663744 -0.21371125 0.14327697 -0.017848972
-0.14977026 -0.16946569 -0.18985699 0.07788983 -0.15531142 0.21156748 0.21342334 0.14321281
00000000: 7146 c73c abff 8bbe d5f2 89be c433 2d3e
00000010: 52fd 0dbe 0a1b b1bc 7698 d63c fdfb 12be
00000020: 99b2 b53c b3a3 34be 9549 b13d 16f4 51be
00000030: 6b3d 83bc 5a3e bd3d 41b9 30be 9c1e 8abe
00000040: 3704 da3d 2cd3 96bd e1c7 ec3d 0905 693e
00000050: ccc8 5a3e 28f8 a9bd fe46 3c3e 4c02 433e
00000060: 6561 e43d b108 3fbe c306 fa3d 45f8 4bbe
00000070: 74ed 53bc 478b 63be 6da6 1d3e 0270 22be
00000080: f1cc f43d 4a1c 473e 65d0 173d 6cf9 823c
00000090: 19e0 c23d 291e 83be 97c6 933e 59f9 b83d
000000a0: b0b9 af3d ca35 ac3e fc68 5d3e 9ee7 52bd
000000b0: a978 883d 5aea 903d 0671 6b3e 815e db3d
000000c0: e332 f23d 9558 18bd a715 993c 6634 9e3d
000000d0: b6c2 7bbd fe82 d53d 63ba 51bd fdcf 0ebe
000000e0: 8f12 6e3e 674d d03c 65d5 493e 2254 00bd
000000f0: b236 89be f22a 5bbe 8ebe 82be d5cd ab3d
00000100: 6e85 b63d 61eb 2fbe c720 ba3d 2347 753e
00000110: 721c d7bd a2d7 e13d 8859 c03d b5a4 62bd
00000120: 4147 013e ff6f 2dbe 73ca 0abe e34f 6abe
00000130: d553 7fbe e1ff e13d 5382 123d 85be 69be
00000140: 91f7 8d3e 69d4 483c 14f7 7dbe 69ff 383e
00000150: 3c0a e7bc 91ee 56be cff5 b33d 0350 7a3e
00000160: 11a8 8dbd fa75 80be 79c8 48be 4579 94be
00000170: 2777 43bc 4214 ddbd 9a2b 4b3c 642a 153d
00000180: 3dbb d9bd 9a54 5bbe 5c80 5cbe 8523 633d
00000190: 2a82 1cbe 7ae6 533d f07d 62be c4af bebd
000001a0: c951 2ebc 5b1b 2c3e e5d4 67be 51e9 e5bd
000001b0: 6bc3 34be 9d42 4bbe e94c 2bbe 6e10 c43c
000001c0: 1aeb 6bbe f843 3d3e 753d 113e e676 613e
000001d0: 301f fbbd a57f 70be 3142 833d ee0d 0bbe
000001e0: 95fb 36be e533 9a3d 15e0 42bd fad8 293e
000001f0: 1ca0 8dbe 6b9d 65be 7036 8fbd 719e 5abe
00000200: 6d9b 7e3d ff1d d13d cbab 063e 8a03 443e
00000210: ad79 b23d f1a8 163e 71a0 66bd 6e3e f73c
00000220: 4bb3 703e e082 2f3e d972 2cbd b89f 75be
00000230: ee0b 6c3d 2cdc 8e3e e832 7fbe 0d1e 8cbd
00000240: 0f30 063d 995c 533c c5c4 46be 8994 093e
00000250: 2a15 17be 4f79 7ebe b7cf 9a3d b22e 49bc
00000260: 2bd5 4a3e 5931 d83d 06d0 803e 76f5 3ebb
00000270: f2c1 063e 6a49 803d 19f7 d43d 3d9b 373e
00000280: daf9 1b3d 9480 9b3d 5362 4dbe e373 15be
00000290: c319 aabd dad5 f73d f40c 7e3e 76be 873d
000002a0: 4cef 6abe 2a27 eabd ea99 153e 41bd 153e
000002b0: d44b 06be 47cf aa3c e774 113e 8249 b5bd
000002c0: 5c52 4bbe d9b9 9b3c e7e2 3e3e cbdf b43d
000002d0: ff72 25be 5073 5ebe 0726 1a3e 688a 753e
000002e0: c6f7 333e 34cb 9b3d 2bf9 16be 180c 7dbe
000002f0: f0db 13be 8c7e a23d 2d68 9cbe 0e1c f5bd
00000300: f25e 29be 5213 38bd d1d5 153e f407 35be
00000310: e68c 563e 56eb e83d 807f 9f3d fc9b 90be
00000320: 426d 5a3e 5cf0 d7bd 2c75 6b3e 8c94 d83d
00000330: 12d8 e13d b1ca 10bd 846a 143d 2936 333e
00000340: c495 02be c18f e33d fe1e 7bbe de86 803d
00000350: 427e 623d fc5a 743d 6c3e 143e fca8 b7bd
00000360: 9b5b 183e dc3c 803e 2ded 2abe d6ed 8fbe
00000370: 35e4 b5bc 939d 85be 55c5 953d 5175 68be
00000380: 78a5 46bd 0c42 e53d 2b4e 68be 0a7a 783e
00000390: f261 36bd 2a36 babd 0ba8 63bd c610 35be
000003a0: 02c6 593e b0e8 eb3d 9d78 4cbc f7a9 4abe
000003b0: 1bfe 0a3e a494 813e 2a8f e83d 1089 363d
000003c0: 741b 20be 61e6 833d af0a 923d 5699 4e3e
000003d0: 2137 fbbd 1fd7 5abe 33b7 123e 0238 92bc
000003e0: 605d 19be 6a88 2dbe df69 42be b484 9f3d
000003f0: f509 1fbe 25a5 583e a68b 5a3e 61a6 123e

layers.0.bias f4 [64]
-0.10387226 0.1166629 -0.1224365 0.0617722 -0.06233388 -0.27083847 -0.029798781 -0.059690643
0.31501547 0.24018131 -0.28128558 0.03424045 0.014305281 -0.08321111 0.1883397 0.105918065
0.0067049353 0.050965894 -0.058809254 -0.14908937 -0.09018409 0.05329708 0.15986417 0.12739736
-0.22956343 0.17190056 0.21992683 -0.2604007 -0.0503933 0.00990804 0.03978423 -0.053352848
-0.18699016 0.015605041 -0.20025675 0.086296655 0.124482974 -0.016170952 -0.046035297 -0.20462506
-0.20271678 0.22925496 -0.09339446 -0.05238154 0.1027029 -0.15915543 -0.22527474 -0.015028497
-0.07939638 0.11450834 0.10234735 0.06858099 0.15753034 0.039218236 0.2253049 -0.040618446
-0.24059501 -0.034284025 0.06723158 0.008780635 -0.11410442 0.23690341 -0.039215606 0.180598
00000000: fbba d4bd f5ec ee3d fdbf fabd d904 7d3d
00000010: d051 7fbd 57ab 8abe 931c f4bc 2d7e 74bd
00000020: b549 a13e 17f2 753e aa04 90be b73f 0c3d
00000030: b360 6a3c 966a aabd 1fdc 403e 92eb d83d
00000040: 13b5 db3b 9dc1 503d f9e1 70bd e2aa 18be
00000050: 70b2 b8bd 0a4e 5a3d 6fb3 233e 7474 023e
00000060: ad12 6bbe b306 303e 8034 613e 3e53 85be
00000070: 3469 4ebd 5555 223c caf4 223d 8488 5abd
00000080: 597a 3fbe 49ac 7f3c 1b10 4dbe 4dbc b03d
00000090: eef0 fe3d f278 84bc 828f 3cbd 3b89 51be
000000a0: fd94 4fbe d0c1 6a3e 9845 bfbd 078e 56bd
000000b0: e655 d23d a4f9 22be 6cae 66be 163a 76bc
000000c0: 929a a2bd 5983 ea3d 7d9b d13d 3174 8c3d
000000d0: a24f 213e 4da3 203d 54b6 663e 875f 26bd
000000e0: 8a5e 76be 686d 0cbd b6b0 893d a7dc 0f3c
000000f0: 94af e9bd cf96 723e 8ba0 20bd afee 383e

layers.3.weight f4 [32, 64]
-0.05473638 0.015276323 0.04193961 -0.0002478479 -0.033746835 -0.05207092 0.09370368 -0.04009231
-0.0065073464 0.06450179 0.07289238 -0.1811935 -0.057596218 0.008618595 0.1117252 0.101580665
-0.11594643 -0.07919011 0.060138475 0.057676584 -0.018453104 -0.021900289 0.09317111 0.067741685
0.10322616 0.102271296 0.027745994 -0.012399542 0.08647266 -0.077338204 -0.061988242 -0.03477258
-0.07704655 -0.10253221 -0.055408653 -0.12577704 0.06249308 0.10318168 0.13027127 0.0031636278
0.103992574 0.10496432 0.009770546 0.03043735 0.03961418 -0.0048193955 -0.02795615 0.10065202
0.09768797 -0.0052241613 -0.04870677 -0.111599214 -0.10037252 -0.1304377 0.0929746 -0.09592113
-0.12846686 -0.11715305 0.079156026 -0.10047359 -0.057190556 -0.040921926 0.09374346 0.10926776
-0.043638524 -0.0741432 0.0812249 0.05404236 0.11265607 -0.11797901 0.16221353 -0.048828192
0.015206884 -0.03903696 0.120493084 -0.07307473 -0.18463513 -0.00041311135 0.025894333 0.067286745
-0.06332627 0.118431024 0.09479799 -0.035247758 -0.024785377 -0.06039043 -0.028416852 0.1063953
-0.03533263 -0.13237238 -0.05064829 -0.086757325 -0.013705266 -0.08169658 -0.06759326 -0.14369981
0.07811559 0.12980628 -0.02193754 0.054342326 -0.07238266 0.03909037 0.032905884 -0.011890729
0.15220207 -0.1252788 -0.07420544 -0.10364329 -0.03296854 0.035763808 0.1912132 0.048334554
-0.059617925 -0.1364404 0.008653171 -0.07606843 0.077467345 0.008519182 -0.12852654 -0.08896905
-0.020354526 0.13089561 -0.005484516 -0.090732366 -0.08867242 0.047441393 -0.07051055 -0.004529775
0.09083305 -0.00882564 -0.090903275 0.092484474 0.036660142 -0.020943185 0.06951623 -0.10407601
-0.14294808 -0.15805921 0.020893436 0.037674934 0.04202448 -0.013048808 -0.10372274 -0.031016167
-0.07512257 -0.10684611 -0.12370529 0.0029441882 0.11871896 0.07397195 0.11348369 0.040904064
0.0019761613 -0.14564039 0.07158234 0.10895993 -0.022444434 0.016023759 -0.011406366 -0.028019266
0.013807497 -0.06494611 -0.07879735 -0.012373223 -0.061390575 -0.04580199 0.06808322 0.006445491
-0.020579692 -0.08271837 -0.14446303 0.018577961 -0.075530365 0.027298534 -0.12374479 0.026154114
-0.028503597 -0.11543869 0.022742186 0.09122057 0.12717752 0.1301189 -0.11615894 -0.12745245
0.045695405 -0.048515815 0.12588657 -0.11294066 -0.09379912 -0.02105977 0.16822138 -0.053296085
0.14046727 -0.073333874 0.013681549 0.048574943 0.12673171 -0.04023973 0.09332506 0.0041441107
-0.04719235 -0.011319735 -0.075306274 -2.8488212e-05 0.11717683 -0.10473686 0.010125394 -0.039629113
-0.013372969 0.08496534 -0.049921103 -0.120509855 0.039619736 0.025346452 0.09687485 -0.12774816
-0.09483253 0.111941986 -0.103612095 -0.12857217 -0.1399431 -0.0013421575 -0.042355362 0.120064996
0.04124403 -0.046588767 -0.023748942 -0.005825102 0.03370784 -0.09808354 -0.040658846 -0.09929497
-0.053618178 -0.098261505 -0.013504324 0.05642272 0.065403536 -0.028886817 -0.08110848 -0.040669728
0.023823153 -0.041359484 -0.12339398 0.12872323 -0.12023891 -0.09336439 0.101411335 -0.07289214
-0.04906545 -0.09040029 -0.026440615 -0.08751638 0.01852053 -0.013516029 -0.007129862 0.023555601
00000000: 4133 60bd 8b49 7a3c dec8 2b3d 95f1 81b9
00000010: 1f3a 0abd 5148 55bd b7e7 bf3d d637 24bd
00000020: 943b d5bb 8419 843d 9a48 953d ca8a 39be
00000030: 03ea 6bbd 0235 0d3c 2fd0 e43d 8609 d03d
00000040: 5275 edbd 6d2e a2bd c353 763d 483e 6c3d
00000050: f72a 97bc 3c68 b3bc 7fd0 be3d 27bc 8a3d
00000060: 3d68 d33d 9d73 d13d 914b e33c 7327 4bbc
00000070: 9418 b13d 7e63 9ebd 62e7 7dbd b16d 0ebd
00000080: 95ca 9dbd 68fc d1bd 2ff4 62bd b2cb 00be
00000090: bef8 7f3d eb50 d33d d565 053e de54 4f3b
000000a0: 0ffa d43d 89f7 d63d a414 203c c057 f93c
000000b0: 7a42 223d 05ec 9dbb 4c04 e5bc a522 ce3d
000000c0: a110 c83d 712f abbb c080 47bd 218e e4bd
000000d0: 1c90 cdbd 7691 05be 7869 be3d 4c72 c4bd
000000e0: d18c 03be f0ed efbd 8e1c a23d 19c5 cdbd
000000f0: a540 6abd c09d 27bd 92fc bf3d c6c7 df3d
00000100: 4fbe 32bd 64d8 97bd 3e59 a63d 865b 5d3d
00000110: 3ab8 e63d fb9e f1bd 4e1b 263e 1200 48bd
00000120: 4b26 793c 38e5 1fbd 14c5 f63d 34a8 95bd
00000130: fe10 3dbe de96 d8b9 5a20 d43c a2cd 893d
00000140: 34b1 81bd f78b f23d 7325 c23d f45f 10bd
00000150: b40a cbbc f55b 77bd 75ca e8bc c7e5 d93d
00000160: f3b8 10bd a08c 07be 9574 4fbd d3ad b1bd
00000170: 0d8c 60bc 8950 a7bd 566e 8abd 0b26 13be
00000180: 11fb 9f3d f0eb 043e 5bb6 b3bc 0f96 5e3d
00000190: 5c3d 94bd 391d 203d 52c8 063d 55d1 42bc
000001a0: dcda 1b3e 1649 00be 06f9 97bd ef42 d4bd
000001b0: 050a 07bd 127d 123d 65cd 433e 74fa 453d
000001c0: ed31 74bd 08b7 0bbe 08c6 0d3c c4c9 9bbd
000001d0: 33a7 9e3d 0a94 0b3c 769c 03be 6835 b6bd
000001e0: 89be a6bc 8009 063e 74b7 b3bb e4d1 b9bd
000001f0: e399 b5bd e851 423d d667 90bd 826e 94bb
00000200: ae06 ba3d 6b99 10bc 7f2b babd 8068 bd3d
00000210: f228 163d 0b91 abbc 865e 8e3d ce25 d5bd
00000220: fb60 12be 46da 21be b628 ab3c 0851 1a3d
00000230: dc21 2c3d abca 55bc 976c d4bd 9e15 febc
00000240: ddd9 99bd 22d2 dabd 3359 fdbd 48f3 403b
00000250: ed22 f33d 9b7e 973d 236a e83d 058b 273d
00000260: 7c82 013b c122 15be c399 923d 6226 df3d
00000270: 64dd b7bc 4244 833c c4e1 3abc a988 e5bc
00000280: d738 623c 7702 85bd 8160 a1bd 0fb9 4abc
00000290: af74 7bbd de9a 3bbd 376f 8b3d b334 d33b
000002a0: be96 a8bc 4068 a9bd 1eee 13be cf30 983c
000002b0: aaaf 9abd 2da1 df3c e96d fdbd 2741 d63c
000002c0: 6080 e9bc 1f6b ecbd d24d ba3c dad1 ba3d
000002d0: d33a 023e e43d 053e bde4 edbd e582 02be
000002e0: 1b2b 3b3d 85b8 46bd 69e8 003e 6f4d e7bd
000002f0: c119 c0bd 8a85 acbc 3a42 2c3e ff4c 5abd
00000300: a7d6 0f3e 1230 96bd 9328 603c 85f6 463d
00000310: f5c5 013e 6ad2 24bd 3621 bf3d 52cb 873b
00000320: c44c 41bd 6976 39bc 2d3a 9abd f8f9 eeb7
00000330: 68fa ef3d 4780 d6bd fbe4 253c 2352 22bd
00000340: 4c1a 5bbc 4f02 ae3d 127a 4cbd dfcd f6bd
00000350: 4e48 223d 5da3 cf3c 5266 c63d 6ad0 02be
00000360: 8f37 c2bd d741 e53d 9432 d4bd 6ca8 03be
00000370: 3e4d 0fbe 55eb afba d17c 2dbd a3e4 f53d
00000380: 80ef 283d ddd3 3ebd 248d c2bc 7fe0 bebb
00000390: 3b11 0a3d 06e0 c8bd e489 26bd 295b cbbd
000003a0: bc9e 5bbd 543d c9bd 3d41 5dbc 831b 673d
000003b0: 4af2 853d 0ca4 ecbc 341c a6bd 4d95 26bd
000003c0: c628 c33c 9068 29bd fcb5 fcbd 06d0 033e
000003d0: d13f f6bd d435 bfbd bfb0 cf3d 7948 95bd
000003e0: daf8 48bd ca23 b9bd fd99 d8bc ca3b b3bd
000003f0: 5eb8 973c 5672 5dbc 9ea1 e9bb adf7 c03c

layers.3.bias f4 [32]
0.06686852 -0.030137215 -0.011258159 0.064546466 -0.02262682 -0.0016805675 -0.06519813 0.014016421
0.052283313 -0.077319324 0.10887746 -0.09293573 0.027306926 0.10076989 -0.18798794 -0.024737682
0.1260719 -0.13094665 0.0045454865 -0.0017331559 -0.049908627 0.022841595 -0.10042961 0.107533194
0.03823134 0.118327186 0.05700179 0.068969205 0.062088642 -0.022745505 -0.14373198 -0.076979116
00000000: 5df2 883d 52e2 f6bc 2474 38bc f030 843d
00000010: e15b b9bc 7d46 dcba 9986 85bd 21a5 653c
00000020: 0727 563d 9859 9ebd 25fb de3d 1755 bebd
00000030: c6b2 df3c 7260 ce3d e97f 40be aea6 cabc
00000040: fe18 013e e116 06be 4ef2 943b 102b e3ba
00000050: fd6c 4cbd 4c1e bb3c 0aae cdbd 5d3a dc3d
00000060: 7798 1c3d 8655 f23d b57a 693d ba3f 8d3d
00000070: a950 7e3d c854 babc 7a2e 13be 3aa7 9dbd

layers.6.weight f4 [1, 32]
-0.065974176 -0.17544228 0.1587263 0.035329293 -0.106448896 -0.16446738 -0.2114691 -0.0881141
-0.14810282 -0.08754058 -0.028931875 -0.2139573 -0.035013735 -0.10255699 0.1227549 -0.23220012
-0.04103954 0.141628 -0.02206931 -0.15124948 0.0462149 0.0051796827 0.04742174 0.07940883
0.071338184 -0.23660624 -0.16895844 -0.09818902 -0.24025124 -0.15000133 -0.0889552 -0.012554871
00000000: 781d 87bd 24a7 33be 2689 223e 73b5 103d
00000010: e101 dabd 236a 28be 5b8b 58be 2a75 b4bd
00000020: 44a8 17be 7a48 b3bd 8a02 edbc 9f17 5bbe
00000030: 906a 0fbd 6609 d2bd ec66 fb3d dec5 6dbe
00000040: 1419 28bd ee06 113e b3ca b4bc 25e1 1abe
00000050: d64b 3d3d 54ba a93b 4c3d 423d 19a1 a23d
00000060: c119 923d e848 72be 7103 2dbe 5317 c9bd
00000070: 6c04 76be f399 19be 252e b6bd f2b2 4dbc
