model_checkpoints/model_round_28.pt (torch, 15374 bytes, 5 tensors)

layers.0.weight f4 [64, 15]
000000 00 1b ba 3c fc f6 a5 3d bd 2f 8a 3e 22 8d 9c 3d
       0.022717953 0.08103749 0.26989546 0.076441064
000010 76 a3 d4 3c 60 fd cc 3d 36 7b d9 bd 51 31 0e be
       0.02595685 0.10009265 -0.10619204 -0.13886
000020 02 5d ca bd 94 1f 88 3d 9b 53 9e bd 7e 29 89 be
       -0.09881021 0.06646648 -0.0773079 -0.2678947
000030 0e 8c 7b 3e bc 12 15 3e 82 9b 90 3e d2 25 9a 3c
       0.24565145 0.14557928 0.28243643 0.018816862
000040 f4 10 b9 bd 87 38 9e bc 7a 80 42 be 2d 8b c4 be
       -0.09036437 -0.019314064 -0.18994322 -0.38387433
000050 1d 4c 36 3d 96 94 aa 3d a2 1c 8f be fe 8e e6 3d
       0.04450618 0.08329122 -0.27951533 0.11257742
000060 46 e6 34 3e c6 98 bd bd 92 0a 3d be 04 11 bb bd
       0.17665967 -0.09257655 -0.18461064 -0.09134105
000070 21 86 84 3e fc a7 20 bd 46 a1 3f bd ac c9 1f be
       0.25883582 -0.039222702 -0.04678466 -0.15604275
000080 f0 b6 cd 3d 59 1e 6d 3e 22 6d c9 3d b4 0a 57 3e
       0.10044658 0.23156108 0.098352686 0.21000177
000090 6c e1 c6 3d b1 8b c2 bd 2d 7d 7b 3e bc 7a 9d 3d
       0.097109646 -0.094993 0.2455947 0.07689425
0000a0 b9 b9 ba 3d 5b 35 72 be 72 54 15 3d 63 5f 47 3d
       0.09117455 -0.23653166 0.036457486 0.048674952
0000b0 3e cf aa bd b6 8b b0 be fa df 8e 3d c3 56 ee bc
       -0.083403096 -0.3448159 0.06976314 -0.029094106
0000c0 dc aa 60 be 32 22 61 bd 1a 2a d1 3d bd ee e5 bd
       -0.21940178 -0.05496425 0.10213108 -0.11227176
0000d0 ec c5 34 be 38 17 ac 3d 2c 6e 4e be a2 e7 02 3e
       -0.17653626 0.08402866 -0.20159215 0.12783673
0000e0 38 83 fe bd 29 7a 8b 3d e6 01 96 be 84 ce 0e be
       -0.12427372 0.068104096 -0.29298323 -0.13945967
0000f0 1f fb 80 3d 64 a6 56 be eb 08 cc bc be 5d 6b be
       0.062978975 -0.2096191 -0.024906596 -0.22984979
000100 45 77 95 3e 63 b2 6f be 94 1d 15 3e 06 8c f8 bd
       0.29192558 -0.23407893 0.14562064 -0.12136082
000110 0c 03 dc 3d 60 b6 57 3e c6 e6 6d 3e 83 d1 7c 3e
       0.10742769 0.21065664 0.23232564 0.24689297
000120 c5 ce 89 be 28 5a 1d be 50 34 96 3e fe d6 a6 3d
       -0.26915565 -0.15366423 0.29336786 0.08146475
000130 a2 d1 95 bd 1c 21 2b 3e 38 af f2 3d 93 94 f1 3d
       -0.07315375 0.16711849 0.118498266 0.117959164
000140 4e dc a8 3d da 28 4b 3e b8 67 a2 bd 6c 2e 27 3c
       0.08245145 0.19839802 -0.07929939 0.010203939
000150 cc d2 7c 3e fa 06 7d be ce 51 0e bb 50 ce 7b be
       0.24689788 -0.24709693 -0.002171624 -0.2459042
000160 94 9c 33 3e fe d1 45 be ec dc ac bd 53 45 ba be
       0.17540199 -0.19318387 -0.08440575 -0.36381015
000170 b1 9d 21 3e 80 76 07 3e 86 0f 46 3d 6a 28 83 3d
       0.15782811 0.13228798 0.048354648 0.06404193
000180 8e b2 88 be 07 9c f1 bd 95 fe 80 3c e4 0f 8a be
       -0.26698726 -0.11797338 0.015746394 -0.2696525
000190 9b 20 b8 3d e8 e5 a6 3d e8 59 09 3a a8 d7 85 bd
       0.08990594 0.0814932 0.00052395323 -0.06535274
0001a0 9c 08 84 3e 90 f4 5f be 9c f9 b4 b9 29 bc 27 be
       0.25787818 -0.21870637 -0.0003451825 -0.16380371
0001b0 0c 39 1a 3d 43 51 ba be 6f 37 ea 3d 2c fc 2c bd
       0.03765206 -0.36390123 0.11436354 -0.042232677
0001c0 5c 66 e1 bd ce 0f 82 3d cc 4c 23 3d 39 11 83 3e
       -0.110058516 0.06350671 0.03986816 0.25599077
0001d0 de 1f cd bd 3a 1f d8 bd 22 13 fb bc 60 01 08 be
       -0.10015844 -0.10552831 -0.030648772 -0.13281775
0001e0 42 04 ba 3d d8 80 ac be 40 f0 8e be 10 69 57 be
       0.09082843 -0.3369205 -0.2791767 -0.21036172
0001f0 68 9d ae 3d d0 29 92 bd 86 89 34 3e 08 bd 51 3e
       0.085261166 -0.07136881 0.17630586 0.20482266
000200 2e 22 08 bd b6 56 24 3d a4 ae 13 3e 91 5a 19 3e
       -0.03323572 0.040121756 0.14422089 0.14975955
000210 70 03 12 be 60 d9 3d 3e 40 c4 54 be ab dc f6 bb
       -0.14259124 0.18539953 -0.20777988 -0.00753363
000220 bd dd 29 be 1e 6e ab 3e ec fc 5b be 58 ba 5b bc
       -0.16588493 0.3348245 -0.21483201 -0.013411127
000230 e0 50 cc bd 4a 41 bf bd 46 07 fc 3d fa 13 41 3e
       -0.09976363 -0.09338625 0.12306075 0.18855277
000240 f2 91 0e bd 4e da 81 be 0c 11 9e bd 75 0b 6c 3d
       -0.034807153 -0.25361866 -0.07718095 0.057628114
000250 0f d9 dd bd 5c cc 69 be e6 14 f4 bd d8 3d 64 be
       -0.10832416 -0.22831863 -0.119180486 -0.22289217
000260 f8 5e c4 bd 3e 85 95 be a4 af 9f 3d dc 1a 7a 3a
       -0.09588426 -0.29203218 0.07797173 0.00095407455
000270 6e b7 68 be 72 fc 85 be 48 52 bd bd 0e d4 8e bd
       -0.22726223 -0.26169163 -0.092442095 -0.0697404
000280 32 26 12 be 39 4c 0c 3e ec 9f 16 3e ea bb 02 3e
       -0.14272383 0.13700952 0.14709443 0.12766996
000290 62 c4 59 3e 70 4d 9e be c6 e3 0b 3e f4 b0 0f bc
       0.2126632 -0.30918455 0.13661107 -0.008770216
0002a0 03 65 03 be d6 8c 20 be 1d 0d e8 3d e0 9e bb bb
       -0.12831502 -0.15678725 0.11330626 -0.0057257265
0002b0 ee 88 ba 3d f7 03 a1 bd 8f 5b 82 3e 32 ff a2 3d
       0.091081485 -0.07862084 0.2546048 0.07958831
0002c0 cf 87 a2 3d 7a a1 69 bd 96 f8 80 bd 81 47 66 be
       0.0793606 -0.05703876 -0.06297414 -0.22488214
0002d0 99 96 3f be 40 ab 37 3d 9e d9 97 3e ba de 1a be
       -0.18709792 0.04484105 0.29658216 -0.15124026
0002e0 b3 25 eb 3b ea d7 f3 3a cc 03 59 be 1e a7 d8 bc
       0.007176125 0.0018603776 -0.21192855 -0.026446875
0002f0 64 19 1c bd 44 eb 3d bd fc 35 a7 bd 0c bb 55 be
       -0.038110152 -0.046366945 -0.081645936 -0.20872134
000300 09 49 40 bd 95 97 11 3e 7a 10 e1 3d fc dd 24 3d
       -0.04694465 0.1421798 0.10989471 0.040250763
000310 c5 d4 8a 3e 91 d1 01 3e 95 40 a6 bc 6a ab f8 ba
       0.27115455 0.126776 -0.020294467 -0.0018971984
000320 60 4e cc 3d 0f e1 ce bd ff 72 54 bc 0c 28 84 3e
       0.09975886 -0.1010152 -0.01296687 0.25811803
000330 da a7 69 bc 84 c0 01 3e b0 a3 9a 3d 18 55 95 3d
       -0.01426121 0.12671095 0.07550752 0.07291621
000340 e6 9c 86 bd b8 bc b4 3c 88 57 fd bd c5 6d a8 3e
       -0.06572895 0.022062644 -0.12370211 0.32896248
000350 8a 78 d9 bd c1 50 37 3e 17 fa 9b 3d de f5 92 be
       -0.10618694 0.17901899 0.0761606 -0.28703207
000360 48 8e 0a 3e bf dc 23 3d f3 0b 85 bd 10 cf da bd
       0.13530838 0.04000544 -0.0649642 -0.10684025
000370 d7 f1 49 3d 9b c2 1f 3e 41 2f 5f bc da ba c4 bd
       0.049302902 0.1560158 -0.013622106 -0.096059516
000380 30 d8 eb 3d 94 2a 93 3d 4c 9f fa bd c2 e6 15 3d
       0.11515844 0.071858555 -0.12237415 0.03659702
000390 b3 10 69 3e 84 9e 6f 3e 28 01 2b 3e b9 e0 bc 3d
       0.22760276 0.23400313 0.1669966 0.0922255
0003a0 6c 9b 96 3d be ed 4f be 6d 97 7b bc 5e 13 b0 be
       0.07353863 -0.20305535 -0.015355927 -0.34389776
0003b0 5c c0 1e 3e 4e 3c 8e 3c 23 ee 5f bc 44 7e cd 3d
       0.15503067 0.01736274 -0.013667616 0.10033849
0003c0 fa 01 89 3e 40 dd 37 be 53 6d 89 be f2 ee 66 be
       0.2675932 -0.17955494 -0.2684122 -0.22552088
0003d0 07 e9 86 be 37 3f 81 bd bc c8 61 be 3f 52 e4 bd
       -0.2634966 -0.063108854 -0.2204923 -0.111485
0003e0 e8 0f bf 3d a6 cc 39 3e ac 07 8f be 68 9b 5d bd
       0.09329206 0.18144473 -0.2793554 -0.054103285
0003f0 0c 33 28 be 99 e4 be bd 84 5b 3e 3d 89 a9 9f bd
       -0.16425723 -0.09320945 0.046473995 -0.07796008

layers.0.bias f4 [64]
000000 d2 50 43 bd 57 28 4d bb 44 6f 9a 3c b7 20 dc bd
       -0.047684498 -0.0031304562 0.018851884 -0.10748427
000010 92 ec 83 be 5c 59 21 be c0 8b 51 3d 02 1e 4a 3e
       -0.25766426 -0.15756744 0.051158667 0.1973801
000020 63 1d d1 bb b4 17 81 3e 5c 62 26 3e b6 5c 54 3d
       -0.006381677 0.25213397 0.16248459 0.05184623
000030 e6 63 12 bc a0 fb 7c 3d c6 7a 89 bd ec f8 58 be
       -0.00893495 0.061763406 -0.0671287 -0.21188706
000040 6f 50 1d 3e 8a f7 ac 3d 40 a7 e2 3d 07 be 3e bd
       0.15362714 0.08445652 0.11067057 -0.046567943
000050 51 96 28 bd 4a 90 8d 3d ba e6 df bd dd 89 ee 3c
       -0.041158978 0.069122866 -0.109326795 0.029118473
000060 1e a3 b9 be fd 2a 2d be bd 0a 9d 3d 34 10 b4 3e
       -0.3625726 -0.1691093 0.07668064 0.35168612
000070 b9 7a 24 be 88 c7 8d 3e 82 b4 be 3d 37 c9 b6 3c
       -0.1606244 0.27691293 0.09311773 0.022312744
000080 a2 69 8c bc 8d 48 b2 bd 05 78 9a 3e 2a ff d0 3d
       -0.017140213 -0.08705244 0.30169693 0.10204919
000090 3a 01 04 bb c1 9f e5 3d 58 d1 e4 3d 00 69 92 bd
       -0.0020142333 0.11212111 0.11172742 -0.071489334
0000a0 35 be ed 3d dc 6c ed bc 8b ff 13 3e fe 97 c1 bd
       0.11608545 -0.028982572 0.1445295 -0.09452818
0000b0 84 c9 2e be a8 1a aa be 84 87 1b 3e 03 3a 2c 3e
       -0.1706906 -0.33223462 0.15188414 0.16819005
0000c0 f1 5e 10 be 2c 14 17 3e c2 d6 d0 bd 19 39 84 3e
       -0.14098717 0.14753789 -0.10197212 0.25824812
0000d0 3f 73 af bc 0a 99 9b bd 8a f7 51 be 8a a9 d6 3d
       -0.021417258 -0.07597549 -0.20504585 0.10481556
0000e0 c5 fd af 3d 65 7c dd 3c 99 09 4b 3e fe ec 17 be
       0.085933246 0.027036855 0.1982788 -0.14836499
0000f0 db a9 94 3e ce 93 c9 3c 0a 43 40 be 1f c5 66 3e
       0.2903584 0.024606612 -0.18775573 0.22536133

layers.3.weight f4 [32, 64]
000000 49 da 3a bd 65 ce fe bb 3c 9c d8 bc 3b 4e 9a bd
       -0.04561833 -0.007776069 -0.026441686 -0.075344525
000010 a4 2f 02 3c 44 a9 90 bd 3a a0 6b 3c 17 3c b3 bd
       0.007945929 -0.07063535 0.014381463 -0.087516956
000020 48 b5 02 bc b3 a2 ff 3c b8 a0 81 3d de a0 18 3c
       -0.007977791 0.03120551 0.06329483 0.0093156975
000030 13 72 56 3d 4d f4 af 3d 2e 1c 2f bd 8a 3f a4 3d
       0.052354883 0.085915186 -0.042751484 0.080199316
000040 60 6e 2f 3d 18 25 9f bd 32 61 2a bd 5e 78 d9 bd
       0.04282987 -0.07770747 -0.0415966 -0.10618661
000050 d6 51 30 3c d3 49 23 3d a3 3f 6c bd da ed 91 bd
       0.010761699 0.039865326 -0.057677876 -0.07125445
000060 58 07 c3 bd 55 d9 54 bd a6 dd 97 3d ce 2a 49 bd
       -0.09522885 -0.051965076 0.07415323 -0.049113087
000070 47 5a cd bd 64 43 bc bb 3e ea f4 bd 14 a4 12 bc
       -0.10026985 -0.0057453383 -0.11958741 -0.008950252
000080 56 0d bc bd dc 4b 94 3d 20 7b aa 3d 3a 82 b2 3a
       -0.09182231 0.072410315 0.083242655 0.0013619133
000090 32 a6 81 3d 0a 71 89 bd 1a 2a 49 bc 00 68 bd bd
       0.06330527 -0.067110136 -0.012278104 -0.09248352
0000a0 e0 f7 09 bc d6 f8 e6 3b 91 57 13 bd fe 37 e7 bd
       -0.008420914 0.0070487065 -0.03597218 -0.112899765
0000b0 41 8b ad bd 2b 55 e9 bd 3f ed 99 bd ce c9 6f bd
       -0.08473826 -0.113931976 -0.07515954 -0.058542065
0000c0 84 54 d1 bd 8f 49 e0 3c 94 9b 28 bd 24 8b 00 be
       -0.10221198 0.027378825 -0.041163996 -0.12553078
0000d0 ce e0 93 bd ca 3b 61 ba 72 d2 aa bd 82 d8 00 be
       -0.072206125 -0.0008591978 -0.083409205 -0.12582591
0000e0 9d ff 07 3c 71 7b 8c bd a1 6f 20 be be 76 b2 3d
       0.008300689 -0.06859482 -0.15667583 0.087140545
0000f0 d2 82 23 bc 8c 59 69 bd 64 05 f9 bd 30 dc 56 3d
       -0.00997992 -0.056970164 -0.12159231 0.05245608
000100 86 ef 03 3e 3c 6b fc bc 62 00 98 bd af 9f bf 3d
       0.1288434 -0.030812852 -0.07421948 0.09356629
000110 88 56 46 3e 2c 3e c2 bc 44 fe c7 bd 77 f4 66 3d
       0.19368947 -0.023711286 -0.09765294 0.056385484
000120 5a 02 9f bd 86 35 92 bd e4 28 d0 bd 08 7e 49 3d
       -0.077641204 -0.07139115 -0.10164049 0.04919246
000130 fe ae b8 3d 79 9b eb 3d 66 11 83 3d 44 67 e6 ba
       0.09017752 0.115042634 0.06399803 -0.0017578383
000140 51 7f 9c 3d b6 40 92 bd 25 df 2a 3d 04 94 0c be
       0.07641471 -0.07141249 0.041716713 -0.13728338
000150 e6 05 0e bd c6 a7 b0 3d 51 43 d5 3d a8 30 36 3b
       -0.034673594 0.0862575 0.1041323 0.0027799997
000160 13 91 6e 3c 16 3d 30 be 34 f6 13 3c 9a d6 17 bd
       0.014560956 -0.17210802 0.009030867 -0.037069894
000170 96 9c 1b be 60 a3 4d 3d 18 9f 01 3d 37 71 b9 3d
       -0.15196452 0.050204635 0.031645864 0.09054797
000180 db ef 81 3d a4 b8 ef bd 50 dc 95 3d 8d 3e fd bd
       0.06344577 -0.11705139 0.07317412 -0.12365446
000190 86 ed 82 bd 76 c4 e5 bd 2a 0b 79 3d e2 ee cd bd
       -0.0639296 -0.112191126 0.060801663 -0.10055329
0001a0 05 65 46 bd 6a 9f d1 bd 6b 23 8f bd 54 7b 32 be
       -0.048436183 -0.10235484 -0.06989177 -0.17429858
0001b0 21 3e ba bc a0 08 e3 3d 0c 7c d7 3d a9 8c 49 3d
       -0.022734703 0.110856295 0.10521707 0.04920641
0001c0 54 c8 16 3e 43 b1 59 3d 11 27 8b bd e7 40 96 bc
       0.14724857 0.053147566 -0.06794561 -0.018341495
0001d0 90 58 09 be 22 d9 a9 bb 83 41 2d be 05 81 a1 bc
       -0.1341269 -0.005183355 -0.16919522 -0.019714842
0001e0 88 a1 13 be 4e 01 61 bb 0c 41 07 bd 31 c0 28 be
       -0.14417088 -0.0034333053 -0.033021018 -0.16479565
0001f0 a0 f0 28 be 66 43 85 3c 09 a0 8f 3d ab 47 0e bd
       -0.16498041 0.01626749 0.07012946 -0.034736317
000200 c7 4b a6 3d 5a 45 12 3d cb 2f 9c bd 72 87 86 3d
       0.08119922 0.03571067 -0.07626303 0.06568803
000210 f8 f1 63 bd c2 da 9d 3d 17 d9 5b 3e a1 aa 89 3d
       -0.05565068 0.0770774 0.21469532 0.06721998
000220 18 8e 8e bc 2e 82 ce bc b4 b7 5d 3e 24 62 31 bd
       -0.01740174 -0.025208559 0.21652108 -0.043306485
000230 7b cf 06 3e be b0 aa bd ee fd 64 bd aa 1a 0b 3e
       0.13165085 -0.08334492 -0.05590623 0.1358439
000240 4e 6f 5c 3c 46 56 00 3e e6 b9 e6 3b fa 6e 76 bc
       0.0134542715 0.1253291 0.007041204 -0.015041107
000250 0e 94 b2 3d 3a b3 d6 3d 4a c2 a2 bd e2 c4 92 3d
       0.087196454 0.104834035 -0.07947214 0.07166459
000260 85 87 db bd 24 a7 25 3e 23 72 66 bc 5b 46 2a bc
       -0.10719208 0.1617704 -0.014065298 -0.010392751
000270 ac 81 27 3d ca d8 78 3d dd 7a a6 bd 8b a6 f3 bd
       0.04089515 0.06075362 -0.08128903 -0.11897
000280 0c a8 c0 3d 61 53 0a 3e 78 6e 17 3c 4e a3 80 bd
       0.094070524 0.13508369 0.009242646 -0.06281148
000290 88 cd 39 bd c8 c9 9d bc c2 c2 c4 3d eb b4 0d 3e
       -0.045362025 -0.019261256 0.096074596 0.13838546
0002a0 94 6d de bd d6 e1 55 3d c4 bc 86 3d a0 80 c8 3c
       -0.10860744 0.052217327 0.06578973 0.024475396
0002b0 4c 1b 97 bc da 08 77 be 3a 25 0f bd 74 29 9c 3d
       -0.018445633 -0.2412447 -0.03494761 0.07625094
0002c0 89 fa 2e be e3 26 3d bd be e7 7f 3e 58 ac a4 3d
       -0.17087759 -0.046179663 0.24990746 0.080406845
0002d0 46 7b d8 bd 62 c2 3e 3d d9 3b 9e bb 49 1c ac 3d
       -0.105703875 0.046572097 -0.0048289117 0.084038325
0002e0 86 a2 f0 bc 0b f9 dd 3c dc 95 0e 3e 47 37 c9 3d
       -0.029374372 0.027096292 0.13924354 0.098249964
0002f0 d8 17 a1 3a 57 88 c4 bd 36 fd fe bc 1c de 23 3d
       0.0012290431 -0.09596317 -0.0311266 0.040006742
000300 ea dd a3 3d 56 21 0e 3e b7 25 dc bd 52 bc cb 3d
       0.08001311 0.13879904 -0.10749381 0.099480286
000310 d7 2c fb bd d2 ef d8 bd be dd 0b 3e 81 09 99 bc
       -0.12264412 -0.10592617 0.13658807 -0.01868129
000320 fc 44 c4 3d 04 19 25 3e 9c f6 8c 3d ec 2b 2c 3d
       0.0958347 0.16122824 0.068829745 0.042034075
000330 c8 a7 a6 bc 28 4a 9e bc ec c1 54 3d 3f 4e 45 3e
       -0.020343676 -0.01932247 0.05194275 0.1926813
000340 63 2d f7 3c de 9d af 3c 1c b2 ae 3d 14 21 4a 3c
       0.03017301 0.021437582 0.085300654 0.012336988
000350 14 6b 44 3d f5 97 20 3d d4 48 30 3d 94 a4 12 3e
       0.04795368 0.039207418 0.043038204 0.14320594
000360 78 d1 26 be dd 2f ef 3c 58 12 ad 3d f8 1d 01 3e
       -0.16290843 0.029197628 0.084507644 0.12609088
000370 26 d7 b1 3d 5b e6 d4 3d e7 b2 17 3c 76 d5 0f be
       0.086836144 0.10395499 0.009258962 -0.14046273
000380 99 4c db 3d 4c aa 8d 3d 50 68 15 bc a0 79 b3 3d
       0.10707969 0.06917247 -0.009119108 0.087634325
000390 84 7f e6 3a 54 e7 34 3d 6c 1d b1 3d 74 46 04 3e
       0.001758561 0.044165924 0.0864819 0.129175
0003a0 c2 f5 84 bd e8 a0 ad bb e0 c5 ac bc 20 b1 bc 3b
       -0.06492187 -0.0052987225 -0.021090448 0.0057584196
0003b0 6c 55 f3 3d ac 77 6b bd c6 df be bd 57 31 2f bc
       0.11881527 -0.057487175 -0.09320025 -0.010692916
0003c0 34 d8 29 be 80 6f 87 3a bc ce 5e 3e 58 0b f3 bb
       -0.16586381 0.0010332912 0.2175855 -0.0074171238
0003d0 2e d7 df 3d 8e 54 13 3d bf b1 6c 3e 1f f7 6e 3e
       0.10929714 0.03596931 0.2311468 0.23336457
0003e0 86 cc 15 3e f6 ff 13 3e 68 92 d9 3d fc 7e 21 3e
       0.14628801 0.1445311 0.10623628 0.15771097
0003f0 9d 0a d8 3d 3a 72 73 3b 2b ff a7 bd e0 0b 9d 3d
       0.10548899 0.0037146942 -0.08202966 0.076682806

layers.3.bias f4 [32]
000000 e8 ab 3d bd 60 7f 1c be 91 b9 08 3e 51 80 39 3e
       -0.04630652 -0.15282965 0.13352038 0.18115355
000010 d0 2c 26 3e 9a 66 57 3e ae 91 fc 3d 70 27 82 3d
       0.16228032 0.21035233 0.12332474 0.06355178
000020 9b 36 3d 3e 5f 52 12 3d 5c de 73 bc 37 24 0e 3e
       0.18477862 0.035723086 -0.014884558 0.13881002
000030 bb 6c 29 3d 12 38 39 bd be 24 8e 3d 82 6b cb 3d
       0.04136346 -0.04521949 0.06940602 0.09932615
000040 60 fe 20 3d 54 5f 51 bd 8f d6 4f 3d 94 e9 58 3d
       0.03930509 -0.051116303 0.05074173 0.052957132
000050 27 d1 dd 3d fd 54 03 bc f0 ca a1 3b 61 80 2f 3d
       0.10830908 -0.008015868 0.004937522 0.04284704
000060 07 49 d5 3d da 65 35 3d 9b 6f 5c bd 16 84 d2 bd
       0.104143195 0.044286586 -0.053817373 -0.102791
000070 a7 1f 48 3e 6d 5f 60 3e 1b 8f 3c 3e fd 75 e9 3d
       0.19543324 0.21911402 0.18413965 0.113994576

layers.6.weight f4 [1, 32]
000000 7e 9a e9 3d 6e f4 35 3e 04 11 10 be 74 75 b9 bd
       0.1140642 0.17769024 -0.14068991 -0.090556055
000010 1a 70 ef bd 8f 7a b3 bd e6 5b 03 be e0 53 36 be
       -0.116913036 -0.087636106 -0.12828025 -0.17805433
000020 5c 22 90 bd 88 0d 25 be 1a 63 82 3e e4 61 b0 bd
       -0.070378035 -0.16118443 0.25466233 -0.08612421
000030 6b b3 58 be b4 71 43 3e 19 37 ef bd e4 25 c5 bd
       -0.21162193 0.19086343 -0.11680431 -0.09626368
000040 5f 09 54 3e 59 b9 a9 3e 75 82 e8 bd 84 2f 12 be
       0.207067 0.33149222 -0.11353008 -0.14275938
000050 0d 61 80 3e 02 e2 a0 3e 30 aa 84 3e 50 13 cd bd
       0.25074044 0.3142243 0.25911093 -0.10013449
000060 e2 e3 7e 3e e0 d9 72 3e ce 0b fa bd 31 f5 62 3e
       0.24891618 0.23715925 -0.12209283 0.22163846
000070 5a 66 d4 bd 70 1c 85 bd 14 6c 91 bd e7 ba 03 be
       -0.103710845 -0.06499565 -0.071006924 -0.12864266
