model_checkpoints/model_round_9.pt (torch, 15364 bytes, 5 tensors)

layers.0.weight f4 [64, 15]
-0.00734113 -0.22693042 -0.27128837 0.1665377 -0.15571253 -0.061333504 0.020347023 -0.14961769
0.0007272011 -0.16108012 0.1147979 -0.19480981 -0.04456198 0.08954728 -0.22601464 -0.28311515
0.11066569 -0.06340541 0.14563462 0.20415577 0.21302393 -0.08296112 0.19075632 0.18518221
0.055390637 -0.17628482 0.18925342 -0.22855678 -0.027640233 -0.20972013 0.17126165 -0.20009364
0.1643151 0.19169618 -0.011143133 0.0070352554 0.07587984 -0.26101276 0.24166834 0.10045543
0.064439684 0.31302595 0.20289728 -0.074526265 0.032112785 0.046374876 0.1797808 0.06759574
0.1528005 -0.014380246 -0.032211717 0.054812565 -0.066852205 0.10905853 -0.060313556 -0.15460825
0.19869311 0.0034692069 0.2257485 -0.028800841 -0.2595526 -0.22411759 -0.2636677 0.052622378
0.07378638 -0.19385128 0.07279329 0.24153359 -0.10677104 0.13074227 0.10117896 -0.04523562
0.1275485 -0.18467702 -0.15595402 -0.23715276 -0.27832475 0.12061551 0.0021215593 -0.20693658
0.26640132 0.014092593 -0.23991477 0.14487402 -0.040487684 -0.23143075 0.055157542 0.23268689
-0.052900363 -0.2137149 -0.15251774 -0.2704048 -0.0247482 -0.102528945 0.015277302 0.027685905
-0.1009346 -0.17900825 -0.2177513 0.06893078 -0.17134467 -0.006552724 -0.19540522 -0.09571875
-0.0034061235 0.17167543 -0.24804282 -0.1276414 -0.19928834 -0.21925238 -0.1733339 0.045616988
-0.20359766 0.20946977 0.18385576 0.19698362 -0.15633088 -0.24860556 0.062239263 -0.12246948
-0.16949695 0.086952955 -0.042477924 0.100992344 -0.24867524 -0.20274566 -0.065932296 -0.24571346
0.033300906 0.11747522 0.12672615 0.19056429 0.077776425 0.14898302 -0.048908908 0.077418886
0.21286143 0.19586515 -0.043564387 -0.21043797 0.0632959 0.24106114 -0.21702112 -0.058894668
0.058559578 0.05252673 -0.18879506 0.11953779 -0.13062915 -0.2130857 0.08197585 -0.022623794
0.17933682 0.061081503 0.24573006 0.017331334 0.12091167 0.060319874 0.08263586 0.19542488
0.0124135325 0.061714794 -0.20618597 -0.13910486 -0.096908264 0.10360483 0.21686257 0.051750083
-0.2402185 -0.10817277 0.16819066 0.119922176 -0.13251686 0.031797525 0.15440263 -0.042671908
-0.21513177 0.021472048 0.15841208 0.09175768 -0.10273886 -0.20364974 0.10312775 0.19908835
0.20234576 0.082510605 -0.1626061 -0.24768712 -0.1387865 0.069418594 -0.28493866 -0.13147934
-0.1661793 -0.09452018 0.1836178 -0.19514702 0.1749536 0.07933881 0.06869958 -0.24897543
0.22455421 -0.086358614 0.23330776 0.14260934 0.098842874 -0.02388289 0.07810726 0.14454778
-0.10616089 0.14257558 -0.25685942 0.07511518 0.07318331 0.070363976 0.15340072 -0.0942426
0.14681987 0.2311703 -0.18765488 -0.23225623 0.0036162694 -0.24291894 0.046369173 -0.20867051
-0.03839248 0.07815428 -0.18679616 0.20840527 -0.063050784 -0.0848857 -0.046609852 -0.17423676
0.23427247 0.1414195 -0.017278988 -0.20226938 0.1583462 0.24165915 0.06899308 0.08888542
-0.14177872 0.06383545 0.028955495 0.17556612 -0.11958197 -0.20174368 0.16426048 -0.042889602
-0.12743206 -0.13984548 -0.19506925 0.074813 -0.13784823 0.21817003 0.18236312 0.16769053
00000000: dd8d f0bb 7360 68be 4fe6 8abe dc88 2a3e
00000010: 1b73 1fbe d738 7bbd cdae a63c 6135 19be
00000020: a4a1 3e3a 30f2 24be 291b eb3d 397c 47be
00000030: 9f86 36bd 9064 b73d 6270 67be 78f4 90be
00000040: b1a4 e23d b2da 81bd 3e21 153e 360e 513e
00000050: f222 5a3e 85e7 a9bd a055 433e 68a0 3d3e
00000060: 4be1 623d 0284 34be a6cb 413e ca0a 6abe
00000070: c56d e2bc e0c0 56be 375f 2f3e 59e5 4cbe
00000080: 3842 283e 014c 443e b091 36bc 0088 e63b
00000090: e466 9b3d 77a3 85be e877 773e 94bb cd3d
000000a0: f4f8 833d f044 a03e 4ec4 4f3e 3aa1 98bd
000000b0: b288 033d 95f3 3d3d 7518 383e a36f 8a3d
000000c0: bc77 1c3e 209b 6bbc 6ff0 03bd 2483 603d
000000d0: cfe9 88bd 145a df3d 590b 77bd a051 1ebe
000000e0: 3576 4b3e a25b 633b 9d2a 673e beef ebbc
000000f0: 14e4 84be 157f 65be 74ff 86be 908a 573d
00000100: 501d 973d f380 46be a614 953d 9554 773e
00000110: c6aa dabd 4de1 053e ea36 cf3d fc48 39bd
00000120: 139c 023e f91b 3dbe 69b2 1fbe 2cd8 72be
00000130: 9580 8ebe 4405 f73d dc09 0b3b 2fe7 53be
00000140: c165 883e 9fe4 663c 38ac 75be db59 143e
00000150: 6ad6 25bd 2ffc 6cbe e0ec 613d 7945 6e3e
00000160: 0dae 58bd 14d8 5abe 9c2d 1cbe 7f72 8abe
00000170: bdbc cabc b2fa d1bd a64d 7a3c 8dcd e23c
00000180: cdb6 cebd f04d 37be 32fa 5ebe 952b 8d3d
00000190: fa74 2fbe 3cb8 d6bb 4e18 48be 3108 c4bd
000001a0: 4539 5fbb afcb 2f3e f0fe 7dbe 6db4 02be
000001b0: 3e12 4cbe b283 60be 717e 31be e1d8 3a3d
000001c0: e87b 50be 3e7f 563e af44 3c3e 13b6 493e
000001d0: 3415 20be 7592 7ebe 99ee 7e3d 47d1 fabd
000001e0: 9c90 2dbe 6414 b23d 55fd 2dbd 13d5 ce3d
000001f0: b9a4 7ebe 8f9c 4fbe 8307 87bd 4f9c 7bbe
00000200: 8866 083d d996 f03d 80c4 013e 4923 433e
00000210: 3f49 9f3d 018f 183e b554 48bd cb8d 9e3d
00000220: 59f8 593e e090 483e 9270 32bd 0d7d 57be
00000230: 48a1 813d bbd8 763e c93a 5ebe 893b 71bd
00000240: 2bdc 6f3d 4526 573d 7e53 41be 3bd0 f43d
00000250: a6c3 05be 2333 5abe f4e2 a73d 8955 b9bc
00000260: 12a4 373e 9930 7a3d a9a0 7b3e 71fa 8d3c
00000270: 8aa0 f73d f911 773d fd3c a93d 761d 483e
00000280: 2162 4b3c a7c8 7c3d 6a22 53be 8171 0ebe
00000290: d777 c6bd c52e d43d 3911 5e3e e5f7 533d
000002a0: d7fb 75be af89 ddbd 2c3a 2c3e c299 f53d
000002b0: 80b2 07be 1f3e 023d b91b 1e3e bdc8 2ebd
000002c0: 814b 5cbe 26e6 af3c c736 223e 73eb bb3d
000002d0: c068 d2bd 8f89 50be a434 d33d d1dd 4b3e
000002e0: ba33 4f3e 52fb a83d 3782 26be b1a1 7dbe
000002f0: 0c1e 0ebe 562b 8e3d 7be3 91be 85a2 06be
00000300: e82a 2abe cc93 c1bd 4e06 3c3e 9fd4 47be
00000310: 0927 333e 637c a23d 5eb2 8c3d 6af3 7ebe
00000320: 8af1 653e c9dc b0bd 3be8 6e3e 2f08 123e
00000330: 226e ca3d 0da6 c3bc b3f6 9f3d 5504 143e
00000340: e16a d9bd 55ff 113e 1483 83be fdd5 993d
00000350: 22e1 953d fd1a 903d 1415 1d3e 4402 c1bd
00000360: f357 163e e8b7 6c3e 9a28 40be 94d4 6dbe
00000370: effe 6c3b bebf 78be 9aed 3d3d b9ad 55be
00000380: 6f41 1dbd 5a0f a03d 7e47 3fbe 3168 553e
00000390: c520 81bd 8ed8 adbd f9e9 3ebd 1f6b 32be
000003a0: 1fe5 6f3e 46d0 103e aa8c 8dbc b41f 4fbe
000003b0: 8225 223e 7f75 773e 3e4c 8d3d 8f09 b63d
000003c0: 712e 11be 29bc 823d 1334 ed3c 9bc7 333e
000003d0: 64e7 f4bd e595 4ebe e633 283e 02ad 2fbd
000003e0: 8d7d 02be a733 0fbe 3cc0 47be 8f37 993d
000003f0: 1628 0dbe f767 5f3e 66bd 3a3e 11b7 2b3e

layers.0.bias f4 [64]
-0.12026352 0.08389845 -0.11383985 0.064328566 -0.061590824 -0.25618106 -0.019262545 -0.020528225
0.22505222 0.19275233 -0.2775435 0.0188428 0.0022424052 -0.07689911 0.17676765 0.1285765
0.008495893 0.032809258 -0.075451225 -0.16278929 -0.06785722 0.064710364 0.13340257 0.13839127
-0.20748788 0.17444767 0.23725364 -0.23292597 -0.06685042 0.03129034 0.04543897 -0.0305492
-0.19235915 -0.040260628 -0.19267868 0.06392278 0.13380514 -0.037213195 -0.03777778 -0.21663922
-0.20583305 0.20051377 -0.0927176 -0.061967652 0.09500186 -0.1667451 -0.2677055 -0.014036923
-0.09457485 0.116149604 0.060432106 0.086280935 0.17969972 0.04401412 0.21214798 -0.050845362
-0.23358731 -0.023764107 0.016164243 0.036743864 -0.12862723 0.22989121 -0.045270648 0.18959007
00000000: b84c f6bd f3d2 ab3d de24 e9bd b2be 833d
00000010: a946 7cbd 2a2a 83be 7ccc 9dbc cf2a a8bc
00000020: 1774 663e de60 453e 2e1a 8ebe 375c 9a3c
00000030: 51f5 123b 487d 9dbd 9402 353e 8fa9 033e
00000040: 5c32 0b3c 0063 063d 2c86 9abd 3cb2 26be
00000050: baf8 8abd de86 843d af9a 083e 71b6 0d3e
00000060: b477 54be 69a2 323e 9ef2 723e 2584 6ebe
00000070: dfe8 88bd 4d2a 003d 371e 3a3d 5142 fabc
00000080: ccf9 44be 54e8 24bd 8f4d 45be f2e9 823d
00000090: 3704 093e dd6c 18bd e0bc 1abd acd6 5dbe
000000a0: e6c5 52be 7b53 4d3e bae2 bdbd cbd1 7dbd
000000b0: 5690 c23d 3abf 2abe b210 89be 1ffb 65bc
000000c0: 75b0 c1bd d8df ed3d a887 773d 0fb4 b03d
000000d0: 3403 383e 2648 343d 523d 593e 3a43 50bd
000000e0: 8331 6fbe f2ac c2bc e06a 843c bc80 163d
000000f0: dbb6 03be 9a68 6b3e b76d 39bd e623 423e

layers.3.weight f4 [32, 64]
-0.03140449 0.017443635 0.05707528 -0.041318722 -0.038406942 -0.062264726 0.1147382 -0.04052283
-0.018284077 0.055695564 0.056001946 -0.1288167 -0.10399824 -0.03025974 0.09879919 0.09991754
-0.081696995 -0.07431199 0.0726621 0.03399602 -0.017749593 -0.030586172 0.10781816 0.045849204
0.08907077 0.11993666 0.011319014 0.020599285 0.09843636 -0.076635756 -0.07003164 -0.041240748
-0.08001906 -0.10147359 -0.026376786 -0.11343153 0.043968536 0.12059006 0.13796633 -0.02935493
0.06751058 0.09666537 0.0051105553 0.01689463 0.06372021 0.0016872226 0.01030112 0.1017546
0.07482714 -0.011830101 -0.07537138 -0.1264532 -0.060124315 -0.10206556 0.11713692 -0.09880107
-0.122236684 -0.13883774 0.10835909 -0.07953937 -0.10817264 -0.021328246 0.052174192 0.12145813
-0.0570549 -0.0814654 0.07665329 0.042233426 0.12636432 -0.12031608 0.16939712 -0.039313026
1.1104105e-05 -0.08565175 0.11676365 -0.07802328 -0.15572494 -0.0075795082 0.058560517 0.0526522
-0.04786819 0.108950496 0.11047178 -0.076540165 0.0067996057 -0.08002305 -0.0317758 0.10437306
-0.04327038 -0.10913083 -0.08352905 -0.06972089 -0.024028726 -0.100000635 -0.08241321 -0.10537733
0.054878935 0.07096404 -0.084199525 0.051735155 -0.035988376 0.048232775 0.1008455 0.027590089
0.14674325 -0.08437617 -0.10380206 -0.11886983 -0.017531449 0.022374092 0.14981307 0.055963445
-0.037428204 -0.12028911 0.042477217 -0.09379272 0.05929594 0.032598488 -0.09461192 -0.11129795
-0.034305427 0.11782174 0.011488532 -0.07984467 -0.08110051 0.04571535 -0.041040126 -0.0086813355
0.109364085 -0.04713264 -0.042423468 0.09858859 0.04259438 -0.041392166 0.05951108 -0.119073264
-0.12922327 -0.134466 0.051387597 0.022568151 0.06290855 -0.012188078 -0.06432437 0.020663438
-0.07381894 -0.08491115 -0.11086312 -0.013935445 0.116084054 0.06622444 0.11253535 0.052046236
0.028134087 -0.12025726 0.10419205 0.123159885 -0.036517523 -0.018624224 0.015054902 -0.050994195
-0.010718404 -0.057570875 -0.073683284 0.005546602 -0.06821455 -0.00828942 0.05252393 -0.043642428
0.007500312 -0.0802109 -0.10152323 0.039561704 -0.047249928 0.025349297 -0.11199281 0.057093304
-0.024303075 -0.10580603 0.025743425 0.06336423 0.15756015 0.09072178 -0.10108256 -0.086703435
0.029296128 -0.05753809 0.12802967 -0.08113962 -0.09547185 -0.029721458 0.15050343 -0.012511216
0.12754452 -0.058626503 -0.0100622615 0.015110851 0.15407056 -0.045634877 0.10602857 0.02006343
-0.016649598 -0.023309583 -0.077012345 0.048328653 0.09094861 -0.13053477 0.009968729 -0.05539328
-0.0096196765 0.08939797 -0.013831184 -0.09095506 0.061987318 0.0077242977 0.09175262 -0.07087788
-0.10076582 0.08506182 -0.03131066 -0.1252138 -0.16415396 -0.013507621 -0.08037899 0.08421137
0.032329775 -0.050338916 -0.051393416 0.021645747 0.054174073 -0.09673874 -0.08259413 -0.016501836
-0.031974547 -0.11773613 0.019012107 0.058146566 0.07722756 -1.9963663e-05 -0.08312812 -0.036976885
0.010685882 -0.05862659 -0.1225945 0.10271184 -0.065850705 -0.056454446 0.09381547 -0.06713946
-0.03175398 -0.047780953 -0.027157478 -0.06761833 0.017615607 0.01012172 -0.0021362747 0.024575317
00000000: ffa1 00bd f4e5 8e3c c5c7 693d d23d 29bd
00000010: 9950 1dbd 4c09 7fbd ddfb ea3d 44fb 25bd
00000020: 7dc8 95bc 0821 643d 4c62 653d 86e8 03be
00000030: 07fd d4bd 46e3 f7bc 3b57 ca3d 91a1 cc3d
00000040: c150 a7bd e230 98bd decf 943d 693f 0b3d
00000050: 9867 91bc da8f fabc c4cf dc3d 60cc 3b3d
00000060: bc6a b63d 5aa1 f53d 6373 393c d5bf a83c
00000070: 0199 c93d 35f3 9cbd c06c 8fbd 0fec 28bd
00000080: 08e1 a3bd 63d1 cfbd 2114 d8bc ca4e e8bd
00000090: 5a18 343d ecf7 f63d 0c47 0d3e c079 f0bc
000000a0: fd42 8a3d 7ef8 c53d 7276 a73b 9b66 8a3c
000000b0: be7f 823d cc25 dd3a 07c6 283c b764 d03d
000000c0: f93e 993d 0ad3 41bc 4f5c 9abd f37c 01be
000000d0: ea44 76bd c007 d1bd 7be5 ef3d 3758 cabd
000000e0: 3a57 fabd 7b2b 0ebe 5feb dd3d 8ae5 a2bd
000000f0: 9e89 ddbd 93b8 aebc 9bb4 553d 0abf f83d
00000100: 66b2 69bd 55d7 a6bd 66fc 9c3d f5fc 2c3d
00000110: a665 013e 4768 f6bd 7076 2d3e b206 21bd
00000120: c54b 3a37 2f6a afbd c821 ef3d abca 9fbd
00000130: 5c76 1fbe 865d f8bb 27dd 6f3d d5a9 573d
00000140: 6f11 44bd 7021 df3d 073f e23d 17c1 9cbd
00000150: 3acf de3b 20e3 a3bd 5727 02bd 8bc1 d53d
00000160: 483c 31bd fc7f dfbd 4711 abbd d3c9 8ebd
00000170: e4d7 c4bc 22cd ccbd 42c8 a8bd 12d0 d7bd
00000180: bcc8 603d 9855 913d cd70 acbd 3ee8 533d
00000190: 8c68 13bd bb8f 453d 1688 ce3d 9c04 e23c
000001a0: dd43 163e 6acd acbd 2d96 d4bd 0772 f3bd
000001b0: 1d9e 8fbc df49 b73c 9968 193e ed39 653d
000001c0: 514e 19bd 235a f6bd 97fc 2d3d 6616 c0bd
000001d0: 4de0 723d fe85 053d e5c3 c1bd 2ef0 e3bd
000001e0: d983 0cbd 864c f13d 653a 3c3c 9a85 a3bd
000001f0: 0618 a6bd 0540 3b3d b119 28bd 293c 0ebc
00000200: 47fa df3d 280e 41bd 3bc4 2dbd d1e8 c93d
00000210: 7277 2e3d d58a 29bd e4c1 733d afdc f3bd
00000220: 1b53 04be 75b1 09be cd7b 523d d8e0 b83c
00000230: 33d6 803d 81b0 47bc 7fbc 83bd 5f46 a93c
00000240: 622e 97bd e6e5 adbd 340c e3bd 7e51 64bc
00000250: 7abd ed3d aea0 873d ef78 e63d 6f2e 553d
00000260: 7579 e63c 7049 f6bd a462 d53d 403b fc3d
00000270: 6693 15bd d491 98bc d6a8 763c 4adf 50bd
00000280: 3f9c 2fbc 70cf 6bbd 43e7 96bd 45c0 b53b
00000290: 12b4 8bbd 59d0 07bc 5523 573d 67c2 32bd
000002a0: 2dc5 f53b 9d45 a4bd 69eb cfbd 740b 223d
000002b0: 2489 41bd 54a9 cf3c 7d5c e5bd abda 693d
000002c0: 3e17 c7bc d5b0 d8bd e0e3 d23c 1bc5 813d
000002d0: 7357 213e 57cc b93d 6004 cfbd 9291 b1bd
000002e0: 6ffe ef3c 0fad 6bbd 361a 033e 872c a6bd
000002f0: bf86 c3bd 6a7a f3bc 921d 1a3e d8fb 4cbc
00000300: 089b 023e 5822 70bd 2fdc 24bc 8193 773c
00000310: acc4 1d3e a3eb 3abd 8225 d93d 105c a43c
00000320: bd64 88bc bdf3 bebc a6b8 9dbd 44f4 453d
00000330: 4443 ba3d e8aa 05be e153 233c 10e4 62bd
00000340: d99b 1dbc 4816 b73d 319c 62bc a646 babd
00000350: 6ae6 7d3d 1b1c fd3b cce8 bb3d 6c28 91bd
00000360: 4f5e cebd e434 ae3d 9b3f 00bd 0c38 00be
00000370: fa17 28be 124f 5dbc bd9d a4bd 0377 ac3d
00000380: 3a6c 043d 2e30 4ebd e781 52bd 6c52 b13c
00000390: a2e5 5d3d f61e c6bd 1c27 a9bd dc2e 87bc
000003a0: bef7 02bd a41f f1bd 47bf 9b3c 182b 6e3d
000003b0: 7c29 9e3d a477 a7b7 133f aabd 1375 17bd
000003c0: d613 2f3c 6f22 70bd d312 fbbd 965a d23d
000003d0: bcdc 86bd c73c 67bd 5322 c03d 6a80 89bd
000003e0: 7610 02bd f6b5 43bd 5c79 debc 7b7b 8abd
000003f0: 9b4e 903c 92d5 253c be00 0cbb 2d52 c93c

layers.3.bias f4 [32]
0.023793977 -0.03991479 -0.040493883 0.09087105 -0.018768884 -0.053688463 -0.03645818 0.014325789
0.027984211 -0.06789738 0.098329775 -0.1116508 0.010394664 0.09681769 -0.14542775 -0.031383872
0.115474895 -0.1636458 0.027540717 -0.061983496 -0.034245558 0.04502753 -0.10037272 0.11170045
0.029171996 0.09262921 0.051635645 0.0881547 0.06022576 -0.08217937 -0.13570935 -0.059942625
00000000: 96eb c23c b17d 23bd eadc 25bd 9a1a ba3d
00000010: 34c1 99bc 6fe8 5bbd 2c55 15bd b7b6 6a3c
00000020: 253f e53c c80d 8bbd 1f61 c93d 2da9 e4bd
00000030: 614e 2a3c 5a48 c63d 03eb 14be 608c 00bd
00000040: 1a7e ec3d c492 27be 129d e13c 68e2 7dbd
00000050: 1245 0cbd ca6e 383d 3690 cdbd 35c3 e43d
00000060: 1cfa ee3c 62b4 bd3d e67f 533d 748a b43d
00000070: 49af 763d a84d a8bd 64f7 0abe 6686 75bd

layers.6.weight f4 [1, 32]
-0.023869175 -0.13319479 0.15622531 0.0831956 -0.047567457 -0.16347423 -0.13694026 -0.040532637
-0.08350579 -0.031641066 0.031451013 -0.17748429 -0.0062954174 -0.0900131 0.11583174 -0.19181256
-0.019891245 0.11070982 0.021799726 -0.11433325 0.08237642 -0.010147713 0.08896673 0.07411585
0.1097217 -0.16366298 -0.08675229 -0.048171088 -0.19517674 -0.102195814 -0.102586195 -0.05814589
00000000: 4a89 c3bc 3764 08be 87f9 1f3e 7462 aa3d
00000010: 18d6 42bd ca65 27be 113a 0cbe 8d05 26bd
00000020: 1505 abbd 109a 01bd c7d2 003d 71be 35be
00000030: ca49 cebb ca58 b8bd 3139 ed3d 836a 44be
00000040: f7f2 a2bc d5bb e23d 5795 b23c 8d27 eabd
00000050: f8b4 a83d 9842 26bc 3034 b63d 0dca 973d
00000060: c5b5 e03d 4597 27be 2fab b1bd 0c4f 45bd
00000070: 69dc 47be 0a4c d1bd b618 d2bd 622a 6ebd
