model_checkpoints/model_round_20.pt (torch, 15374 bytes, 5 tensors)

layers.0.weight f4 [64, 15]
000000 87 10 e9 3c 89 a0 83 be b2 14 87 be 53 93 32 3e
       0.028450264 -0.25708416 -0.26382977 0.17439012
000010 75 e3 0f be d2 7c a0 bc d5 c5 f9 3c 0e ba 16 be
       -0.14051612 -0.019590769 0.030489841 -0.14719412
000020 ef 76 66 3c d0 db 28 be 35 c2 ad 3d 3e 96 44 be
       0.014066442 -0.16490102 0.08484308 -0.19197938
000030 e5 ee 64 bc 3f 77 bc 3d df e3 3f be 8a 1c 84 be
       -0.0139729725 0.09202432 -0.1873927 -0.25803024
000040 85 31 dc 3d 11 78 a4 bd a1 d6 01 3e a7 79 61 3e
       0.107516326 -0.08030713 0.1267953 0.22019063
000050 90 86 5a 3e 32 42 af bd 82 ef 44 3e 59 fb 4e 3e
       0.21340394 -0.08557548 0.1923199 0.20213069
000060 91 b0 d9 3d e2 80 3b be ff 80 03 3e 85 49 52 be
       0.106293805 -0.18310884 0.12842177 -0.20535858
000070 ef 50 10 bc c7 ed 58 be 56 cb 24 3e 5d 35 1b be
       -0.008808359 -0.21184455 0.16093192 -0.15157075
000080 90 63 f8 3d a7 57 48 3e 73 7f 3e 3d 3e 8c c3 3c
       0.12128365 0.19564687 0.046508264 0.023870584
000090 de 13 c2 3d ed 8f 82 be a4 77 8c 3e 6c d6 9d 3d
       0.094764456 -0.25500432 0.2743503 0.07706913
0000a0 48 28 b0 3d d5 45 ae 3e f4 b0 4b 3e d6 d3 61 bd
       0.08601433 0.34037653 0.19891721 -0.055133663
0000b0 7b 47 a6 3d 16 3c ab 3d f1 82 6e 3e ee c1 f5 3d
       0.081191026 0.0836107 0.23292138 0.1199988
0000c0 29 1e f4 3d 09 5f ad bc f5 97 88 3c cf 10 a1 3d
       0.11919815 -0.02116348 0.016674021 0.07864534
0000d0 8b fa 41 bd f8 4d ce 3d 74 b4 38 bd 42 28 0a be
       -0.047358077 0.10073465 -0.04509397 -0.1349192
0000e0 cf e7 75 3e 07 d2 ee 3c 9b be 4e 3e a9 ab 2f bd
       0.24014209 0.029152883 0.20189898 -0.042888317
0000f0 f6 9e 8e be 89 a6 57 be 92 ad 79 be 6c 31 b9 3d
       -0.27855653 -0.21059622 -0.24382618 0.090426296
000100 da 09 b1 3d 38 44 2e be 74 2e c6 3d 94 a9 68 3e
       0.08644457 -0.17018211 0.09676829 0.22720939
000110 c0 fa be bd 79 67 e2 3d 52 a0 dc 3d 99 30 60 bd
       -0.093251705 0.11054892 0.10772766 -0.054733846
000120 ee 21 fc 3d b5 8f 33 be 43 c1 0e be 7a c4 71 be
       0.12311159 -0.17535289 -0.13940911 -0.23610106
000130 6e 82 84 be 70 95 eb 3d b9 29 11 3d 8b 4c 66 be
       -0.2588076 0.11503112 0.03544018 -0.22490136
000140 a9 9f 8d 3e 0f d4 b6 3b 93 44 70 be c7 e1 32 3e
       0.27660874 0.0055794786 -0.23463659 0.1746894
000150 0d 6e 03 bd c3 3d 4d be 50 52 cb 3d b2 b2 78 3e
       -0.032087374 -0.20043091 0.09927809 0.24286917
000160 b9 41 a4 bd 03 d0 80 be 28 41 51 be 2e cb 93 be
       -0.08020348 -0.251587 -0.20435011 -0.2886595
000170 fd c8 9d bb 56 bf d9 bd cd 44 bd 3c 60 38 01 3d
       -0.0048152194 -0.106321976 0.023104096 0.031547904
000180 82 ac e6 bd 24 1b 51 be b3 4f 54 be b8 f4 4d 3d
       -0.11263372 -0.2042051 -0.20733528 0.05028221
000190 f7 cc 2a be d3 f8 41 3d 10 04 69 be 98 01 e7 bd
       -0.1667975 0.047356438 -0.22755456 -0.11279601
0001a0 9d 96 c8 bb f4 41 35 3e 18 e6 63 be e3 9d e4 bd
       -0.00612147 0.1770094 -0.22255743 -0.11162927
0001b0 fa 48 25 be 38 9d 4e be af d5 24 be c1 02 c2 3c
       -0.1614112 -0.20177162 -0.16097139 0.023682954
0001c0 37 65 70 be 8c 01 46 3e 00 ca ff 3d a1 b9 69 3e
       -0.2347611 0.19336528 0.124897 0.22824718
0001d0 85 e4 f2 bd 99 ad 6e be 33 e8 67 3d bf a4 06 be
       -0.11859993 -0.2330841 0.056617927 -0.13148783
0001e0 c9 ca 39 be 91 83 a5 3d 22 39 7e bd 25 40 35 3e
       -0.18143763 0.08081735 -0.062066205 0.1770025
0001f0 a3 f0 88 be 46 c6 60 be a2 03 84 bd 75 e6 63 be
       -0.2674609 -0.21950635 -0.064460054 -0.22255881
000200 19 26 83 3d 2f bf be 3d cf d8 04 3e 63 70 3a 3e
       0.06403751 0.09313809 0.12973331 0.18206935
000210 cf e4 b9 3d 32 d4 0f 3e 45 c8 5b bd 7f a4 13 3d
       0.09076845 0.1404579 -0.05365779 0.036045548
000220 1d 60 71 3e c4 ba 2e 3e 2a cc 2a bd a4 c0 72 be
       0.2357182 0.17063433 -0.041698612 -0.23706299
000230 09 6f 80 3d 35 93 8a 3e 97 b2 84 be 98 54 8e bd
       0.06271178 0.27065435 -0.25917503 -0.06949729
000240 da 58 c4 3c 71 10 0f 3c fd c1 43 be 97 65 06 3e
       0.023968149 0.008731947 -0.1911697 0.13124691
000250 a6 1c 1c be 4d aa 7f be 7b f7 91 3d 2f 58 27 bc
       -0.15245304 -0.24967308 0.07127281 -0.010213896
000260 f5 3b 4f 3e 3a 78 c7 3d 02 1b 7c 3e 62 21 48 bb
       0.20237716 0.09739728 0.24619678 -0.0030537476
000270 eb 7b ee 3d ad 12 83 3d fe 0a e9 3d 9b fd 35 3e
       0.11644729 0.064000465 0.1137905 0.17772524
000280 36 b3 db 3c 08 35 97 3d a9 e3 4b be 9f cc 02 be
       0.026818853 0.07383162 -0.19911064 -0.12773369
000290 a7 64 a6 bd 04 11 fb 3d 43 15 75 3e 83 d5 96 3d
       -0.08124667 0.12259105 0.23933892 0.07364943
0002a0 d3 81 60 be 76 72 fe bd a9 20 18 3e dc 3c 21 3e
       -0.21924524 -0.124241754 0.14856209 0.15745872
0002b0 7c 8a f5 bd c0 bb d9 3c ff 79 14 3e 50 ca d6 bd
       -0.119893044 0.026578784 0.14499663 -0.10487807
0002c0 00 fd 4c be da c6 5a 3c 95 de 3e 3e 0d f3 be 3d
       -0.20018387 0.013353074 0.18639596 0.09323702
0002d0 49 82 2b be f1 6e 68 be 7e cf 14 3e f9 4e 7d 3e
       -0.16748919 -0.22698571 0.14532277 0.24737157
0002e0 e4 7a 2e 3e 89 34 a5 3d 0c f8 15 be 17 09 7d be
       0.17039067 0.08066661 -0.14645404 -0.24710499
0002f0 67 17 0b be e7 32 8a 3d 90 bb 9c be 33 e6 fa bd
       -0.13583146 0.0674799 -0.3061185 -0.12250938
000300 b6 a9 2f be 1e 50 3e bd c2 85 22 3e ad 42 2a be
       -0.17154583 -0.046463124 0.15871337 -0.16626997
000310 e5 50 5a 3e 53 93 e9 3d bd c0 94 3d 2b 17 92 be
       0.21319921 0.11405053 0.072633244 -0.285333
000320 1b 29 69 3e 11 ab e4 bd 9f d8 63 3e 9c 33 dc 3d
       0.22769587 -0.11165441 0.22250603 0.10752031
000330 2a 55 eb 3d 92 ab 1c bd 19 6b 2c 3d 52 5f 3a 3e
       0.11490853 -0.03824956 0.042094324 0.18200424
000340 d5 8d 00 be 0f 1a de 3d 47 11 72 be f5 5c 54 3d
       -0.12554105 0.10844814 -0.23639403 0.051846463
000350 d8 db 5e 3d c1 a5 48 3d 4a 43 0c 3e e6 94 b4 bd
       0.054408878 0.0489862 0.13697544 -0.088174626
000360 b5 a9 1b 3e de b3 81 3e b4 38 2e be 80 b3 93 be
       0.15201457 0.2533254 -0.17013818 -0.28847885
000370 5c c0 a5 bc 32 99 83 be 23 2b a7 3d 13 62 77 be
       -0.020233326 -0.25702816 0.081625246 -0.24158506
000380 54 3d 84 bd d3 c5 e0 3d 54 5b 66 be 88 48 81 3e
       -0.0645701 0.10975232 -0.22495776 0.2525065
000390 f4 cd 5e bd 8e 2a b2 bd 48 07 83 bd 86 cb 32 be
       -0.05439563 -0.08699523 -0.06397873 -0.1746045
0003a0 16 14 51 3e ab e7 d1 3d 6b a0 86 bc 4d da 45 be
       0.20417818 0.10249265 -0.016433915 -0.19321556
0003b0 69 ec 10 3e b6 54 80 3e 72 60 e2 3d db 0b 4d 3d
       0.14152683 0.2506463 0.11053552 0.050060134
0003c0 4f 2e 2f be ed 31 83 3d 90 5a 82 3d 7a d9 4f 3e
       -0.17107509 0.06406007 0.0636493 0.20297804
0003d0 6e 7f fa bd 12 88 60 be e0 b5 12 3e 38 c3 b2 bc
       -0.122313365 -0.21926907 0.14327192 -0.021821603
0003e0 a7 04 17 be 07 68 3a be 67 cf 43 be af 2c 96 3d
       -0.14747868 -0.18203746 -0.19122086 0.073327415
0003f0 71 c6 23 be f4 3a 4f 3e 03 48 6a 3e ed f1 1d 3e
       -0.15993668 0.20237333 0.22879033 0.15424319

layers.0.bias f4 [64]
000000 a1 21 c8 bd 40 14 f2 3d b8 1f e6 bd ff 2c 74 3d
       -0.09772039 0.11820269 -0.112365186 0.059613224
000010 37 ae 73 bd a3 8a 8b be 0b 13 46 bd c4 9d 7d bd
       -0.059492316 -0.2725421 -0.048358005 -0.061918035
000020 db 76 a1 3e 61 07 69 3e e1 a6 93 be a5 46 28 3d
       0.31535992 0.22756721 -0.28838256 0.041082997
000030 b3 b3 03 3c 4c 8c ab bd 75 a7 40 3e 25 30 dd 3d
       0.008038449 -0.08376369 0.1881388 0.108001985
000040 9e af 84 3c eb 82 55 3d 28 0e 86 bd 2e f8 13 be
       0.016197022 0.052126806 -0.06545669 -0.14450142
000050 3b 6a bd bd 66 f3 63 3d 2f 97 1f 3e ad 99 f6 3d
       -0.092487775 0.055652045 0.15585016 0.1204103
000060 78 8b 62 be 89 aa 37 3e 43 7c 6a 3e 6a d4 85 be
       -0.22123516 0.17936148 0.22898965 -0.26138622
000070 ec dd 79 bd 22 fa e4 3c b7 07 19 3d ed 5f 86 bd
       -0.061002657 0.027951304 0.037360873 -0.06561265
000080 31 0e 4b be bd ae cf 3c ab 28 52 be 7e 0d bb 3d
       -0.19829632 0.025351876 -0.20523326 0.09133433
000090 7f 55 f6 3d f7 3b 7b bc 7b 46 4e bd cf 1b 55 be
       0.12028026 -0.015334121 -0.050360184 -0.2081139
0000a0 b9 c1 5c be c1 41 6a 3e 53 f6 d3 bd 3b 70 30 bd
       -0.21558274 0.22876646 -0.10349717 -0.04307578
0000b0 ad 45 f4 3d 08 2f 1c be b0 dd 60 be 17 a2 a8 bb
       0.11927352 -0.15252316 -0.21959567 -0.0051462757
0000c0 48 99 97 bd 73 f8 d4 3d b7 46 d7 3d 4a 85 90 3d
       -0.07402283 0.103989504 0.10511535 0.07056673
0000d0 0b bc 22 3e a4 95 15 3d eb 4b 66 3e 75 c2 40 bd
       0.15892045 0.03651966 0.22489898 -0.04706045
0000e0 64 f3 6a be 3b f2 24 bd 3d ac 93 3d 08 06 d0 3b
       -0.22944409 -0.04027007 0.07210586 0.006348375
0000f0 d1 07 fe bd 21 26 71 3e 43 3a 67 bd c2 5d 2e 3e
       -0.124038346 0.23549701 -0.056452047 0.17027953

layers.3.weight f4 [32, 64]
000000 32 2f 69 bd 0a c9 89 3c 63 5d 1e 3d 67 38 b4 bb
       -0.056929775 0.016819496 0.03866328 -0.0054998877
000010 c8 b6 00 bd 76 9d 2d bd 35 32 b6 3d 17 af 30 bd
       -0.031424314 -0.042386495 0.08896295 -0.04313573
000020 f0 e9 4c 3b c8 d2 60 3d f7 06 97 3d e1 b4 42 be
       0.0031267367 0.054888517 0.07374375 -0.19014312
000030 42 56 6d bd ed 59 78 3b 6c 05 ef 3d 32 be e5 3d
       -0.05794359 0.0037895397 0.11670956 0.112179175
000040 ee 62 f9 bd ef f5 a3 bd 83 33 84 3d 47 5c 66 3d
       -0.121770725 -0.080058925 0.064551376 0.056240346
000050 8c 15 62 bc 13 51 c7 bc 3f 82 bb 3d 4e dc 9e 3d
       -0.0137990825 -0.024330651 0.09155702 0.077568635
000060 d0 b4 d6 3d 0b b1 bc 3d 00 1c cc 3c 2a 3d cb bb
       0.10483706 0.09213456 0.024915695 -0.0062023597
000070 b7 4c b8 3d 87 0b 9f bd 94 8c 75 bd 4e 25 a2 bc
       0.08999007 -0.077658705 -0.05994852 -0.019793179
000080 67 ca a9 bd 11 65 b6 bd bf b3 70 bd 82 91 12 be
       -0.08290558 -0.08905996 -0.05876517 -0.1431332
000090 d0 55 84 3d 77 36 ae 3d f5 aa 13 3e 36 10 23 3c
       0.0646168 0.08506482 0.14420684 0.009952595
0000a0 08 11 d7 3d 2c 54 cb 3d 01 f3 53 3c a0 a9 1f 3d
       0.10501295 0.09928164 0.012936355 0.038980126
0000b0 14 5c 1a 3d 67 78 23 bb 1c a2 99 bc cb 6f d3 3d
       0.03768547 -0.0024943592 -0.018754058 0.10324057
0000c0 79 fe dd 3d cb 6b c4 bb d7 75 2f bd 4b 89 d9 bd
       0.108395524 -0.0059942952 -0.04283699 -0.1062189
0000d0 bd 3f d2 bd 97 71 06 be 6c eb d3 3d 7c 25 b0 bd
       -0.10266063 -0.13129269 0.103476375 -0.086008996
0000e0 6f 12 03 be fd f0 db bd 40 51 b8 3d 44 4b ce bd
       -0.128 -0.10739324 0.08999872 -0.100729495
0000f0 56 92 5b bd 52 98 29 bd e6 08 c7 3d 98 5f e2 3d
       -0.053606354 -0.04140503 0.09718494 0.11053389
000100 4f 17 1e bd 27 89 94 bd 40 fb 88 3d e9 c4 50 3d
       -0.038596448 -0.07252722 0.06688547 0.05096904
000110 0b 6e e8 3d 18 c7 fb bd d0 d8 2b 3e 0f ad 5b bd
       0.11349114 -0.122938335 0.16781926 -0.05363184
000120 27 b0 a2 3b c5 1f 34 bd 92 79 02 3e 05 01 94 bd
       0.0049648467 -0.04397561 0.12741688 -0.07226757
000130 f1 88 39 be ae a1 0b bc 50 94 b2 3c d0 df 6b 3d
       -0.18118645 -0.008522434 0.021799237 0.05758649
000140 74 e8 6c bd 6c c8 e4 3d 8c a8 b6 3d f8 a4 f2 bc
       -0.057838872 0.1117104 0.089188665 -0.029619679
000150 25 cc d5 bc 4c 35 6c bd 2a d0 87 bc 47 38 fa 3d
       -0.02609832 -0.057668015 -0.016578753 0.12217765
000160 9b 64 12 bd 21 19 fa bd 16 22 4c bd 7f b1 ac bd
       -0.035740476 -0.12211824 -0.049837194 -0.08432292
000170 3a cb 09 bc a1 76 b5 bd 13 a3 86 bd fc 31 15 be
       -0.008410269 -0.08860517 -0.06574073 -0.14569849
000180 b6 cd ae 3d 27 23 05 3e 03 2e 65 bc a7 8d 7a 3d
       0.0853533 0.13001691 -0.013988021 0.061170246
000190 fb 7a ab bd e8 6a 2f 3d 8a 0a 0c 3d 47 0b 46 bc
       -0.08373066 0.042826563 0.03418974 -0.01208765
0001a0 ec 90 13 3e 26 c8 09 be 96 1f b9 bd b4 b6 d8 bd
       0.14410752 -0.13455257 -0.09039228 -0.10581723
0001b0 ea fe f1 bc 65 cf ed 3c 29 38 44 3e 7f 71 41 3d
       -0.029540498 0.029029557 0.19162048 0.04722738
0001c0 ea a8 5d bd f1 07 04 be 27 2d 8b 3c 3c 6e af bd
       -0.054116167 -0.12893654 0.016989304 -0.085659474
0001d0 66 bf 96 3d a4 1e ce 3b 0e f3 0b be 18 fd ad bd
       0.07360725 0.0062902737 -0.13666937 -0.084955394
0001e0 8a ac 08 bd aa 21 e7 3d c5 80 14 ba d5 b6 c9 bd
       -0.03336767 0.11285718 -0.000566494 -0.098493256
0001f0 f1 d5 c9 bd 7a e1 43 3d 1b ad a7 bd f1 31 e3 bb
       -0.09855259 0.047822453 -0.08187314 -0.0069334437
000200 cd 30 cd 3d 8c 2a be bc f7 f7 db bd bb 77 d8 3d
       0.10019074 -0.023213647 -0.10740655 0.10569712
000210 99 f7 0a 3d c5 78 a7 bc 00 40 9f 3d 7e 58 de bd
       0.033927534 -0.02044333 0.07775879 -0.10856722
000220 b4 0f 1f be 31 bd 1b be be fe f3 3c cb ca 37 3d
       -0.15533334 -0.1520889 0.029784556 0.044871133
000230 22 30 3e 3d 09 e0 de bc 38 a6 cb bd 9a e9 d8 bc
       0.04643262 -0.027206438 -0.09943813 -0.026478577
000240 e3 fc 99 bd a9 0d d7 bd 6c 6d e7 bd 67 d2 28 3c
       -0.075189374 -0.10500652 -0.113001674 0.01030407
000250 cf db f3 3d f7 b8 94 3d f8 ad fd 3d 5f 95 1d 3d
       0.119071595 0.07261842 0.123866975 0.03847253
000260 c2 03 13 3b d2 31 1a be 50 a9 8b 3d 2f 7b d6 3d
       0.002243266 -0.15058067 0.06819403 0.10472714
000270 c7 da 13 bc f7 e7 1d 3c fb 8f 2c ba c9 31 d1 bc
       -0.009024329 0.009637824 -0.0006582734 -0.025536435
000280 26 3b 7f 3c 24 7d 7f bd 3f cf 9d bd a3 81 a8 bc
       0.015578067 -0.062375203 -0.07705545 -0.020569628
000290 69 92 98 bd 41 80 2b bd a8 5e 8c 3d 30 c7 00 3b
       -0.074498005 -0.04187036 0.06853992 0.0019649975
0002a0 e6 a5 af bc 20 72 91 bd a8 d4 22 be 11 aa c8 3c
       -0.021441411 -0.07101846 -0.15901434 0.024495156
0002b0 3e 5f 9e bd 17 d8 09 3d fc 70 f0 bd 18 10 a1 3c
       -0.0773301 0.033653345 -0.117403 0.019660994
0002c0 10 dc 1f bd 83 86 01 be db 13 e2 3c 95 db b9 3d
       -0.039028227 -0.12648968 0.027597358 0.09075085
0002d0 03 91 f8 3d 1f ed 0b 3e 18 23 d6 bd 50 2a 0d be
       0.12137034 0.13664673 -0.10455912 -0.13785672
0002e0 35 94 6a 3d 10 04 1e bd 1f 28 09 3e f4 9f e7 bd
       0.057270247 -0.038578093 0.13394211 -0.113098055
0002f0 15 e5 b0 bd 08 31 b6 bc d8 46 30 3e a7 12 84 bd
       -0.08637444 -0.022240177 0.17214525 -0.0644887
000300 05 79 0f 3e 5a 88 9c bd 0f aa 2c bb bc fd 79 3d
       0.14011009 -0.076431945 -0.002634648 0.061032996
000310 f9 b5 07 3e 2b aa 49 bd 6c fc b6 3d 8a 88 fd 3a
       0.13253011 -0.04923455 0.089348644 0.001934306
000320 79 5f 5d bd 58 fe 5b bc d6 c4 8a bd 24 6f 1d 3c
       -0.054046128 -0.0134273395 -0.06775825 0.0096090175
000330 e7 21 e9 3d 3f b6 dd bd 02 b6 f0 3b ed bd 29 bd
       0.113834195 -0.10825776 0.007345916 -0.041440893
000340 4c 64 9e bc 89 b5 7e 3d 89 79 38 bd 95 0e d8 bd
       -0.019334935 0.062184844 -0.04503778 -0.10549656
000350 97 95 c9 3c bd fb 02 3d 87 ae ad 3d 6c 2d 02 be
       0.024607463 0.031978358 0.08480554 -0.1271264
000360 85 cb b8 bd ce 4e d2 3d 1a 92 d1 bd 5e 9c 00 be
       -0.09023193 0.10268937 -0.10232945 -0.1255965
000370 0a 7c 0a be 0d f9 df 3b 9f d8 2a bd 0f 97 03 3e
       -0.1352388 0.006835109 -0.041710492 0.12850593
000380 da f1 35 3d bc 33 38 bd 15 cc 35 bc b7 91 93 bc
       0.0444201 -0.044971213 -0.01109602 -0.018013818
000390 a4 f5 27 3d 64 df d2 bd 04 d7 23 bd 54 ca ba bd
       0.041005746 -0.10296515 -0.039999977 -0.09120622
0003a0 35 91 68 bd 71 86 c1 bd d4 bd 0b bc fc c5 79 3d
       -0.056779105 -0.09449471 -0.008529145 0.06097983
0003b0 3d d8 68 3d 31 f3 f5 bc 8b cb bd bd 44 d6 19 bd
       0.056846846 -0.03002319 -0.09267338 -0.037557855
0003c0 98 75 e9 3c b0 0d 42 bd e8 17 07 be 80 24 fd 3d
       0.028498456 -0.047376335 -0.13192713 0.123604774
0003d0 b5 be de bd 9d a6 b1 bd a8 26 c4 3d b0 00 8b bd
       -0.10876218 -0.08674357 0.095776856 -0.067872405
0003e0 af 1d 32 bd 8b d6 c8 bd f2 c1 c2 bc 66 dd 9d bd
       -0.04348534 -0.09806546 -0.023774121 -0.07708244
0003f0 4d a1 7d 3c 2b b6 49 bc 35 b2 10 bc ca b6 ae 3c
       0.015480352 -0.012311499 -0.00883155 0.021327395

layers.3.bias f4 [32]
000000 55 7d 5c 3d c8 17 10 bd 3a 7a ac 3a f8 4c 84 3d
       0.053830463 -0.03517893 0.0013158985 0.06459993
000010 1b 48 ec bc 85 37 cb 3b 54 34 58 bd 2a 3f 4c 3c
       -0.028842976 0.006201687 -0.05278428 0.012466231
000020 3a 16 77 3d 3e 33 99 bd dd 74 e1 3d 41 ac d6 bd
       0.06032393 -0.07480477 0.11008618 -0.104820736
000030 40 11 73 3c 93 04 ca 3d 28 6b 42 be 29 22 cc bc
       0.014835656 0.09864154 -0.1898619 -0.024918633
000040 2b b8 09 3e 19 c2 f9 bd 5a 1c d1 bb a9 84 ff 3b
       0.13449161 -0.12195224 -0.0063815536 0.0077977967
000050 99 23 6b bd e9 82 9f 3c 59 e3 a0 bd d4 c3 e0 3d
       -0.057406995 0.019471603 -0.07855863 0.10974851
000060 41 e2 df 3c 3c fc e7 3d de 2a 70 3d 96 71 9f 3d
       0.027329566 0.11327407 0.05863463 0.07785337
000070 9e 13 6a 3d cf a0 92 bc c3 6b 10 be 47 df ad bd
       0.057147615 -0.017898945 -0.14103608 -0.084898524

layers.6.weight f4 [1, 32]
000000 cc ba 88 bd a0 78 35 be bb cf 1b 3e c0 80 e7 3c
       -0.06676254 -0.17721796 0.15215962 0.028259635
000010 a9 46 de bd ed 97 22 be aa 95 59 be 88 bc b6 bd
       -0.10853321 -0.15878268 -0.21248499 -0.08922678
000020 03 8d 09 be 1a 21 b6 bd e4 5d 21 bd df ac 5e be
       -0.13432698 -0.08893032 -0.03939618 -0.21745633
000030 3f ba 2c bd 9c 76 e2 bd 22 2b e2 3d 90 c9 71 be
       -0.042169806 -0.11057779 0.11043383 -0.23612046
000040 e8 51 46 bd 4c ff 1a 3e b2 2d 76 bc a8 15 1c be
       -0.048417956 0.1513645 -0.015025543 -0.15242636
000050 aa e4 27 3d 1d 59 47 3c d8 35 81 3d b2 43 9e 3d
       0.040989555 0.012167242 0.06309098 0.077277556
000060 d7 94 8a 3d 29 48 6c be 8b fc 3d be 75 3f c9 bd
       0.0676667 -0.23074402 -0.18553369 -0.098265566
000070 38 7f 7c be fb 0f 0d be da f2 c1 bd 24 16 ef bb
       -0.24657905 -0.13775627 -0.094701484 -0.0072963405
