model_checkpoints/model_round_18.pt (torch, 15374 bytes, 5 tensors)

layers.0.weight f4 [64, 15]
0.013494652 -0.26838207 -0.2928944 0.17719828 -0.14142579 -0.025620585 0.02190648 -0.1440193
0.023406986 -0.17721605 0.092074536 -0.19028233 -0.016272787 0.08987338 -0.17198111 -0.26852852
0.120346315 -0.07353892 0.113395944 0.2264633 0.22593139 -0.084691346 0.20011207 0.18363185
0.10115618 -0.18313812 0.12604697 -0.20566043 -0.011010317 -0.2347672 0.14990117 -0.15569098
0.14078437 0.19192034 0.040018022 0.021436207 0.095411904 -0.26990578 0.2843151 0.08750294
0.09041542 0.3226484 0.21553491 -0.047806166 0.05573593 0.04697281 0.2339514 0.10101799
0.12815166 -0.03755956 0.025015876 0.07658904 -0.045058474 0.0956341 -0.07352161 -0.14144975
0.22477038 0.021139698 0.19746713 -0.03175839 -0.2593846 -0.21283017 -0.25968006 0.08693954
0.1008548 -0.17983656 0.08279874 0.2359725 -0.10395651 0.11542287 0.09555213 -0.05469399
0.12729658 -0.17604543 -0.12816371 -0.22847441 -0.24593635 0.11294944 0.031249871 -0.22660856
0.28109068 0.020053146 -0.25069904 0.1688023 -0.028143985 -0.21561612 0.08080753 0.24795015
-0.06400515 -0.2518874 -0.19363353 -0.29157758 -0.01202713 -0.11169242 0.01806424 0.025845196
-0.098660946 -0.21796928 -0.21997984 0.05818596 -0.16637935 0.057421025 -0.21483348 -0.08370054
-0.0014522405 0.18175656 -0.2291217 -0.11332301 -0.17271763 -0.21595013 -0.16045661 0.032747347
-0.23100136 0.18773863 0.144755 0.21914017 -0.1231386 -0.2370215 0.06648161 -0.13225277
-0.17760053 0.08326934 -0.044648748 0.16337842 -0.26126626 -0.21677925 -0.069124095 -0.21682397
0.049163684 0.10991064 0.13391498 0.1913452 0.08938386 0.14517392 -0.050871 0.038492873
0.23471147 0.1740541 -0.037935395 -0.23679651 0.059104282 0.27499685 -0.24766766 -0.068208665
0.028351137 -0.00020596002 -0.19394675 0.13915674 -0.14666767 -0.24037154 0.06976313 -0.006270474
0.20763043 0.102217555 0.2470359 -0.0057777977 0.14033568 0.07431297 0.10876476 0.17543912
0.057276353 0.07035283 -0.19799319 -0.1292775 -0.08340859 0.11317429 0.23581968 0.058918145
-0.2317885 -0.10016609 0.15171222 0.14511281 -0.13442571 0.030058762 0.14152287 -0.08439353
-0.18985642 0.017257463 0.18351774 0.088708736 -0.15416306 -0.21933158 0.14355238 0.22691385
0.18334442 0.08484589 -0.13763309 -0.25123015 -0.16022107 0.06916927 -0.30035627 -0.11839645
-0.15850441 -0.049312998 0.13943751 -0.20092401 0.19964886 0.10782424 0.077152 -0.28299758
0.22138923 -0.0972821 0.22823404 0.10544633 0.10447532 -0.026357733 0.039992698 0.18674715
-0.13457869 0.11922583 -0.24701954 0.05816716 0.057823315 0.0682687 0.15364805 -0.08107621
0.14799851 0.25252545 -0.16645509 -0.28070214 -0.024894053 -0.25207746 0.087966636 -0.23262593
-0.04739088 0.1179901 -0.21181202 0.23066512 -0.04372729 -0.08215419 -0.05969807 -0.17612687
0.23262365 0.121689826 -0.013700348 -0.20308141 0.13002518 0.2567643 0.09567682 0.0471788
-0.15305458 0.044298943 0.06528932 0.19451302 -0.12408035 -0.20243427 0.14696674 -0.019675978
-0.13185376 -0.1717752 -0.20129864 0.08258845 -0.171951 0.19915487 0.20426741 0.15274115
00000000: ac18 5d3c 6069 89be 41f6 95be 7773 353e
00000010: ecd1 10be 43e2 d1bc 3875 b33c cc79 13be
00000020: 02c0 bf3c 2078 35be 9391 bc3d 5fd9 42be
00000030: 824e 85bc 890f b83d d11b 30be 927c 89be
00000040: 2178 f63d 939b 96bd 223c e83d ffe5 673e
00000050: 8f5a 673e a872 adbd 2eea 4c3e fd09 3c3e
00000060: f92a cf3d 8f88 3bbe 7512 013e a698 52be
00000070: 9e64 34bc d066 70be b17f 193e 756d 1fbe
00000080: c729 103e c486 443e f0e9 233d fc9a af3c
00000090: 5167 c33d 1731 8abe c091 913e be34 b33d
000000a0: b82b b93d 2c32 a53e 2fb5 5c3e 66d0 43bd
000000b0: 5c4b 643d 9066 403d f590 6f3e 85e2 ce3d
000000c0: 303a 033e 0ed8 19bd 18ee cc3c b7da 9c3d
000000d0: 3c8f 38bd d0db c33d 7f92 96bd 34d8 10be
000000e0: 352a 663e 292d ad3c d334 4a3e 1615 02bd
000000f0: 0fce 84be 27f0 59be c9f4 84be 5c0d b23d
00000100: f68c ce3d 1327 38be 6392 a93d c6a2 713e
00000110: 27e7 d4bd d362 ec3d d6b0 c33d ce06 60bd
00000120: 095a 023e 4145 34be 593d 03be 32f5 69be
00000130: bdd6 7bbe 0952 e73d bbff ff3c 130c 68be
00000140: 1eeb 8f3e 7f46 a43c a05b 80be 83da 2c3e
00000150: 378e e6bc 79ca 5cbe 6b7e a53d a5e6 7d3e
00000160: 2215 83bd 63f7 80be de47 46be a849 95be
00000170: 710d 45bc ffbe e4bd 75fb 933c 4eb9 d33c
00000180: c00e cabd 5733 5fbe 6542 61be 6754 6e3d
00000190: 595f 2abe 4f32 6b3d 4ffd 5bbe 306b abbd
000001a0: 1b59 beba 641e 3a3e e19e 6abe e515 e8bd
000001b0: e4dc 30be 0822 5dbe bd4e 24be 1522 063d
000001c0: 9f8b 6cbe 8e3e 403e a83a 143e 4866 603e
000001d0: 1730 fcbd c4b5 72be 8327 883d 456d 07be
000001e0: eadc 35be 1e89 aa3d 9be1 36bd ac4c 273e
000001f0: b1c4 85be 61fb 5dbe ef90 8dbd 1a07 5ebe
00000200: dc5f 493d d418 e13d 0221 093e ffef 433e
00000210: e30e b73d 79a8 143e 1c5e 50bd b4aa 1d3d
00000220: 3458 703e 3d3b 323e 2562 1bbd c97a 72be
00000230: 5517 723d 63cc 8c3e 979c 7dbe fcb0 8bbd
00000240: a540 e83c f9f6 57b9 fa99 46be 1b7f 0e3e
00000250: 0d30 16be f523 76be f9df 8e3d 8c78 cdbb
00000260: 129d 543e 7057 d13d fbf6 7c3e ae53 bdbb
00000270: 28b4 0f3e 6631 983d 0fc0 de3d 50a6 333e
00000280: 9c9a 6a3d 2515 903d babe 4abe 5261 04be
00000290: 1fd2 aabd ecc7 e73d b77a 713e 2754 713d
000002a0: f759 6dbe e123 cdbd 735a 1b3e 7498 143e
000002b0: e5a6 09be cb3d f63c 5feb 103e 84d6 acbd
000002c0: b969 42be 865f 8d3c 13ec 3b3e edac b53d
000002d0: ecdc 1dbe 7598 60be 65ff 123e 1b5c 683e
000002e0: a4be 3b3e afc3 ad3d b0ef 0cbe 3da1 80be
000002f0: fe10 24be 9ea8 8d3d 4cc8 99be d779 f2bd
00000300: fb4e 22be 6dfc 49bd b5c8 0e3e 06bf 4dbe
00000310: c070 4c3e f5d2 dc3d de01 9e3d 0fe5 90be
00000320: dcb3 623e d63b c7bd 2fb6 693e 3ff4 d73d
00000330: 28f7 d53d 2cec d7bc 62cf 233d a53a 3f3e
00000340: ffce 09be ac2c f43d b1f2 7cbe b040 6e3d
00000350: 24d8 6c3d 76d0 8b3d ea55 1d3e 490b a6bd
00000360: ec8c 173e 044b 813e 3473 2abe 31b8 8fbe
00000370: 9dee cbbc 4c10 81be da27 b43d 7e35 6ebe
00000380: f01c 42bd cba4 f13d 40e5 58be 7a33 6c3e
00000390: 631b 33bd 7540 a8bd f785 74bd 9a5a 34be
000003a0: e534 6e3e 8438 f93d 6d77 60bc 93f4 4fbe
000003b0: 5225 053e 9c76 833e 35f2 c33d 8f3e 413d
000003c0: 57ba 1cbe cf72 353d 68b6 853d 6c2e 473e
000003d0: d71d febd ee4a 4fbe 737e 163e 842f a1bc
000003e0: ac04 07be d7e5 2fbe 3b21 4ebe 2224 a93d
000003f0: ec13 30be 41ef 4b3e 7a2b 513e 2d68 1c3e

layers.0.bias f4 [64]
-0.1118527 0.110772416 -0.12371521 0.05866558 -0.059626926 -0.26831156 -0.032272134 -0.05907869
0.31106842 0.23443832 -0.28219286 0.03798282 0.016895436 -0.08052808 0.1826149 0.10315404
0.004360918 0.0418137 -0.06292498 -0.14602362 -0.08495196 0.045363773 0.15238862 0.123105586
-0.21704045 0.1749695 0.22201581 -0.2711076 -0.06815806 0.016141208 0.041045506 -0.048843857
-0.17800395 0.009213919 -0.2030818 0.089779295 0.120381646 -0.028302051 -0.041145798 -0.2081052
-0.19954726 0.23436558 -0.08958226 -0.048748814 0.09346391 -0.16551785 -0.23356171 -0.026802948
-0.08079734 0.11134168 0.09928698 0.08466002 0.16341114 0.038393833 0.21074203 -0.04540344
-0.23156182 -0.031683624 0.071243085 0.013728939 -0.105628215 0.24373661 -0.0413187 0.17069432
00000000: 0713 e5bd a6dc e23d 665e fdbd 524b 703d
00000010: 5d3b 74bd 2260 89be c92f 04bd 7ffc 71bd
00000020: 5c44 9f3e 9910 703e 957b 90be e093 1b3d
00000030: 4c68 8a3c e8eb a4bd 66ff 3a3e 6d42 d33d
00000040: 08e6 8e3b d844 2b3d d0de 80bd 3787 15be
00000050: 4bfb adbd 5dcf 393d c30b 1c3e c81e fc3d
00000060: da3f 5ebe 342b 333e 1d58 633e 9ece 8abe
00000070: 7496 8bbd 913a 843c 551f 283d 7f10 48bd
00000080: ab46 36be faf5 163c adf4 4fbe 35de b73d
00000090: a78a f63d b4d9 e7bc 7f88 28bd 8819 55be
000000a0: 1e56 4cbe 88fd 6f3e e776 b7bd d6ac 47bd
000000b0: 026a bf3d 837d 29be cd2a 6fbe db91 dbbc
000000c0: 1379 a5bd 1b07 e43d f956 cb3d 3c62 ad3d
000000d0: 4055 273e da42 1d3d c2cc 573e f5f8 39bd
000000e0: 8b1e 6dbe b0c6 01bd e5e7 913d 58ef 603c
000000f0: 9b53 d8bd 1796 793e cc3d 29bd 7eca 2e3e

layers.3.weight f4 [32, 64]
-0.0559889 0.022831893 0.028294832 -0.004826513 -0.046002045 -0.054276824 0.09191394 -0.036267515
-0.02055511 0.058886327 0.0807754 -0.17533161 -0.061025325 -0.004198912 0.11674448 0.09619784
-0.11044213 -0.083591335 0.053088535 0.060057785 -0.020829322 -0.012068339 0.077412084 0.054430045
0.09898262 0.096462816 0.03747709 -0.012376482 0.08652936 -0.0799471 -0.06608946 -0.029012602
-0.090413995 -0.09707933 -0.0647067 -0.118566476 0.05965305 0.11010029 0.12645239 -0.0003786786
0.113258265 0.09921762 -0.0009469658 0.04302202 0.038254246 0.0022153836 -0.028582502 0.09986489
0.08909122 -0.006706907 -0.044366237 -0.1142209 -0.093428716 -0.12629406 0.087988324 -0.10414219
-0.12818217 -0.121789455 0.09887457 -0.10253857 -0.056713644 -0.0357181 0.07807552 0.09759542
-0.049325477 -0.085866615 0.06218152 0.057203647 0.116911456 -0.11070494 0.16341738 -0.046617243
0.013265661 -0.039357584 0.12619524 -0.07521653 -0.17488343 0.006542172 0.028196646 0.062216453
-0.07382925 0.11978885 0.10512052 -0.046370223 -0.01580123 -0.06398754 -0.010048608 0.104045875
-0.04818755 -0.13617085 -0.058413405 -0.07596343 -0.014894696 -0.08372329 -0.06551435 -0.13005537
0.082008414 0.122061044 -0.02687538 0.059129152 -0.065004185 0.041988224 0.03596882 -0.0077683106
0.14873223 -0.12848152 -0.080379784 -0.090940535 -0.03060332 0.032146025 0.19241522 0.052938364
-0.060332377 -0.1388808 0.0069205575 -0.07531561 0.07454922 0.0061915945 -0.124850325 -0.104252465
-0.031056577 0.14201486 0.014211372 -0.08679615 -0.086166404 0.05169334 -0.077286266 -0.012810884
0.079835996 -0.015545841 -0.07827237 0.08782603 0.03972022 -0.040729772 0.07003121 -0.10552083
-0.13231412 -0.15693977 0.022020342 0.04432755 0.022258317 -0.01902876 -0.10318428 -0.028859464
-0.0696462 -0.1092015 -0.12203306 0.003378645 0.10853805 0.08390013 0.12325254 0.053903453
0.004286284 -0.14137593 0.08488743 0.10729781 -0.026339952 0.013263898 -0.014264482 -0.031018328
0.009726698 -0.054752246 -0.082660116 -0.008991401 -0.073842496 -0.052879304 0.061237127 -0.0040642796
-0.027724897 -0.08783917 -0.13753513 0.020900544 -0.068744235 0.042625304 -0.13510777 0.020044573
-0.023585258 -0.12638094 0.012077895 0.0795514 0.13611306 0.116428226 -0.107913814 -0.11681319
0.041343376 -0.047623746 0.11650862 -0.12471032 -0.090776436 -0.02385024 0.1545159 -0.051775817
0.12894185 -0.07981597 0.015008199 0.034921467 0.12152855 -0.034876566 0.10005764 0.0032350665
-0.04681517 -0.018440444 -0.05651932 0.0044997684 0.11324494 -0.09559667 0.008336254 -0.04664956
-0.01262731 0.08263611 -0.05129499 -0.11227854 0.039329633 0.011106009 0.10052696 -0.11374199
-0.09062796 0.108220235 -0.09300091 -0.124736376 -0.14364807 0.0005962354 -0.052097797 0.11019905
0.04925749 -0.046919838 -0.0099675525 -0.0013363722 0.033452813 -0.09659246 -0.040292937 -0.08797727
-0.051418625 -0.10072148 -0.014980325 0.052454155 0.07164516 -0.026978508 -0.076234244 -0.034235142
0.02730927 -0.039125178 -0.115581825 0.11862572 -0.11843973 -0.09850603 0.10945964 -0.07637014
-0.05287526 -0.0857231 -0.026094921 -0.0990157 0.022583695 -0.006966475 -0.01944269 0.03200415
00000000: 9e54 65bd f309 bb3c 90ca e73c ba27 9ebb
00000010: a46c 3cbd 6051 5ebd 603d bc3d 3f8d 14bd
00000020: 3163 a8bc ca32 713d 936d a53d 218a 33be
00000030: b1f5 79bd 0797 89bb bb17 ef3d 6003 c53d
00000040: 7c2f e2bd ef31 abbd 5d73 593d 27ff 753d
00000050: 41a2 aabc 48ba 45bc 3a8a 9e3d 0af2 5e3d
00000060: 66b7 ca3d 4c8e c53d 9481 193d bac6 4abc
00000070: 4e36 b13d 4ebb a3bd e959 87bd d6ab edbc
00000080: f92a b9bd 87d1 c6bd f284 84bd fbd2 f2bd
00000090: c256 743d 437c e13d bc7c 013e 6289 c6b9
000000a0: f3f3 e73d 9c32 cb3d cd3d 78ba dc37 303d
000000b0: 7cb0 1c3d f82f 113b da25 eabc f785 cc3d
000000c0: 7575 b63d 9dc5 dbbb 5fb9 35bd a6ec e9bd
000000d0: 8e57 bfbd 3b53 01be 3933 b43d 8048 d5bd
000000e0: 3042 03be c06c f9bd c07e ca3d beff d1bd
000000f0: 914c 68bd 244d 12bd 0fe6 9f3d 1ce0 c73d
00000100: 8309 4abd d6da afbd 0db2 7e3d 5f4e 6a3d
00000110: 466f ef3d 46b9 e2bd e356 273e b9f1 3ebd
00000120: 3758 593c 6b35 21bd 5339 013e 200b 9abd
00000130: a414 33be b75f d63b a7fc e63c aed6 7e3d
00000140: ca33 97bd db53 f53d 6d49 d73d b4ee 3dbd
00000150: 9571 81bc e60b 83bd eba2 24bc 0116 d53d
00000160: 4f60 45bd 5f70 0bbe e542 6fbd b792 9bbd
00000170: e208 74bc 1e77 abbd 632c 86bd 3c2d 05be
00000180: 07f4 a73d 24fb f93d c229 dcbc 6931 723d
00000190: ea20 85bd d8fb 2b3d 0b54 133d 508d febb
000001a0: 434d 183e a990 03be 289e a4bd 083f babd
000001b0: d0b3 fabc 8dab 033d 7f08 453e e6d5 583d
000001c0: 151f 77bd c536 0ebe d8c5 e23b 123f 9abd
000001d0: 43ad 983d dce2 ca3b 87b1 ffbd 5182 d5bd
000001e0: 5d6a febc 586c 113e d0d6 683c 2ec2 b1bd
000001f0: 0378 b0bd 65bc 533d 4348 9ebd bee4 51bc
00000200: 0e81 a33d fcb3 7ebc 444d a0bd 22de b33d
00000210: abb1 223d 43d4 26bd 866c 8f3d 4e1b d8bd
00000220: 5a7d 07be d2b4 20be 0164 b43c ce90 353d
00000230: 1357 b63c 34e2 9bbc 4852 d3bd af6a ecbc
00000240: aba2 8ebd 09a5 dfbd 78ec f9bd 426c 5d3b
00000250: 3249 de3d d5d3 ab3d d46b fc3d dec9 5c3d
00000260: f573 8c3b dac4 10be 76d9 ad3d f4be db3d
00000270: e2c6 d7bc d250 593c 93b5 69bc 261a febc
00000280: ba5c 1f3c e443 60bd b549 a9bd ab50 13bc
00000290: bc3a 97bd f897 58bd c8d3 7a3d a62d 85bb
000002a0: 531f e3bc 06e5 b3bd 02d6 0cbe 9e37 ab3c
000002b0: c7c9 8cbd df97 2e3d b159 0abe 8434 a43c
000002c0: df35 c1bc 016a 01be 5de2 453c d8eb a23d
000002d0: 3961 0b3e ec71 ee3d eb01 ddbd c13b efbd
000002e0: ac57 293d 1e11 43bd 129c ee3d 2068 ffbd
000002f0: ffe8 b9bd 9461 c3bc 6b39 1e3e e112 54bd
00000300: 5509 043e 8e76 a3bd f3e4 753c d009 0f3d
00000310: f6e3 f83d bbda 0ebd 05eb cc3d 6903 543b
00000320: 44c1 3fbd 6a10 97bc cd80 67bd cb72 933b
00000330: f7ec e73d 30c8 c3bd c994 083c 9c13 3fbd
00000340: c7e2 4ebc 1f3d a93d b21a 52bd 4bf2 e5bd
00000350: 1c18 213d faf5 353c 14e1 cd3d 8ff1 e8bd
00000360: 279b b9bd 92a2 dd3d 4377 bebd c975 ffbd
00000370: 7b18 13be ae4c 1c3a 8064 55bd 0ab0 e13d
00000380: 39c2 493d 042f 40bd f24e 23bc 3629 afba
00000390: d105 093d 45d2 c5bd 350a 25bd 6d2d b4bd
000003a0: 569c 52bd 1047 cebd 0970 75bc 2bda 563d
000003b0: b3ba 923d 0802 ddbc b320 9cbd 263a 0cbd
000003c0: b1b7 df3c b941 20bd 2ab6 ecbd 0bf2 f23d
000003d0: 8790 f2bd 88bd c9bd 602c e03d f367 9cbd
000003e0: bb93 58bd 988f afbd 04c5 d5bc bec8 cabd
000003f0: 7101 b93c 0747 e4bb 4746 9fbc c916 033d

layers.3.bias f4 [32]
0.073299885 -0.04054568 -0.009063365 0.054759856 -0.010570303 -0.0013868336 -0.06998265 0.00863838
0.05505899 -0.07669594 0.111982994 -0.09516163 0.019479714 0.10144071 -0.18782955 -0.018277412
0.124382816 -0.13711907 0.0031624732 -0.0068138028 -0.04030753 0.034579962 -0.10404401 0.10598817
0.033183135 0.10509565 0.057855226 0.061848257 0.06468605 -0.026103621 -0.14682461 -0.08471209
00000000: 401e 963d 3a13 26bd 827e 14bc df4b 603d
00000010: 102f 2dbc 6ac6 b5ba 1053 8fbd fe87 0d3c
00000020: 8985 613d c312 9dbd 5757 e53d 1ae4 c2bd
00000030: ec93 9f3c 26c0 cf3d 6456 40be 83ba 95bc
00000040: 6bbc fe3d f168 0cbe 7f41 4f3b 5246 dfbb
00000050: 8219 25bd b8a3 0d3d 0715 d5bd 5310 d93d
00000060: 0aeb 073d 633c d73d 9af9 6c3d 9954 7d3d
00000070: 1f7a 843d 43d7 d5bc 3159 16be 887d adbd

layers.6.weight f4 [1, 32]
-0.054825656 -0.1679884 0.14767124 0.038358267 -0.09023988 -0.1727647 -0.21369223 -0.072084896
-0.14321013 -0.07381626 -0.019533658 -0.21959303 -0.034994837 -0.107663594 0.11689037 -0.22509599
-0.043606568 0.1317185 -0.015688064 -0.14794956 0.040083896 0.018939976 0.06352227 0.09706848
0.075370334 -0.23770787 -0.17458495 -0.08467206 -0.2387912 -0.13696817 -0.093655095 -0.012389936
00000000: de90 60bd 2705 2cbe 2137 173e 8f1d 1d3d
00000010: b0cf b8bd 3be9 30be 23d2 5abe 3fa1 93bd
00000020: ada5 12be fb2c 97bd 0d05 a0bc ffdc 60be
00000030: bf56 0fbd bb7e dcbd 3864 ef3d 907f 66be
00000040: cd9c 32bd 37e1 063e 4184 80bc 1780 17be
00000050: 032f 243d 0228 9b3c f717 823d d7cb c63d
00000060: c35b 9a3d b169 73be 66c6 32be 8c68 adbd
00000070: ae85 74be 6241 0cbe 3ece bfbd 28ff 4abc
