model_checkpoints/params_round_1.npz (npz, 14022 bytes, 5 tensors)

arr_0 f4 [64, 15]
0	0x3a71cae2	0.00092236523
1	0x3ced608c	0.028976701
2	0x3e0a8106	0.13525781
3	0xbe650611	-0.22365595
4	0x3e384e1e	0.1799855
5	0xbd7fc8ba	-0.062447287
6	0xbd5e42b2	-0.054262824
7	0x3ddea827	0.10871916
8	0x3e156a40	0.14591312
9	0x3d6c490b	0.057686847
10	0x3e59cdba	0.21269885
11	0x3e3d53c0	0.1848898
12	0xbcd6e63b	-0.02623283
13	0xbe2fca1f	-0.17166947
14	0x3d534554	0.05157979
15	0xbc92acc2	-0.017904643
16	0x3dc7c00e	0.097534284
17	0x3df15914	0.117845684
18	0xbe2d0a75	-0.1689852
19	0x3e49e1a3	0.1971498
20	0xbd8b132c	-0.06790766
21	0x3e560d3e	0.20903489
22	0x3dab7320	0.08371568
23	0xbc4b959e	-0.012425808
24	0xbe62d962	-0.22153237
25	0xbe081963	-0.13290934
26	0xbe3df65e	-0.18551013
27	0xbdaf7884	-0.085679084
28	0xbe80b852	-0.25140625
29	0xbdbd811c	-0.09253141
30	0x3e2ddd8a	0.16979042
31	0xb9a6dad4	-0.00031825027
32	0xbd4d024c	-0.05005102
33	0xbe153b2a	-0.1457335
34	0x3e5bce26	0.21465358
35	0x3dbcbe0a	0.092159346
36	0xbceb988c	-0.028759263
37	0x3dbb8645	0.09156469
38	0xbe29401f	-0.16528367
39	0x3e563790	0.20919633
40	0x3d841167	0.06448632
41	0x3e2e11fc	0.16999048
42	0xbe147f20	-0.1450162
43	0x3e583e30	0.21117473
44	0x3e05bd33	0.13060455
45	0x3e9116c3	0.28337678
46	0xbe57b614	-0.21065551
47	0xbd51501c	-0.05110179
48	0x3e400a82	0.18754008
49	0xbd5b00c3	-0.053467523
50	0xbdf1c705	-0.11805538
51	0xbde5020b	-0.1118203
52	0x3e5443be	0.20728967
53	0x3e06e970	0.13174987
54	0x3e0471a4	0.12933975
55	0x3e17409b	0.14770739
56	0xbdedcfd6	-0.11611907
57	0xbe063eec	-0.1310994
58	0xbe7c3d6a	-0.24632803
59	0xbd92aa55	-0.071613945
60	0xbe0c122a	-0.13678804
61	0xbd482fef	-0.048873838
62	0x3e06d348	0.13166535
63	0x3dd305d8	0.10303849
64	0xbcfcec38	-0.030874357
65	0x3be931df	0.007116541
66	0xbe1b3036	-0.1515511
67	0x3e5aea7e	0.21378514
68	0x3e7e05cc	0.24806899
69	0x3e6b36c8	0.22970116
70	0xbe45ac35	-0.19303973
71	0xbd8a5cfa	-0.06756015
72	0xbda78df3	-0.081813715
73	0xbe148188	-0.14502537
74	0xbe0a2a42	-0.13492683
75	0xbe051e1b	-0.12999766
76	0xbe6ba4d9	-0.23012103
77	0xbdaa86d6	-0.08326499
78	0xbd883758	-0.06651181
79	0xbe392e06	-0.18083963
80	0x3e6c5adc	0.23081535
81	0xbe5ca236	-0.21546254
82	0x3dda0a6f	0.10646521
83	0xbdf884e2	-0.121347204
84	0x3e3b4c35	0.1829079
85	0x3d98fb0c	0.074697584
86	0x3e0ce64c	0.13759726
87	0xbe658b3a	-0.22416392
88	0x3e34201b	0.17590372
89	0xbd3d3812	-0.04619605
90	0x3db172dc	0.08664486
91	0xbdcaba54	-0.098988205
92	0x3e0ba708	0.13637936
93	0xbdd4b8b4	-0.10386792
94	0x3d92d12a	0.07168801
95	0x3e185946	0.14877805
96	0xbe82d662	-0.25554186
97	0x3e64b7d8	0.22335756
98	0xbe6907c2	-0.22756866
99	0xbdf12d66	-0.11776237
100	0x3c4da760	0.012552112
101	0xbe0020f5	-0.12512572
102	0xbe6ae6f0	-0.22939658
103	0x3e0030c0	0.12518597
104	0x3e1bc67c	0.15212435
105	0xbe303ce9	-0.17210735
106	0x3b1e54bc	0.0024159392
107	0xbe483dc0	-0.19554806
108	0xbdb07e33	-0.086178206
109	0xbe088651	-0.13332488
110	0xbd8bcea7	-0.06826525
111	0x3d78bfca	0.06072978
112	0xbdbfdc56	-0.093681976
113	0x3cf2424e	0.029572632
114	0xbdb44018	-0.088012874
115	0xbe83b266	-0.25722045
116	0xbe2de868	-0.16983187
117	0x3de7c3b8	0.11316627
118	0xbe286e1c	-0.16448253
119	0x3e6e63b2	0.23280218
120	0xbe1094ba	-0.14119235
121	0xbd0f1cf0	-0.034939706
122	0x3e80f964	0.2519027
123	0xbe5aac06	-0.21354684
124	0xbe795bfe	-0.24351498
125	0xbd7c7a87	-0.06164029
126	0x3d6f72a6	0.058458947
127	0xbda6b4cd	-0.08139954
128	0xbda79702	-0.08183099
129	0x3dd371b2	0.1032442
130	0xbe5cfa98	-0.21579969
131	0xbe77ab02	-0.24186328
132	0x3d5546ca	0.052069463
133	0x3e7a995c	0.24472564
134	0xbd51c040	-0.051208735
135	0x3e136d5e	0.14397189
136	0xbdbf6f35	-0.09347383
137	0x3dddbbfe	0.10826872
138	0x3ca768ce	0.020435717
139	0xbe37a2d6	-0.1793321
140	0xbe0c46c9	-0.13698877
141	0xbe2ba75a	-0.16763058
142	0xbdc66646	-0.09687476
143	0x3e7b0031	0.24511792
144	0xbe5a02c1	-0.21290113
145	0xbe1628a6	-0.14663944
146	0x3e15d221	0.14630939
147	0x3e6acb2e	0.2292907
148	0xbd8e8090	-0.06958115
149	0x3e1a1310	0.15046334
150	0x3e2c6ad6	0.1683763
151	0xbd97b60d	-0.0740777
152	0xbe8153f4	-0.25259364
153	0x3e21d032	0.15802076
154	0x3d956fb2	0.07296695
155	0x3db87416	0.09006517
156	0x3e3d75e3	0.18502001
157	0xbe837f2e	-0.25682968
158	0xbe14afaa	-0.14520136
159	0xbe65b9b4	-0.22434121
160	0x3d1941e9	0.037416372
161	0xbd41aa9e	-0.047281854
162	0xbe523da4	-0.20531327
163	0xbe4fceb6	-0.20293698
164	0x3d9cc8a5	0.076554574
165	0x3db8366d	0.08994756
166	0xbc8f9e0c	-0.017531417
167	0x3e24ce59	0.1609434
168	0x3df18d27	0.11794501
169	0x3e204014	0.15649444
170	0x3db438a4	0.08799866
171	0x3e1fef3a	0.15618601
172	0xbe0c705d	-0.13714738
173	0x3e168ed3	0.1470292
174	0x3ba7c33c	0.0051197093
175	0xbe025128	-0.12726271
176	0xbdd7511e	-0.10513519
177	0x3e83727c	0.25673282
178	0xbe805350	-0.25063562
179	0x3db405cb	0.087901674
180	0xbc01961b	-0.007909323
181	0x3e05b3f2	0.13056925
182	0x3e0dd3fa	0.13850394
183	0x3e5e177a	0.21688643
184	0x3d98ebc2	0.07466842
185	0x3cd19a2a	0.025586206
186	0x3e289394	0.16462547
187	0xbdcedde4	-0.10100916
188	0x3e765eb4	0.24059564
189	0x3e3fd072	0.1873186
190	0x3cd4681a	0.025928546
191	0x3d582796	0.052772127
192	0xbe211fe7	-0.15734826
193	0xbe411088	-0.18853962
194	0x3e27ac04	0.16374213
195	0x3e5021f2	0.20325449
196	0x3e0edf99	0.13952483
197	0x3d3139a6	0.04326787
198	0x3daeb2bd	0.08530185
199	0x3de39d50	0.11113989
200	0x3e6a21a0	0.2286439
201	0x3dcdced9	0.10049219
202	0xbdcf921e	-0.101352915
203	0x3e7ab7ca	0.24484172
204	0x3e52c436	0.20582661
205	0x3de17cc4	0.11010125
206	0xbe42fa04	-0.19040686
207	0x3de4a6b6	0.1116461
208	0x3e5a4bee	0.21318027
209	0x3d4e5256	0.05037149
210	0x3d3bc542	0.045842417
211	0x3d502821	0.05081952
212	0x3cd98774	0.026553847
213	0x3d2a9f4b	0.04165582
214	0xbe40fe42	-0.18846992
215	0xbde06e52	-0.10958542
216	0x3e5e6f0a	0.21722046
217	0x3e7aee3b	0.2450494
218	0x3e5ebd09	0.21751799
219	0xbe1210ca	-0.14264217
220	0x3db9ef84	0.09078887
221	0x3e63e756	0.22256216
222	0xbca6ba61	-0.020352544
223	0x3ddb597f	0.107104294
224	0x3e06e542	0.13173392
225	0x3dd37914	0.10325828
226	0xbd2ba97d	-0.041909683
227	0xbd9e7b98	-0.077384174
228	0x3e63318a	0.22186866
229	0xbd2746ed	-0.040839124
230	0x3dd534e8	0.10410482
231	0xbe6c0e00	-0.23052216
232	0x3e441d36	0.19151768
233	0xbdd69ee1	-0.104795225
234	0xbd8ef60e	-0.06980525
235	0xbe2f8050	-0.17138791
236	0x3e62e010	0.22155786
237	0xbe3667be	-0.17813012
238	0x3e52e468	0.20594943
239	0x3c6e25c5	0.014535372
240	0x3e550b58	0.20805109
241	0x3dd9862a	0.10621293
242	0x3dda46de	0.10658048
243	0xbe25339e	-0.16132972
244	0x3e4ef6ae	0.20211288
245	0x3b9d56f3	0.004801625
246	0x3df11156	0.11770885
247	0xbe1e30f7	-0.15448366
248	0x3dffecae	0.12496315
249	0xbe616bee	-0.22013828
250	0x3d5a5cac	0.053311035
251	0x3e83753f	0.2567539
252	0x3bbd39e2	0.0057747224
253	0x3e567ec6	0.20946798
254	0xbe41c902	-0.18924335
255	0xbe8200b8	-0.25391173

arr_1 f4 [64]
0	0xbdd8f86c	-0.10594258
1	0xbe5fbd2b	-0.21849506
2	0xbe3f0246	-0.18653211
3	0x3e890268	0.26759648
4	0xbac76766	-0.001521331
5	0x3e609250	0.21930814
6	0x3daebe06	0.08532338
7	0x3d2d239e	0.042270295
8	0xbde71ed2	-0.112851754
9	0x3e59d78c	0.21273631
10	0xbd93ef3d	-0.072233655
11	0x3bbeff88	0.0058288015
12	0x3e8bf39b	0.27334294
13	0xbe0e6ed2	-0.13909462
14	0xbe75561e	-0.23958632
15	0xbcd83596	-0.02639274
16	0x3e5d87ec	0.21633881
17	0x3da209e6	0.07912044
18	0x3da1b00a	0.07894905
19	0x3c1722ed	0.009224636
20	0x3e41b2ac	0.18915814
21	0x3e3ffc2d	0.18748541
22	0x3e8bd7c2	0.27313048
23	0x3dabc75e	0.08387636
24	0xbdf11eac	-0.11773428
25	0x3caacf74	0.020850874
26	0x3e5fead8	0.2186693
27	0xbde30834	-0.11085549
28	0x3e78e77f	0.24307059
29	0xbe579a47	-0.21054946
30	0x3d8a7899	0.067612834
31	0x3dbf77fe	0.093490586
32	0xbe212be6	-0.15739402
33	0xbddea2e0	-0.1087091
34	0x3e6738c6	0.22580251
35	0x3d7111ee	0.05885499
36	0x3daf2f16	0.08553903
37	0x3dd8069c	0.10548136
38	0xbe136f75	-0.14397986
39	0x3e80505f	0.25061318
40	0x3e6a6d5a	0.22893277
41	0xbe2c64f4	-0.16835386
42	0x3d13d4ec	0.03609173
43	0x3c24e991	0.010065452
44	0x3d983cd3	0.07433476
45	0xbdadf0dd	-0.08493207
46	0x3d0923f2	0.033481546
47	0xbe1cf00e	-0.15325949
48	0x3daff3ce	0.08591424
49	0x3e2f8eea	0.17144361
50	0xbd329c8c	-0.043606326
51	0x3d91de28	0.07122451
52	0xbdc85098	-0.09780997
53	0xba082335	-0.00051932345
54	0x3e168610	0.14699578
55	0xbe6a92ba	-0.22907534
56	0xbd602c29	-0.054729614
57	0x3e04d56e	0.12972042
58	0x3d7b5d68	0.061368376
59	0x3e8189d2	0.2530046
60	0x3dcdb50e	0.10044299
61	0x3b599e82	0.003320605
62	0xbae61b9e	-0.0017555838
63	0xbe2d4a72	-0.1692293

arr_2 f4 [32, 64]
0	0x3d83018e	0.06396781
1	0x3d2cf6e2	0.042227633
2	0x3df04b34	0.11733094
3	0xbd222f34	-0.039595798
4	0xbd7b7b7c	-0.06139706
5	0x3a8825d8	0.0010387255
6	0x3d862ebe	0.06551884
7	0x3c0477e7	0.008085228
8	0x3ddbe99e	0.10737918
9	0xbdeba58f	-0.11506187
10	0x3dae5a8a	0.08513363
11	0xbd2e9008	-0.042617828
12	0x3d2dd4b1	0.042439166
13	0xbd3c1a5c	-0.045923576
14	0xbd930c4a	-0.07180078
15	0x3d690342	0.056887873
16	0xbddf352a	-0.10898812
17	0xbdd74ae8	-0.10512334
18	0xbd28ffee	-0.0412597
19	0xbd888b99	-0.06667251
20	0xbd91a5da	-0.07111712
21	0xbb64e2f4	-0.0034925314
22	0x3d271ddc	0.04079996
23	0xbde0e444	-0.10981038
24	0x3d76a46e	0.060215406
25	0xbdd79d82	-0.10528089
26	0x3deaf345	0.11472181
27	0xbc973cc4	-0.018461592
28	0x3ccc1506	0.024912369
29	0xbdfb9246	-0.12283759
30	0xbdfde96e	-0.12398039
31	0x3d86bec6	0.06579356
32	0xbdffd4b8	-0.12491745
33	0x3b711984	0.003678889
34	0x3c38a379	0.011269444
35	0x3dedc152	0.116091385
36	0xbd7ba640	-0.061437845
37	0xbd0dbfbf	-0.03460669
38	0xbdbf7660	-0.0934875
39	0x3d958204	0.07300189
40	0xbddbe978	-0.1073789
41	0x3cd6a12e	0.026199903
42	0xbd0869e7	-0.03330412
43	0x3dda23c8	0.10651356
44	0x3d2f09e6	0.04273405
45	0x3d53ccca	0.051708974
46	0x3d951e7e	0.072812065
47	0x3cef9199	0.029244231
48	0xbd7bacd4	-0.06144412
49	0x3d84bf2e	0.06481777
50	0x3c5624ab	0.013070266
51	0xbd892d64	-0.06698111
52	0xbd058638	-0.032598704
53	0xbc433652	-0.011914806
54	0x3de21098	0.11038321
55	0xbdbfe396	-0.093695804
56	0x3dce26ae	0.10065971
57	0xbc93dfb2	-0.018051002
58	0xbe030402	-0.12794498
59	0xbb85055a	-0.004059476
60	0xbd90a946	-0.07063536
61	0xbc60ca6a	-0.013720134
62	0x3d980bbe	0.07424115
63	0x3dab5bae	0.08367096
64	0x3dcf720b	0.10129174
65	0xbd270b34	-0.04078217
66	0xbcfd3fe5	-0.030914256
67	0x3d75146c	0.05983393
68	0xbde1902e	-0.11013828
69	0x3c38ca80	0.0112787485
70	0xbd76f756	-0.06029447
71	0x3dd96eef	0.10616862
72	0xbcef9388	-0.029245153
73	0x3da38d95	0.07985989
74	0xbdb94e11	-0.09048093
75	0x3d905870	0.07048118
76	0xbd577fa3	-0.05261196
77	0xbdefba0a	-0.11705406
78	0xbd467236	-0.048448764
79	0x3d8ce8b6	0.068803236
80	0x3c4f565a	0.012654865
81	0x3d8a6c82	0.067589775
82	0x3d6c3a4c	0.057672784
83	0xbdd786fc	-0.10523793
84	0x3db840d0	0.08996737
85	0xbd4932ee	-0.049120836
86	0xbd80d76a	-0.06291087
87	0x3d6ec367	0.05829182
88	0x3d21787a	0.039421536
89	0x3de4ea84	0.11177543
90	0xbddcc4d0	-0.107797265
91	0xbb7e0e23	-0.003876575
92	0xbd81e29e	-0.06342052
93	0x3d1df567	0.038564112
94	0x3cb9f6bc	0.02270066
95	0xbd893677	-0.066998415
96	0xbd57b406	-0.052661918
97	0xbdf80c3c	-0.121117085
98	0xbce8ca66	-0.028416824
99	0x3bb0a95e	0.005391284
100	0x3ccf7a86	0.025326978
101	0xbde138ff	-0.10997199
102	0x3dd64f76	0.10464375
103	0xbda7e670	-0.08198249
104	0xbd8f1346	-0.06986098
105	0x3dbfa396	0.093573734
106	0xbc660eb4	-0.014041591
107	0x3d0cab30	0.034342945
108	0x3d8a5b4e	0.06755696
109	0xbd138928	-0.036019474
110	0xbc5ca0ac	-0.013466042
111	0x3d55087f	0.052010056
112	0xbdf222dd	-0.11823056
113	0xbd8a1289	-0.067418166
114	0x3dcd781f	0.10032677
115	0x3db77abe	0.08958958
116	0xbdd746c8	-0.10511547
117	0xbde9c39c	-0.11414263
118	0xbd7534ce	-0.05986481
119	0xbc913db4	-0.017729618
120	0x3da91cf8	0.082574785
121	0xbd3c81b0	-0.046022117
122	0xbbd70cc8	-0.006562803
123	0xbde08ad6	-0.10963981
124	0x3d1feab3	0.039042186
125	0xbdc79556	-0.097452804
126	0x3db31344	0.08743909
127	0xbb5c8a17	-0.0033651644
128	0xbc93547e	-0.017984625
129	0x3d167a73	0.03673787
130	0x3d181205	0.03712656
131	0x3d9d469c	0.07679483
132	0x3dd9cdd0	0.10634959
133	0xbd56f204	-0.052476898
134	0x3d586708	0.052832633
135	0xbdb316ba	-0.08744569
136	0xbb0be71a	-0.0021347464
137	0xbdb1922e	-0.0867046
138	0x3d3d0d7c	0.046155438
139	0xbc897edd	-0.016784126
140	0xbb1ee6a9	-0.002424637
141	0xbd55799b	-0.052117925
142	0x3d5ab47e	0.053394787
143	0x3b11b7c2	0.0022234772
144	0x3cd51e61	0.026015462
145	0xbd8d9e46	-0.06914954
146	0x3c12c978	0.008959167
147	0xbd3c99d6	-0.046045147
148	0xbcfe255e	-0.031023677
149	0xbc7984f2	-0.015229451
150	0x3e0dc5ec	0.13845032
151	0xbd54b64a	-0.051931657
152	0xbb922bba	-0.004460779
153	0x3db53b94	0.08849254
154	0x3d8cb9fe	0.06871413
155	0x3c787fb6	0.015167167
156	0xbd145e58	-0.036222786
157	0x3d3356b5	0.043783862
158	0xbdb85368	-0.090002835
159	0xbd977b15	-0.07396523
160	0xbd4e18ba	-0.05031655
161	0x39190bc0	0.00014595594
162	0xbdb5695a	-0.08857985
163	0x3d12a5ab	0.035802525
164	0x3dd349ff	0.10316848
165	0xbdde29ee	-0.10847841
166	0x3d80e6c1	0.06294013
167	0xbd305ee2	-0.043059237
168	0x3dbd54f2	0.09244718
169	0xbdfa2a8c	-0.122151464
170	0x3dd1e3db	0.10248538
171	0x3cca21cd	0.02467432
172	0xbbab4a5d	-0.0052273707
173	0x3c714b0a	0.014727363
174	0x3db46030	0.08807409
175	0x3e0fbf14	0.14037734
176	0x3ad8fdc9	0.0016555126
177	0x3e00864c	0.1255123
178	0x3c8ff2ca	0.017571826
179	0x3db1f3f6	0.0868911
180	0xbd2f6d29	-0.042828713
181	0x3ced1afd	0.028943533
182	0x3db854a2	0.090005174
183	0x3e014fde	0.12628123
184	0x3dc88b44	0.09792188
185	0x3de12ab6	0.109944746
186	0x3b5a9616	0.0033353618
187	0xbdc1272c	-0.094312996
188	0x3c8aa4f5	0.01692436
189	0x3ddfae64	0.10921934
190	0xbd1ac21c	-0.037782773
191	0x3d2357de	0.03987872
192	0xbd810f08	-0.06301695
193	0x3d012253	0.031526875
194	0x3de2794a	0.1105829
195	0xbd9d8afe	-0.07692526
196	0xbd67a725	-0.056555886
197	0x3cab09cd	0.020878697
198	0xbcd8cc7a	-0.02646469
199	0xbcfde2a8	-0.030991867
200	0x3d81b5ba	0.0633349
201	0xbd2a03b2	-0.04150743
202	0x3dd2bf8d	0.10290442
203	0x3d84e3b4	0.064887434
204	0x3dd1e59c	0.10248873
205	0x3dd30f4c	0.10305652
206	0xbd296f46	-0.041365884
207	0x3d2fdae8	0.042933375
208	0x3c8bd87c	0.017071001
209	0xbd8be6ec	-0.06831154
210	0xbdce43a0	-0.10071492
211	0x3d13c299	0.036074255
212	0xbca7c327	-0.020478798
213	0x3deda1da	0.11603136
214	0xbdd98ec8	-0.106229365
215	0xbd1b40da	-0.037903644
216	0xbdf58562	-0.119883314
217	0x3dc6c15c	0.09704849
218	0x3a6a340b	0.00089341466
219	0xbd6301de	-0.055421703
220	0x3de0dace	0.10979234
221	0x3c9aa8f6	0.018879395
222	0xbdc78fe0	-0.09744239
223	0x3ba0f0ea	0.0049115317
224	0xbdfc00f1	-0.12304867
225	0x3d9d168b	0.07670315
226	0x3cb60335	0.022218326
227	0xbdf36a66	-0.11885528
228	0xbd7e8234	-0.06213589
229	0x3dec63d2	0.11542477
230	0xbd8e9cfc	-0.06963536
231	0xbd214526	-0.039372586
232	0x3da28ff8	0.07937616
233	0x3deb8752	0.1150042
234	0xbca1184e	-0.01966491
235	0xbdefc1d4	-0.11706892
236	0x3d9504b9	0.072762914
237	0x3c184669	0.009294131
238	0x3d73937e	0.05946683
239	0x3cc6a274	0.024247386
240	0xbdeb20a0	-0.11480832
241	0x3d1b2254	0.037874535
242	0xbd463fea	-0.048400797
243	0xbd226984	-0.03965141
244	0x3c0d148b	0.008610855
245	0x3da1895d	0.07887528
246	0xbdd292f1	-0.10281933
247	0x3ba43beb	0.0050120256
248	0xbdeb5c13	-0.11492171
249	0xbc9decf9	-0.019278036
250	0x3cb6ec1a	0.022329379
251	0x3cd7d326	0.0263458
252	0xbd407530	-0.04698676
253	0xbd70b1da	-0.058763362
254	0xbccf5902	-0.025310997
255	0x3d14ce86	0.03632977

arr_3 f4 [32]
0	0xbd862a02	-0.06550981
1	0x3cfa3087	0.030540718
2	0xbb044d78	-0.0020187777
3	0xbd8ef3b8	-0.069800794
4	0x3dd28ce2	0.102807775
5	0x3da40dd2	0.080104485
6	0x3e125586	0.14290437
7	0xbddfde06	-0.109310195
8	0x3e1bd664	0.15218502
9	0xbdc687d1	-0.09693874
10	0x3b7ff7cf	0.0039057618
11	0xbd0649f2	-0.032785363
12	0x3d99f5a3	0.075175546
13	0xbcab2a86	-0.0208943
14	0x3d2232ba	0.039599158
15	0x3d832b9f	0.064048044
16	0x3e281bae	0.16416809
17	0xbd219aa4	-0.039454117
18	0x3e1c6b83	0.15275387
19	0x3dede37c	0.11615655
20	0xbe0296db	-0.1275286
21	0xbe060bdd	-0.13090463
22	0x3db8b954	0.090197235
23	0xbdcf42d8	-0.10120171
24	0xbc2390aa	-0.009983221
25	0x3e34f9c1	0.17673399
26	0x3dbf98ea	0.09355338
27	0xb8e8d440	-0.00011102157
28	0x3d488230	0.04895228
29	0xbd51f894	-0.051262453
30	0x3e2fbdf2	0.17162302
31	0x3d194444	0.03741862

arr_4 f4 [1, 32]
0	0x3d8e1dd8	0.06939286
1	0xbd7ec902	-0.062203415
2	0x3e0499a5	0.12949236
3	0xbdb14e1d	-0.08657477
4	0x3e1d56ff	0.15365218
5	0x3dbb091a	0.09132595
6	0x3db41f62	0.08795048
7	0xbd6fa57a	-0.05850742
8	0x3e068746	0.1313754
9	0xbb1cdc8d	-0.002393517
10	0x3df3b40e	0.11899577
11	0xbd30862c	-0.043096706
12	0x3c9fbcea	0.019499261
13	0xbe262de0	-0.16228437
14	0xbe12454f	-0.14284252
15	0x3e07817a	0.13232985
16	0x3db2b776	0.08726399
17	0xbdcd42e2	-0.100225225
18	0x3da9ef6b	0.082976185
19	0x3e0708c2	0.13186935
20	0xbda0d510	-0.078531384
21	0xbe151e66	-0.14562377
22	0x3e276cd2	0.16350105
23	0xbe2ecc58	-0.17070138
24	0x3e25197a	0.16123
25	0x3dd5eedd	0.1044595
26	0xbc18eaab	-0.009333293
27	0x3de48d41	0.111597545
28	0x3e0f6bef	0.14006017
29	0xbda533b0	-0.08066499
30	0x3e60bd11	0.21947123
31	0xbd8b695e	-0.068072066
