model_checkpoints/params_round_14.npz (npz, 14022 bytes, 5 tensors)

arr_0 f4 [64, 15]
0	0x3d108127	0.03527942
1	0x3dbb1072	0.09133996
2	0x3e7e0b6d	0.24809046
3	0x3d867f42	0.06567241
4	0x3d6fbb66	0.058528326
5	0x3d8d14ae	0.0688871
6	0xbde928ea	-0.11384757
7	0xbe0390b9	-0.12848176
8	0xbdc738af	-0.097276084
9	0x3d9fa46d	0.077950336
10	0xbdbf691c	-0.0934622
11	0xbe5d682b	-0.21621768
12	0x3e460cb5	0.19340785
13	0x3e44813c	0.19189924
14	0x3e5b63ec	0.21424836
15	0xbd2b821b	-0.041872125
16	0xbd30a4f2	-0.043126054
17	0xbaef13c4	-0.0018240144
18	0xbe25c9e2	-0.16190293
19	0xbeaa1078	-0.3321569
20	0x3d5056fa	0.050864197
21	0x3dbaea84	0.091267616
22	0xbe7c19ed	-0.24619265
23	0x3e0a245b	0.13490431
24	0x3e34f185	0.17670257
25	0xbe12e281	-0.14344217
26	0xbe34ea6e	-0.17667553
27	0xbd69801b	-0.057006937
28	0x3e80b488	0.25137734
29	0xbcbbb2ab	-0.022912344
30	0xbce65975	-0.028118828
31	0xbe1ca891	-0.15298678
32	0x3d1c4283	0.038149368
33	0x3e6fed3c	0.23430341
34	0x3e0c6142	0.13708976
35	0x3e4f7be4	0.20262104
36	0x3dc3088f	0.09523117
37	0xbe06d3ee	-0.13166782
38	0x3e5e4739	0.21706857
39	0x3d74ca04	0.05976297
40	0x3de0a052	0.10968079
41	0xbe6d3242	-0.23163703
42	0x3c808d03	0.01569224
43	0x3dcf822b	0.101322494
44	0xbd44b402	-0.04802323
45	0xbe958788	-0.29204965
46	0x3d24b2a0	0.040209413
47	0xbdb6187d	-0.088913895
48	0xbe59b4c2	-0.2126036
49	0xbd4c6f05	-0.049910564
50	0x3dbed573	0.09318056
51	0xbe03b9cd	-0.12863846
52	0xbe197eb2	-0.14989737
53	0x3d9153ec	0.07096085
54	0xbe3baf1d	-0.18328519
55	0x3dd4a784	0.103835136
56	0xbe3df4ea	-0.18550459
57	0x3d8fdd9e	0.07024692
58	0xbe9217a0	-0.2853365
59	0xbdf04f94	-0.11733928
60	0x3d350ff0	0.044204652
61	0xbe400376	-0.1875132
62	0xbdf9c862	-0.12196423
63	0xbe7f1490	-0.24910188
64	0x3e881ef2	0.2658611
65	0xbe7d4b0f	-0.24735664
66	0x3e368541	0.1782427
67	0xbe02446b	-0.12721412
68	0x3e132180	0.14368248
69	0x3e272c08	0.1632539
70	0x3e6d3b16	0.23167071
71	0x3e85cf66	0.26134795
72	0xbe47bf10	-0.19506478
73	0xbe046b04	-0.12931448
74	0x3e8ca799	0.27471617
75	0x3d9c6ad0	0.0763756
76	0xbd46400c	-0.048400924
77	0x3e2039ec	0.15647095
78	0x3e092216	0.13391909
79	0x3e144e1c	0.14482921
80	0x3dd6f21a	0.10495396
81	0x3e38eaa8	0.18058264
82	0xbda03d08	-0.07824141
83	0x3baf79a3	0.0053550764
84	0x3e4eda9a	0.20200577
85	0xbe8ba75d	-0.27276126
86	0xbce19114	-0.027534999
87	0xbe8a3306	-0.26992053
88	0x3e4f2db6	0.20232281
89	0xbe6d4cc2	-0.23173812
90	0xbd73a668	-0.05948487
91	0xbebf4c74	-0.37363017
92	0x3e1acd3e	0.15117356
93	0x3ddca8e1	0.107743986
94	0xbcc3417f	-0.023834942
95	0x3dd8ecdc	0.10592052
96	0xbe99df66	-0.30053252
97	0xbe0f1378	-0.1397227
98	0xbcb2ceec	-0.021827184
99	0xbe8b4e38	-0.27208114
100	0x3d9adb67	0.07561379
101	0x3dd62f8c	0.104582876
102	0xbd6fced9	-0.058546875
103	0xbdbc1927	-0.09184485
104	0x3e6ff608	0.23433697
105	0xbe7bae14	-0.24578124
106	0x3be1e76e	0.0068940436
107	0xbe5a81d2	-0.21338585
108	0x3c944882	0.01810098
109	0xbea245ff	-0.31694028
110	0x3deb856e	0.11500059
111	0xbd3c60f7	-0.04599091
112	0xbe0af86d	-0.1357133
113	0x3de48306	0.11157803
114	0x3c4c02e2	0.012451859
115	0x3e68b781	0.22726251
116	0xbdf63f4f	-0.12023794
117	0xbe1c054c	-0.15236396
118	0xbc44d7c6	-0.012014335
119	0xbe006886	-0.12539873
120	0x3ddefd29	0.1088813
121	0xbe9add96	-0.30247182
122	0xbe76d392	-0.24104145
123	0xbe7397da	-0.23788396
124	0x3d3b70cf	0.04576188
125	0xbd6b4650	-0.057440102
126	0x3e50df53	0.20397691
127	0x3e54fbe6	0.20799217
128	0xbd09d563	-0.033650767
129	0xbcce16e4	-0.0251574
130	0x3e22adac	0.15886563
131	0x3e365b6c	0.17808312
132	0xbe19d524	-0.15022713
133	0x3e12fa06	0.14353189
134	0xbe60cf7a	-0.21954146
135	0x3cd19c06	0.025587093
136	0xbe1654f5	-0.14680846
137	0x3eb17841	0.3466206
138	0xbe7f78c2	-0.24948409
139	0xbd1c0b2a	-0.038096584
140	0xbe43e72c	-0.19131154
141	0xbdca910e	-0.09890948
142	0x3db6dfba	0.08929391
143	0x3e3bbe5d	0.18334337
144	0xbb9fdde4	-0.0048787463
145	0xbe7ee9fa	-0.24893942
146	0xbdc8d9d8	-0.098071754
147	0x3d0c352b	0.034230392
148	0xbde56d2d	-0.11202464
149	0xbe6e2f8e	-0.23260328
150	0xbe145d99	-0.1448883
151	0xbe4d604c	-0.20056266
152	0xbdf167ee	-0.11787401
153	0xbe8337d0	-0.2562852
154	0x3d5f38ad	0.05449741
155	0xbb0f37d8	-0.0021853354
156	0xbe8ddbf0	-0.27706861
157	0xbe73e82b	-0.23819034
158	0xbe0c3267	-0.13691102
159	0xbda9dcfd	-0.08294103
160	0xbe3d887e	-0.18509099
161	0x3e0f0c8b	0.13969629
162	0x3e304025	0.17211969
163	0x3e00e9e5	0.12589224
164	0x3e4da3fe	0.2008209
165	0xbe9c3b02	-0.3051377
166	0x3e011fac	0.12609738
167	0x3cca91b0	0.024727672
168	0xbdf5d867	-0.12004166
169	0xbdca952c	-0.098917335
170	0x3e038eb8	0.12847412
171	0xbcdfc56c	-0.027315818
172	0x3d9fc2d2	0.07800831
173	0xbe16abbe	-0.14713952
174	0x3e70f42e	0.23530647
175	0x3da51e7d	0.08062456
176	0x3d9b518a	0.07583912
177	0xbda7bada	-0.08189936
178	0xbd8ed5f0	-0.06974399
179	0xbe7587fa	-0.23977652
180	0xbe5884ae	-0.21144363
181	0x3d5c6bee	0.053813867
182	0x3e9fd038	0.31213546
183	0xbe2676c1	-0.16256239
184	0xbbfb8995	-0.007676313
185	0x3b5b4e55	0.0033463438
186	0xbe6dec8a	-0.23234764
187	0xbd4c4b7e	-0.049876682
188	0xbd6c5fbe	-0.057708494
189	0xbc4d9ca2	-0.012549551
190	0xbe038d0f	-0.12846778
191	0xbe629dc8	-0.22130501
192	0xbdc3f85c	-0.09568855
193	0x3df58448	0.11988121
194	0x3d505087	0.050858047
195	0x3d6eae42	0.058271654
196	0x3e9c11b5	0.3048226
197	0x3def11b2	0.11673297
198	0x3d0dc03f	0.03460717
199	0xbc9fd1a8	-0.019509152
200	0x3dc30074	0.09521571
201	0xbdde2c82	-0.10848333
202	0x3cecd89e	0.028911885
203	0x3e99e2c5	0.30055824
204	0xbc5ac420	-0.013352424
205	0x3e03dcec	0.12877244
206	0x3db67f50	0.08911002
207	0x3dc2879d	0.094985224
208	0xbd994fb4	-0.07485905
209	0x3cee9407	0.02912332
210	0xbe0eca76	-0.1394442
211	0x3e879184	0.26478207
212	0xbe22784a	-0.15866199
213	0x3e3a717a	0.1820735
214	0x3d1e75e3	0.038686644
215	0xbe7157d7	-0.23568664
216	0x3e1666e4	0.14687687
217	0x3d1c746e	0.038196974
218	0xbdca4348	-0.09876114
219	0xbdf63124	-0.120210916
220	0x3cdbbb51	0.026822718
221	0x3e21456c	0.15749139
222	0xbcd2f432	-0.025751207
223	0xbdc94876	-0.09828274
224	0x3d981a25	0.07426862
225	0x3d465354	0.04841931
226	0xbdf47792	-0.11936869
227	0x3dae5ab7	0.08513396
228	0x3e660893	0.22464208
229	0x3e5a9786	0.21346864
230	0x3e16ec8d	0.14738674
231	0x3d9a8b44	0.07546094
232	0x3d9af4c6	0.07566218
233	0xbe5c776a	-0.21529928
234	0x3b023aa3	0.0019871376
235	0xbe9bb147	-0.3040869
236	0x3dc728b4	0.097245604
237	0x3cab1c9c	0.020887665
238	0x3c9edd63	0.019392675
239	0x3dc64544	0.0968118
240	0x3e56f1f0	0.2099073
241	0xbe2047e4	-0.15652424
242	0xbe68470e	-0.22683355
243	0xbe8107a4	-0.25201142
244	0xbe72cbd3	-0.23710565
245	0xbdcaad5e	-0.098963484
246	0xbe6dac32	-0.23210219
247	0xbdfc6a2c	-0.12324938
248	0x3de31892	0.11088671
249	0x3e44f8bc	0.1923551
250	0xbe8415f0	-0.25797987
251	0xbd9de673	-0.0770997
252	0xbe2eb00f	-0.17059349
253	0xbe14293b	-0.14468853
254	0x3d9cee8d	0.076626875
255	0xbdb72414	-0.08942428

arr_1 f4 [64]
0	0x3a87108c	0.0010304614
1	0xbccee8a8	-0.025257424
2	0x3d0634c0	0.03276515
3	0xbda51e61	-0.08062435
4	0xbe4ea986	-0.20181856
5	0xbe274cb8	-0.1633786
6	0x3dd3e764	0.10346869
7	0x3e7aed6d	0.24504633
8	0xbc37062a	-0.011170903
9	0x3e89a691	0.26884893
10	0x3e5e8026	0.21728572
11	0x3db15283	0.08658316
12	0x3d12e198	0.035859674
13	0x3de6fa4a	0.112782076
14	0xbd674555	-0.056462605
15	0xbe488e01	-0.1958542
16	0x3e3bad1a	0.18327752
17	0x3e04262c	0.12905186
18	0x3e2daa5d	0.1695952
19	0xbcc2b9da	-0.023770262
20	0xbd01a656	-0.03165277
21	0x3dd08a2f	0.101826064
22	0xbddd359e	-0.10801242
23	0x3d8c9bb0	0.068656325
24	0xbe9ad100	-0.3023758
25	0xbe2abaaa	-0.16672769
26	0x3de6cd1e	0.11269592
27	0x3eb9d33c	0.36293972
28	0xbde0dfee	-0.10980211
29	0x3e8c14f4	0.27359736
30	0x3dd8f01a	0.10592671
31	0x3db1e572	0.08686341
32	0xbd381600	-0.044942856
33	0xbdbccf29	-0.092192
34	0x3e98f3a5	0.29873386
35	0x3e2d59a8	0.16928732
36	0x3ca51eb7	0.020156248
37	0x3e20f575	0.15718634
38	0x3e063478	0.13105953
39	0xbdb6b958	-0.0892207
40	0x3e17debc	0.1483106
41	0xbd86c68c	-0.065808386
42	0x3e2bfc15	0.1679538
43	0xbdd094b1	-0.10184611
44	0xbde9d372	-0.11417283
45	0xbe8eb5c3	-0.27873048
46	0x3e6b83ae	0.2299945
47	0x3e409d7b	0.18810074
48	0xbe0996f8	-0.13436496
49	0x3e3b06da	0.18264332
50	0xbd6a0663	-0.057134997
51	0x3e923f04	0.28563702
52	0x3c9b6e20	0.01897341
53	0xbd5be666	-0.053686522
54	0xbe42212f	-0.18957971
55	0x3e17e418	0.14833105
56	0x3dff3781	0.124617584
57	0x3d3147ff	0.04328155
58	0x3e894410	0.2680974
59	0xbdfe02e4	-0.12402895
60	0x3ea020e4	0.31275094
61	0x3d8a1666	0.067425534
62	0xbe08b63a	-0.13350764
63	0x3e791a7e	0.24326512

arr_2 f4 [32, 64]
0	0xbd18354e	-0.03716021
1	0x3b26d583	0.0025456853
2	0xbcdc0456	-0.026857536
3	0xbd9ea061	-0.077454336
4	0x3c8ab162	0.016930286
5	0xbd996cde	-0.07491468
6	0x3c8caa20	0.017170966
7	0xbdbbfdb3	-0.09179249
8	0xbc0ccbf6	-0.00859355
9	0x3cc2c925	0.023777554
10	0x3d918b5a	0.07106657
11	0x3a2b8f38	0.00065444736
12	0x3d54255a	0.051793434
13	0x3da17ad6	0.07884757
14	0xbd3426a9	-0.04398218
15	0x3db0a7e9	0.08625776
16	0x3d2073f3	0.039173078
17	0xbda25429	-0.079262085
18	0xbd152f30	-0.036421955
19	0xbde1f1b9	-0.11032433
20	0x3c6675cc	0.014066171
21	0x3d29cb8b	0.04145388
22	0xbd6c6880	-0.057716846
23	0xbd928373	-0.07153978
24	0xbdba452a	-0.09095223
25	0xbd604d32	-0.05476112
26	0x3da9de16	0.08294313
27	0xbd3d2c5e	-0.04618489
28	0xbdd4058c	-0.103526205
29	0xbb900a05	-0.0043957257
30	0xbdef41a6	-0.11682443
31	0xbc60e482	-0.0137263555
32	0xbdcc2898	-0.0996868
33	0x3d7ed9f6	0.062219582
34	0x3da1cf3b	0.07900854
35	0x3c1c6150	0.0095446855
36	0x3d7fd7cd	0.062461663
37	0xbd7f61db	-0.06234918
38	0xbc5d58d2	-0.013509946
39	0xbdc09f40	-0.094053745
40	0xbb98ee96	-0.0046671135
41	0x3c3afe82	0.011413218
42	0xbd066e5a	-0.032820083
43	0xbddf4ca0	-0.10903287
44	0xbdac7d0f	-0.084222905
45	0xbde69c54	-0.11260286
46	0xbd99439c	-0.074835986
47	0xbd72f18e	-0.059312396
48	0xbde5e9f3	-0.11226263
49	0x3d2253a9	0.039630566
50	0xbd1c640d	-0.038181353
51	0xbdfdee1a	-0.1239893
52	0xbd915d4d	-0.07097874
53	0x3a6b811a	0.0008983776
54	0xbdb24892	-0.08705248
55	0xbe0138c1	-0.12619306
56	0x3cbbe026	0.02293403
57	0xbda816c0	-0.08207464
58	0xbe1edcec	-0.15513963
59	0x3dbf4f26	0.09341268
60	0x3bc416be	0.0059841564
61	0xbd79dd57	-0.0610021
62	0xbdf89956	-0.121386215
63	0x3d63adc7	0.05558565
64	0x3deff0b6	0.11715834
65	0xbcee851f	-0.029116211
66	0xbd8ab627	-0.06773024
67	0x3ddc2c26	0.10750608
68	0x3e2e4379	0.17017926
69	0xbcc755b6	-0.024332862
70	0xbdccb0a0	-0.09994626
71	0x3d843c66	0.064568326
72	0xbdb4c9ce	-0.08827554
73	0xbd870a40	-0.06593752
74	0xbc9d44d8	-0.019197866
75	0x3cb174cf	0.021662144
76	0x3da81a9a	0.08208199
77	0x3e0531f7	0.13007341
78	0x3d3e02ac	0.046389267
79	0x3c84ff6c	0.016235076
80	0x3da78d8b	0.08181294
81	0xbcf42171	-0.029801102
82	0x3d814f86	0.06313996
83	0xbdd9faef	-0.10643565
84	0x3c5a7a58	0.013334833
85	0x3da8986d	0.08232198
86	0x3dad9b6f	0.08476912
87	0xbc2aae95	-0.0104176
88	0x3d0c4cb4	0.034252837
89	0xbdd6cb94	-0.10488048
90	0x3ca58ac3	0.020207768
91	0xbce319aa	-0.027722199
92	0xbe04c833	-0.12966995
93	0x3d7098c4	0.05873944
94	0x3cb0db2b	0.021588882
95	0x3d6217a0	0.05519831
96	0x3d800ebc	0.0625281
97	0xbd972cf9	-0.07381625
98	0x3d5ea7a2	0.054359086
99	0xbdbe10f5	-0.09280578
100	0xbd693d0b	-0.05694298
101	0xbcf00831	-0.029300781
102	0x3d247b65	0.04015674
103	0x3c37ee70	0.0112262815
104	0xbd6ce0ac	-0.05783145
105	0xbcccd40b	-0.025003454
106	0xbd139c66	-0.036037825
107	0xbe08e95a	-0.13370267
108	0xbc8dd406	-0.017313015
109	0x3de75cbf	0.11296987
110	0x3e006702	0.12539294
111	0x3cf99aac	0.030469261
112	0x3e04e278	0.12977016
113	0x3d599b6b	0.053126734
114	0xbcfbdc1a	-0.030744601
115	0xbd2109dc	-0.039316043
116	0xbdb5e6ae	-0.08881889
117	0x3d4026d0	0.046912014
118	0xbdec93ca	-0.11551626
119	0x3c7bf617	0.015378497
120	0xbdeea330	-0.11652219
121	0x3c329781	0.010900379
122	0xbd069613	-0.032857966
123	0xbdfac061	-0.122437246
124	0xbe2d706a	-0.16937414
125	0x3cb39468	0.021921352
126	0x3d0dde90	0.03463608
127	0xbd069f1e	-0.03286659
128	0x3d7787c3	0.060432207
129	0xb9c12e40	-0.00036846288
130	0xbd5243ee	-0.051334314
131	0x3d8742a5	0.06604508
132	0x3b31389c	0.0027041798
133	0x3de18de7	0.11013394
134	0x3e560f80	0.2090435
135	0x3d80b0e4	0.06283739
136	0xbd035ee4	-0.032072917
137	0xbd107661	-0.035269145
138	0x3e6d93c5	0.23200901
139	0xbd6c92e6	-0.05775728
140	0x3e083125	0.13299997
141	0xbdbc9ac8	-0.0920921
142	0xbd9d78ac	-0.07689032
143	0x3de5c8bb	0.11219927
144	0x3b69512a	0.0035601356
145	0x3e0092f1	0.12556054
146	0xbbe2e034	-0.0069236998
147	0xbd0b5779	-0.034018967
148	0x3da96701	0.082715996
149	0x3dcb6c0c	0.09932718
150	0xbc7107de	-0.014711348
151	0x3d8cc5f3	0.06873693
152	0xbdcb4208	-0.09924704
153	0x3e03f121	0.12884952
154	0xbce7f4a0	-0.028314888
155	0x3c12756e	0.00893913
156	0x3cc1b998	0.023648068
157	0x3d86bdd8	0.065791786
158	0xbda7a6f6	-0.08186142
159	0xbde75154	-0.11294809
160	0x3dbe30ce	0.092866525
161	0x3dbb8fbb	0.09158274
162	0x3bf9964a	0.007616793
163	0xbd732c20	-0.059368253
164	0xbb1956b3	-0.0023397624
165	0xbcb79bfe	-0.02241325
166	0x3d9c39fc	0.07628247
167	0x3e26da38	0.16294181
168	0xbdb153ba	-0.08658548
169	0x3d8a36ba	0.067487195
170	0x3d94922a	0.07254441
171	0x3c6b1082	0.0143471975
172	0xbd2ee831	-0.042701904
173	0xbe1bd660	-0.15218496
174	0xbc9e88ca	-0.019352335
175	0x3dc66b23	0.096884035
176	0xbe18cadd	-0.14921136
177	0xbce12c7a	-0.027487028
178	0x3e4c2468	0.19935763
179	0x3de85246	0.113438174
180	0xbdc707a0	-0.09718251
181	0x3d0c31e4	0.034227267
182	0xbc7e54d2	-0.015523152
183	0x3dacc73c	0.084364384
184	0xbd0c3481	-0.03422976
185	0x3a9d5375	0.0012003022
186	0x3e08c987	0.13358127
187	0x3d2fe029	0.042938385
188	0x3d074c9e	0.033032052
189	0xbd98c812	-0.074600354
190	0xbd1b4c6b	-0.037914675
191	0x3d1085c1	0.035283808
192	0x3d974495	0.07386128
193	0x3df60f0e	0.1201459
194	0xbdb7e0f7	-0.089784555
195	0x3da4863e	0.08033417
196	0xbdc1531f	-0.09439682
197	0xbd8e9391	-0.0696174
198	0x3e12c495	0.14332803
199	0xbd0399c4	-0.032129064
200	0x3dc937f7	0.098251276
201	0x3e3f87b6	0.18704113
202	0x3d92c242	0.07165958
203	0x3d2d253c	0.042271838
204	0x3b520458	0.0032046046
205	0xbd05ad42	-0.032635935
206	0x3d83809b	0.06421014
207	0x3e33e8f1	0.17569329
208	0x3c7b3cc4	0.015334312
209	0xbbce91c6	-0.0063039986
210	0x3db6d9e7	0.0892828
211	0x38139aa0	3.5191537e-05
212	0x3d05ab40	0.03263402
213	0x3d2c1419	0.042011354
214	0x3dc90cfa	0.09816928
215	0x3de9af5d	0.11410401
216	0xbe196dd0	-0.14983296
217	0xbcdcb6ac	-0.026942573
218	0x3d9fc0e3	0.07800462
219	0x3e1c97e8	0.15292323
220	0x3dbdbd01	0.09264565
221	0x3dcd012e	0.10009991
222	0x3b5488de	0.0032430212
223	0xbdf8322e	-0.12118946
224	0x3dc320f4	0.0952777
225	0x3d0876b0	0.033316314
226	0x3983a8c0	0.00025111996
227	0x3de1427f	0.10999011
228	0x3d22b8cd	0.03972702
229	0x3c9f04d6	0.019411486
230	0x3dabe687	0.08393579
231	0x3e083023	0.13299613
232	0xbd14a626	-0.036291264
233	0xbb3e50d9	-0.0029039888
234	0xbc12a3ab	-0.008950154
235	0x3c02a1b1	0.007973121
236	0x3dda60f2	0.10663022
237	0xbaa7deb2	-0.0012807457
238	0xbd99a47c	-0.07502076
239	0x3c2e5f4e	0.01064284
240	0xbe248340	-0.16065693
241	0x3d230579	0.03980014
242	0x3e30f73d	0.17281814
243	0xbb2f97ff	-0.0026793478
244	0x3dd59115	0.10428063
245	0x3c59797c	0.013273593
246	0x3e599085	0.21246536
247	0x3e6a2c74	0.2286852
248	0x3e116205	0.14197548
249	0x3e0d2f87	0.13787661
250	0x3db5cd18	0.08877009
251	0x3ddb0b84	0.10695556
252	0x3e1825e6	0.14858207
253	0x3d1b8259	0.037966106
254	0xbd638034	-0.055542186
255	0x3d9236d5	0.07139365

arr_3 f4 [32]
0	0xbd5a1bdc	-0.053249225
1	0xbe324e29	-0.17412628
2	0x3e15f49d	0.14644094
3	0x3e465672	0.19368914
4	0x3e2fe6c0	0.17177868
5	0x3e6306d7	0.22170578
6	0x3deb85e4	0.11500147
7	0x3dac9a7f	0.08427905
8	0x3e3ec79c	0.18630832
9	0x3d4154e1	0.047200087
10	0xbd8db757	-0.06919735
11	0x3e07f194	0.13275748
12	0x3d28274c	0.0410531
13	0xbd61c056	-0.055115066
14	0x3db1cad3	0.08681264
15	0x3dbbaef3	0.09164228
16	0x3c25cf95	0.010120292
17	0xbd900b6c	-0.070334285
18	0x3d3aec43	0.045635473
19	0x3d28a228	0.04117027
20	0x3db286bd	0.087171055
21	0xbb6c36c0	-0.0036043376
22	0xbcd8d5b4	-0.02646909
23	0x3cef49e7	0.029210044
24	0x3d6dbd24	0.058041707
25	0x3cdbf195	0.026848594
26	0xbd4e27aa	-0.050330795
27	0xbe009797	-0.12557827
28	0x3e56d1cf	0.20978473
29	0x3e5c14ab	0.21492259
30	0x3e5a522b	0.21320407
31	0x3dd8d9bf	0.10588407

arr_4 f4 [1, 32]
0	0x3ddcb1c0	0.107760906
1	0x3dd84072	0.10559167
2	0xbe14cdb6	-0.14531597
3	0xbde98389	-0.114020415
4	0xbdd5987f	-0.10429477
5	0xbdd873c6	-0.10568957
6	0xbe0f5f32	-0.14001158
7	0xbe3c2f78	-0.18377483
8	0xbd9a3d5a	-0.07531233
9	0xbe2c01af	-0.16797517
10	0x3e28d2d8	0.1648668
11	0xbda8762d	-0.08225665
12	0xbe573a5a	-0.21018353
13	0x3e0521cd	0.13001175
14	0xbe0c13ca	-0.13679424
15	0xbda89230	-0.08231008
16	0x3e099484	0.1343556
17	0x3e6d93d3	0.23200922
18	0xbe0343b3	-0.12818794
19	0xbe074509	-0.13209929
20	0x3def830f	0.11694919
21	0x3e707e8c	0.23485774
22	0x3e25e423	0.16200309
23	0xbdbc521a	-0.09195347
24	0x3e1679da	0.1469492
25	0x3e242cec	0.16032761
26	0xbe0c84b8	-0.13722503
27	0x3df9cfc4	0.12197831
28	0xbdf75ddc	-0.12078449
29	0xbd8c8bf8	-0.068626344
30	0xbdd082dd	-0.1018121
31	0xbdcad1c3	-0.0990329
