model_checkpoints/params_round_26.npz (npz, 14022 bytes, 5 tensors)

arr_0 f4 [64, 15]
00000000: 7a34 ce3c 4110 9a3d 0083 893e b62b 9e3d
00000010: 76ac fa3c 925c be3d e8f4 e0bd e777 10be
00000020: 2d65 d6bd a95d 923d 70a7 acbd 184c 81be
00000030: c6bf 753e 8d18 153e 0f05 8f3e c71e 423c
00000040: cc79 b1bd 4d53 91bc d489 40be 07f4 bdbe
00000050: 6553 473d 772e aa3d c9ce 8cbe bed8 dc3d
00000060: 46f0 333e d2f8 c6bd bbf7 36be 76c7 a6bd
00000070: 16a6 803e e46e 28bd d1f1 44bd 6d0d 26be
00000080: 793d b73d 9096 683e 1936 c63d 3645 5c3e
00000090: 8858 ba3d f9a7 d5bd faa6 773e 7920 8a3d
000000a0: 5cbd b93d 4a7a 72be 4e25 193d 7093 633d
000000b0: 64cf 99bd f38b acbe 3eb2 933d d119 0cbd
000000c0: 3a69 64be 4614 82bd f42a cf3d 5f73 f2bd
000000d0: dff7 30be 2351 a63d 6050 51be 9246 023e
000000e0: 7949 04be 468d a43d 3268 94be 2281 0abe
000000f0: 8882 863d ee69 4dbe 73aa 3dbd ee0d 67be
00000100: 2ca5 963e ae64 73be 1ce8 163e bc10 f0bd
00000110: 3c7e f13d 162c 523e c607 713e a42c 823e
00000120: a335 84be 1e4d 13be de42 963e 92da 983d
00000130: 1a97 8cbd ccfa 1c3e b1ba e53d 3662 eb3d
00000140: 0666 b23d 0611 4b3e f86f 9ebd 9233 443c
00000150: 2657 713e c22b 7cbe 133c 6ebb 2b65 75be
00000160: 68a3 353e 7a83 4dbe ae2d 9dbd 4861 bdbe
00000170: ec23 213e 5811 0a3e 1e81 383d 2a00 913d
00000180: de63 8bbe d895 f6bd e53b ee3b 3f63 8abe
00000190: 2294 ae3d 50f3 a23d 52c8 853b 7e65 8bbd
000001a0: 6281 7c3e 14d0 5dbe 21b2 8e3b a188 34be
000001b0: 2f02 1b3d 08ca b8be ee7c ec3d 61a7 3bbd
000001c0: 16b2 e1bd ddc0 8a3d 4e82 293d 3ead 843e
000001d0: ec71 babd be9c ebbd 4eaa cfbc 80ae 09be
000001e0: 5290 b63d 220b acbe 3153 88be 41ad 5dbe
000001f0: 8cbc 9e3d b967 8dbd ea3c 403e 6ed8 4e3e
00000200: 1261 dfbc b56b 273d 2a8f 0d3e 32e4 1c3e
00000210: 2f21 1abe 331d 2f3e 4e14 55be 88a9 2c3b
00000220: 7417 28be 9d7c ae3e 863d 60be 45e6 23bc
00000230: 5c7c f1bd 5c5e c0bd 81cf e03d 1fe5 3c3e
00000240: 3318 03bd 9506 82be 4214 9cbd d558 6e3d
00000250: d3d8 e0bd 9cfc 6bbe 7edd 00be a68f 67be
00000260: 99cd c2bd 4043 92be 0382 9e3d e545 a2bb
00000270: a4c0 71be 9423 84be ac31 debd a6dc 9bbd
00000280: 81bb 13be a0a6 123e 805f 1c3e fec9 f73d
00000290: 8a56 543e a09d 9cbe 6d71 093e a036 5ebc
000002a0: 2ec2 02be 0e2d 13be 845c e13d a6c8 a9bb
000002b0: a1c5 ab3d 90ca a6bd 86a5 823e c508 a63d
000002c0: 0aae a43d f467 6dbd 28b6 91bd 3002 66be
000002d0: c21c 45be 3490 4b3d ba13 993e 0c56 22be
000002e0: 6e16 7d3b a66c 543b 001d 5cbe 4ccf 09bd
000002f0: 1e8b 35bd b45f 3abd 68de c6bd dfca 5dbe
00000300: c55a 5fbd dca3 0a3e c0e8 da3d ca72 103d
00000310: 52fd 893e a608 003e 52f6 8ebc 4cc3 1bbc
00000320: 7286 dc3d ef02 c8bd a002 08bc 4c7b 8f3e
00000330: 448c 64bc 7279 043e 5bf7 963d 32e9 a53d
00000340: 070b 8abd b3ec b63c 4cd1 f8bd d594 a33e
00000350: 228f f0bd aa5c 393e 71d9 963d 0077 91be
00000360: d6ed 103e 9c83 3a3d b779 82bd 5433 d9bd
00000370: e41a 583d bab8 2b3e c445 f3bb 4647 bfbd
00000380: 6c84 f03d da7a a13d 34ba 00be 6c97 503d
00000390: 894e 6d3e aced 723e 50bb 233e dc61 af3d
000003a0: 4736 9a3d ff7a 53be aea9 b2bc dcd2 adbe
000003b0: e152 183e fa51 ac3c ef8d 0fbc 61b7 c13d
000003c0: e894 843e 2cf4 3fbe 2a18 85be 7e35 73be
000003d0: 87c8 87be faa7 85bd 0dbd 67be edde f2bd
000003e0: d35d 9b3d cc38 403e 22b4 8cbe d2de 44bd
000003f0: c2cb 21be 578a cabd b236 203d 8f88 acbd
0.025171507 0.075226314 0.26857758 0.07723181 0.030599814 0.09295 -0.10984212 -0.14108239
-0.104685165 0.071467705 -0.08430374 -0.25253367 0.23998937 0.14560147 0.27933547 0.011848158
-0.08665809 -0.017739916 -0.18802577 -0.3710024 0.048663516 0.08309644 -0.27501515 0.10783528
0.17572126 -0.097154275 -0.17867939 -0.08143513 0.25126714 -0.04112138 -0.048082177 -0.16216059
0.08947272 0.22713685 0.09678287 0.21510777 0.09098917 -0.10432429 0.2418479 0.06744475
0.090693206 -0.23679462 0.037389092 0.05556053 -0.0751026 -0.33700523 0.072117314 -0.034204308
-0.22305766 -0.06351523 0.101156145 -0.118384115 -0.17282055 0.08120944 -0.20440817 0.12722233
-0.12918653 0.08034758 -0.28985745 -0.13525823 0.065678656 -0.2005994 -0.04630513 -0.22563908
0.2942289 -0.23768875 0.1473698 -0.11721942 0.117916554 0.2052463 0.23538122 0.25424683
-0.25822172 -0.14384887 0.2934789 0.07463564 -0.06864758 0.15330046 0.11217249 0.114933416
0.08710866 0.19830713 -0.077362 0.011975186 0.235684 -0.24626067 -0.0036351725 -0.23964374
0.17738116 -0.20069686 -0.07674728 -0.36988282 0.1573636 0.13483179 0.04504501 0.070801094
-0.2722463 -0.12040299 0.0072703236 -0.27028844 0.08524348 0.079565644 0.004082718 -0.068064675
0.2465873 -0.21661407 0.0043547307 -0.17630245 0.03784388 -0.36091638 0.11547266 -0.04581392
-0.11020295 0.06775067 0.041384034 0.25913423 -0.0910376 -0.115045056 -0.025349762 -0.13445473
0.08914246 -0.33602244 -0.2662597 -0.21648122 0.07750806 -0.06904549 0.18773237 0.20199749
-0.027267966 0.0408742 0.13824144 0.15321425 -0.15051721 0.17100982 -0.20808527 0.0026346166
-0.16415197 0.34079447 -0.2189847 -0.010003631 -0.11791298 -0.093929976 0.10977078 0.18446778
-0.0320055 -0.25395647 -0.07621051 0.058190186 -0.10978856 -0.23045582 -0.12584493 -0.22613391
-0.09511871 -0.28566933 0.077396415 -0.0049521797 -0.23608643 -0.25808394 -0.10849318 -0.07610445
-0.14426996 0.14321375 0.15270805 0.12099074 0.20736137 -0.30589008 0.13422175 -0.013562828
-0.12769386 -0.14372656 0.11003974 -0.00518139 0.08387304 -0.081441045 0.2551691 0.081071414
0.08041008 -0.057960466 -0.07114822 -0.22461772 -0.19249251 0.04969807 0.29897863 -0.15853137
0.0038618105 0.0032413392 -0.21495438 -0.03364496 -0.044322126 -0.045501426 -0.097103894 -0.2165942
-0.054529924 0.1353907 0.10688925 0.03526572 0.2695108 0.12503299 -0.017451439 -0.009507012
0.10767831 -0.097661845 -0.008301407 0.28023756 -0.013949458 0.12936953 0.07371398 0.08101119
-0.067403845 0.022329664 -0.12149295 0.31949487 -0.117460504 0.18101755 0.073656924 -0.28411102
0.14153227 0.04553567 -0.063708715 -0.10605493 0.05276002 0.16769686 -0.007424088 -0.09339766
0.117440075 0.0788476 -0.12571031 0.050925657 0.2317449 0.23723477 0.15989423 0.08563587
0.07529884 -0.20652388 -0.021809425 -0.33949935 0.14875366 0.021035183 -0.008761867 0.09458805
0.25894856 -0.18745488 -0.25994998 -0.23750874 -0.26520178 -0.065261796 -0.22630711 -0.11858926
0.07586255 0.18771666 -0.2748118 -0.04806406 -0.15800384 -0.098896675 0.03911466 -0.08424484

arr_1 f4 [64]
00000000: f3de 13bd 7995 b1bc 420c 543c f249 c7bd
00000010: 458b 7cbe 6e90 2ebe 7da5 713d aef8 553e
00000020: ca25 45bc 2e48 803e 0e9f 313e c391 5a3d
00000030: aac4 a7ba 74a9 7c3d 14e5 72bd 3f5b 54be
00000040: fdba 253e 5a27 c13d 24fd ed3d cbd7 3bbd
00000050: 3072 0fbd 2a7c 973d 36b0 d2bd de72 133d
00000060: ea01 b4be 4a71 2bbe 28e5 9e3d 60a3 ba3e
00000070: 9b8c 21be c6ed 8d3e fbb0 ca3d e6fd eb3c
00000080: 8346 a7bc 646c b0bd 381f 9b3e 96f9 e03d
00000090: 9eab f4bb c533 f53d 4391 eb3d 2439 8ebd
000000a0: 76c3 f53d c72f fcbc 5289 173e bc98 babd
000000b0: 3408 2fbe 20f7 a7be 7d82 273e 8e79 2c3e
000000c0: e7d9 0cbe 2f32 1f3e 46da c5bd c669 893e
000000d0: 9c5c 0bbc fe1d 90bd f488 52be a9e8 e13d
000000e0: b039 bf3d ede3 083d 7518 543e f8b4 0cbe
000000f0: 0b0b 9a3e ee2e 033d 4175 37be c2ce 653e
-0.036101293 -0.02167772 0.012942376 -0.09730901 -0.24662502 -0.17047283 0.058995713 0.20895645
-0.012032935 0.2505507 0.17345831 0.053361665 -0.0012799699 0.06168504 -0.059300497 -0.20737933
0.16184612 0.09431334 0.11620548 -0.045860093 -0.035021007 0.07396729 -0.10287516 0.035998218
-0.3515771 -0.16742435 0.07758552 0.3645277 -0.15776293 0.2772047 0.098970376 0.028807592
-0.020419365 -0.08614424 0.30297256 0.10985105 -0.0074667474 0.11972765 0.11502316 -0.069444925
0.12000172 -0.0307845 0.14798477 -0.09111163 -0.17092973 -0.3280573 0.16358371 0.16843244
-0.13754998 0.15546487 -0.09660773 0.2683851 -0.0085059665 -0.070369706 -0.20560056 0.110307045
0.09337175 0.033420492 0.20712455 -0.13740909 0.3008655 0.032027178 -0.17915823 0.22442153

arr_2 f4 [32, 64]
00000000: d904 38bd 9cdb b3bb 986e ebbc e565 9abd
00000010: 6545 0d3c da0f 90bd 2ef7 803c 7c82 b0bd
00000020: 90a9 09bc bd0e f13c 8684 843d f77b 373c
00000030: 4018 633d c1d5 b23d f84a 2fbd 027b a23d
00000040: 70d8 323d 5b67 9fbd e307 1fbd 1d1f debd
00000050: 9436 313c e24c 223d a19e 63bd 4977 91bd
00000060: bc60 c2bd e682 51bd e382 a13d 9631 41bd
00000070: 3e4e d0bd cbef 20bb 9da6 f1bd 20c9 0abc
00000080: 8e23 c2bd 4a86 8e3d 56e3 a23d bacc fc3a
00000090: bb82 843d da29 89bd 6de3 74bc 3887 b8bd
000000a0: fdbf cfbb af1c 023c d0fa 14bd 30c8 e4bd
000000b0: c9fb acbd e3d8 e7bd 02ae 9ebd 4505 66bd
000000c0: bee5 d4bd b235 033d 4138 24bd 5c64 02be
000000d0: 45e6 8dbd 94f0 7c3a 60f5 abbd 9663 febd
000000e0: 7e0b 183c dce0 87bd 13fe 1ebe c2c4 bb3d
000000f0: cc4d 8ebb 7a98 6bbd 3740 f4bd fefa 663d
00000100: e7f6 f83d a67c f2bc b2f7 91bd 2c20 d03d
00000110: 5b49 4d3e 981b 9ebc 5c15 cdbd c7cb 843d
00000120: fe71 9ebd 0446 8dbd 0eed c1bd 428a 5d3d
00000130: f17d a83d 4c12 e33d fe50 8d3d 782a 27bb
00000140: db1e ab3d 8a78 97bd 9109 213d 1728 07be
00000150: 53a1 afbc 80ff b33d 4767 db3d 7cc6 64bb
00000160: 1b18 ec3c b6ca 27be d687 443c 0f24 08bd
00000170: b44a 15be ac6b 613d 6468 f43c 93c2 ab3d
00000180: 266e 9d3d 080f ddbd 1e35 9a3d dc22 f1bd
00000190: 4092 83bd de70 d0bd 1b0c 753d 9789 b1bd
000001a0: 66cb 37bd b282 bebd 6ae2 8abd d614 32be
000001b0: 80bb bfbc a695 db3d 9a56 f03d fc8c 433d
000001c0: 900a 183e 2bf6 543d fb57 82bd 94df c9bc
000001d0: 26b5 fabd da7d 083c 21d0 20be 0b53 75bc
000001e0: 0bcd 05be 43ce 843b 086f e5bc 5475 1fbe
000001f0: e1fd 26be f49e b43c 2c62 8c3d 9649 08bd
00000200: 38e3 973d e065 c33c eae8 8fbd 9915 693d
00000210: a4a4 46bd beac b63d 2e36 543e d881 8a3d
00000220: b85a a3bc c1d2 1abd 6835 603e be9c 4ebd
00000230: a1cd 003e f6aa a4bd 6113 64bd 51e8 0a3e
00000240: c067 403c a915 053e 183e 5fba d495 31bc
00000250: d8e5 bc3d 4cd7 f23d 1ca8 87bd ac50 8a3d
00000260: 8e22 d7bd c52e 273e 2fd0 58bc 6ee3 29bc
00000270: 7f88 0e3d 063a 5d3d 452e 9fbd 0475 fcbd
00000280: f931 c83d c84d 093e 7e09 3739 fef0 7fbd
00000290: 3338 3abd ff5f a7bc ce36 ba3d d48d 0f3e
000002a0: f932 cbbd f498 473d c600 883d 8ea4 ab3c
000002b0: 0045 01bd b447 68be 9b8e f3bc 3c7b a43d
000002c0: c9a0 2dbe 5b83 20bd 361e 7c3e 80ce b13d
000002d0: 3a09 e6bd 1b45 513d d419 0dbc 73b7 a83d
000002e0: e360 efbc 2a5d c03c 22be 0c3e b1b5 bb3d
000002f0: f868 7eba bf46 aabd 0226 f6bc 9e9a f53c
00000300: b01d a33d 693d 003e e29b d8bd 6f99 b93d
00000310: eabc f7bd 44cd c9bd db36 0a3e 4001 f7bc
00000320: 569c be3d e43a 273e 1c05 8a3d ccdc 033d
00000330: b22f 1dbc 7ea0 c8bc 72ac 473d 5c40 483e
00000340: 28bf c93c 2547 563c 1667 a83d 89b8 8e3c
00000350: 002a 393d 1a53 483d 7ae4 513d 36e5 043e
00000360: acd8 26be ed22 be3c 5a43 a53d b3bc 043e
00000370: dd6a ac3d 055a c53d fec7 0f3c 09c0 0abe
00000380: ddb5 c23d 15b9 813d e47d 2ebc dc09 b93d
00000390: 94a8 023b 2eae 013d 4f95 ae3d 669c 033e
000003a0: a5b1 64bd 16db 5dbc 6831 49bc 541e 003c
000003b0: 8894 df3d 1c43 46bd 3ab1 afbd 272b 9ebc
000003c0: 340e 31be 9a9e 47bb 1cc7 573e 9c94 34bc
000003d0: f6fb e03d 647e 123d 04ef 6e3e 9421 693e
000003e0: a7d5 153e 97c9 0f3e f214 c73d 2349 263e
000003f0: 6b6e e23d 9169 da3b f96c a4bd e8fa 653d
-0.044926498 -0.005488826 -0.028739259 -0.07538966 0.008622502 -0.070342734 0.015742864 -0.08618638
-0.008402243 0.029425973 0.06470589 0.011198989 0.05544305 0.087321766 -0.042796105 0.07933618
0.043663442 -0.07783385 -0.03882588 -0.10845778 0.010816235 0.039624102 -0.055571202 -0.0710283
-0.09491107 -0.051150225 0.07886293 -0.04716643 -0.101711735 -0.002455699 -0.11799357 -0.0084708035
-0.09479438 0.06959207 0.07953517 0.0019287087 0.06470247 -0.06697436 -0.014946801 -0.09010166
-0.0063400255 0.007941409 -0.036372006 -0.11170995 -0.08446462 -0.11320665 -0.07748033 -0.05615737
-0.10395382 0.03203363 -0.04009271 -0.12733597 -0.06928686 0.0009648886 -0.08396411 -0.12421338
0.009280084 -0.066346854 -0.15526609 0.09168388 -0.00434277 -0.05751846 -0.119263105 0.05639171
0.12156468 -0.029600453 -0.07127322 0.10162386 0.20047514 -0.019300267 -0.100138396 0.0648418
-0.07736586 -0.0689812 -0.09469043 0.05408693 0.082271464 0.11087474 0.06900214 -0.002550749
0.083554946 -0.07396038 0.039315764 -0.13198887 -0.02143923 0.08788967 0.10713058 -0.0034908345
0.028820088 -0.16385922 0.011995276 -0.033237513 -0.14579278 0.055034325 0.029834934 0.083867215
0.07687025 -0.107938826 0.075296625 -0.11774227 -0.06424379 -0.10177778 0.059825998 -0.08668821
-0.04487171 -0.09302272 -0.06781466 -0.17390761 -0.023404837 0.107219025 0.11735268 0.047741875
0.1484778 0.051992577 -0.06364437 -0.024642743 -0.122415826 0.008330787 -0.15704395 -0.014973412
-0.13066499 0.0040529086 -0.028007045 -0.15572101 -0.16307785 0.022048451 0.06854662 -0.033273302
0.074163854 0.023852289 -0.07026847 0.056905363 -0.048496857 0.08919667 0.20723793 0.06763047
-0.019940719 -0.037798647 0.21895373 -0.05044245 0.12578441 -0.08040421 -0.055682544 0.13565184
0.011743486 0.12996544 -0.00085160276 -0.010838944 0.09223527 0.11857471 -0.06623861 0.06753668
-0.10504638 0.16326435 -0.013233229 -0.010369165 0.03479814 0.054010414 -0.07772497 -0.123270065
0.097751565 0.13408577 0.00017455776 -0.062485687 -0.045463752 -0.020431517 0.090924844 0.14018947
-0.09921832 0.04872985 0.066407725 0.02095249 -0.031559944 -0.22683603 -0.029731086 0.080313176
-0.16955866 -0.03918777 0.246209 0.08681965 -0.112322286 0.051091295 -0.008612115 0.08238115
-0.029221004 0.023481924 0.13744405 0.09165514 -0.00097049726 -0.08314275 -0.03004742 0.029980954
0.07964647 0.12523426 -0.10576607 0.09062468 -0.120965794 -0.098536044 0.13497488 -0.030151963
0.093071625 0.16331059 0.06739256 0.03219299 -0.009593891 -0.024490591 0.04874844 0.19555801
0.024627283 0.013078486 0.08222787 0.017421978 0.04520607 0.048907377 0.051243283 0.12978062
-0.16293591 0.023210013 0.08069487 0.12962608 0.0841882 0.096363105 0.008775709 -0.13549818
0.09507344 0.0633413 -0.010650132 0.09035084 0.0019936906 0.03166025 0.08524572 0.1285263
-0.055833478 -0.013541004 -0.012279846 0.007819731 0.10917002 -0.048403844 -0.08578725 -0.019307686
-0.17290574 -0.0030459524 0.21072048 -0.011021759 0.10985558 0.035765067 0.23333365 0.22766715
0.14632283 0.14041744 0.09720792 0.16238837 0.11056217 0.0066654165 -0.080285974 0.056147486

arr_3 f4 [32]
00000000: e9f4 37bd 46ba 19be 0a96 0c3e 2ef7 373e
00000010: e865 243e 78d2 5a3e b7c1 e83d 4b92 843d
00000020: ae34 3d3e e78e 1a3d 1e1b a8bc 87aa 133e
00000030: 58be 673d dacf 27bd 0fda 9e3d c05e d33d
00000040: 83fb f33c dbcf 6ebd 0d89 7a3d 1261 663d
00000050: ffb9 db3d e0b2 d9bb cf51 993b d6dc 523d
00000060: 1026 d13d eafe 323d 4849 4fbd a565 d7bd
00000070: 9cda 4d3e 8616 673e 43f8 433e 6ea1 e13d
-0.0449113 -0.15012464 0.1372911 0.17965385 0.16054499 0.2136935 0.11365073 0.06473216
0.18477127 0.03773394 -0.020520743 0.1442052 0.05657801 -0.040969707 0.07756435 0.103208065
0.029783016 -0.058303695 0.061165858 0.056244917 0.10728835 -0.006643638 0.004678942 0.051480137
0.10212338 0.043700136 -0.050606996 -0.10517434 0.20102924 0.22567186 0.19137673 0.110171184

arr_4 f4 [1, 32]
00000000: cf52 ef3d feb0 313e 1eec 10be 2cb4 b3bd
00000010: feba e5bd 0041 b8bd b80c febd c27f 2fbe
00000020: 44ae 96bd 0d7b 26be b69c 7c3e dc9c bdbd
00000030: d68d 64be 3c4d 3d3e 610c ffbd c60b c8bd
00000040: ca72 423e 6edf a23e ee25 03be 2ae3 14be
00000050: 22d3 6f3e 2077 9d3e 789c 7d3e 91ed dbbd
00000060: 4972 703e 4a5c 6c3e 72ba fabd cea4 4f3e
00000070: 9f75 ddbd a1e5 94bd 2fbe a1bd 6e84 01be
0.11685716 0.17352673 -0.14152572 -0.087745994 -0.112173066 -0.08996773 -0.1240477 -0.1713858
-0.07357457 -0.16257878 0.24669155 -0.09258434 -0.22319731 0.18486494 -0.12453533 -0.097678706
0.18989101 0.31811088 -0.12807438 -0.14539781 0.23420385 0.30754948 0.2476672 -0.107386716
0.23481096 0.2308208 -0.12242593 0.20277712 -0.1081345 -0.07270361 -0.07897603 -0.12648174
