model_checkpoints/params_round_6.npz (npz, 14022 bytes, 5 tensors)

arr_0 f4 [64, 15]
00000000: 4231 683c 8497 953d 3e52 103e 4701 60be
00000010: b663 443e 75e3 80bd 00d7 4dbd bef6 fc3d
00000020: d634 113e c8bc 583d dad2 593e 2e2b 2e3e
00000030: 05ac 19bd 8300 21be 00b3 903d 7e95 7ebd
00000040: 4ae2 9b3d 4c1d 0f3e ee1a 39be 36c2 473e
00000050: c4e3 f7bc b202 433e b65e 7c3d f238 6bbc
00000060: 690e 80be 6d79 34be 8aa2 4bbe ba9b e4bd
00000070: 8472 9ebe d035 5fbd e569 403e 00ab 333c
00000080: a219 83bd 725c 10be d063 603e e07c bd3d
00000090: fcb2 e6bc 4cd7 c53d 62b6 1dbe bc03 463e
000000a0: 1179 843d 0631 3a3e 2afe 11be 5279 4a3e
000000b0: e111 fb3d 8fa3 833e deaa 2bbe a1b3 f8bc
000000c0: 3775 2f3e d63c e3bc e41b 34be c67b d2bd
000000d0: 3f98 373e da9b 1f3e ce68 ec3d c4d1 403e
000000e0: 6ab2 e1bd 4409 0fbe 381a 78be f1f9 a0bd
000000f0: 0748 17be 5e7f 8dbd bba9 e63d 3437 b03d
00000100: dc34 5cbd 8371 bf3c a0f7 1cbe 12f2 503e
00000110: 3229 813e c056 7a3e 8284 4bbe 5879 60bd
00000120: c270 afbd 1c3f 33be e8b8 11be 2650 00be
00000130: 34e5 77be 2528 88bd 7211 39bd 5f2d 1fbe
00000140: 5681 5e3e 87e1 58be 79f8 c33d f847 efbd
00000150: 9781 3d3e ca14 643d 4bda fc3d 474f 62be
00000160: 429e 383e b62b 51bd 18db d03d 06aa f3bd
00000170: ce20 163e a6c1 c3bd 0e0c 7e3d 6cdd c33d
00000180: e00c 81be d489 493e e63a 61be ca8e e2bd
00000190: b40d 24bc 00c9 19be acf7 7abe b4cb 193e
000001a0: 1913 5d3e eca1 dfbd 068d 31bd 2d14 18be
000001b0: a02a 56bc 26b1 8abd cbba 95bc aa96 573d
000001c0: ea8a 0fbe 8430 4cbc b9df 30bd 4ce2 92be
000001d0: ebcd 4ebe 0d81 f63d e2d5 45be 71bc 963e
000001e0: 3bf8 24be 5144 83bd aa07 8d3e bfe9 4abe
000001f0: 2eeb 87be fa9a 93bd 8ca4 973d 367f 72bd
00000200: b8fd aebd 1d22 2c3e 6e21 4cbe 531e 86be
00000210: 907e 373d 96ca 813e 44b0 0a3d 22f1 2d3e
00000220: 80bf c3bd c612 eb3d 6cd3 233d cbc2 35be
00000230: 18a3 04be e536 28be b421 e0bd 4264 613e
00000240: 2ad0 5ebe a415 2fbe 4c92 e63d 7c6d 6d3e
00000250: 1930 61bd 3517 153e 0d48 2f3e 96d2 a2bd
00000260: 7aee 83be 6223 213e c0b9 ab3d 7915 d13d
00000270: 492e 243e d0c8 85be 9efc 15be e1e3 69be
00000280: 87c5 c53c 6313 1ebd 5812 5abe eb59 53be
00000290: 7731 b53d d1d8 153d 1b14 d73b 22ec 2b3e
000002a0: 920e f03d c8dd 063e ba69 d63d 2841 1b3e
000002b0: 7bff 0bbe 60a9 103e ca81 45bb 98db 00be
000002c0: 7e1b e7bd 5172 813e 5cad 7fbe 6e18 f53d
000002d0: d667 3abc 4ea5 153e 1344 e03d 6271 6f3e
000002e0: 46b3 ed3d 162e 523d 6e5a 293e 78c8 77bd
000002f0: aec8 7c3e 508d 3a3e 7020 923d 5842 a13d
00000300: 5f93 00be fda2 22be 3e2a be3d 6662 343e
00000310: b7d8 223e c965 1a3d b42a b53d 5339 f03d
00000320: 0044 723e d49f c13d c053 a9bd be95 783e
00000330: 24da 4e3e 663d f63d ae2f 36be fe3c c23d
00000340: e341 463e 4266 f53c 082c 1f3d 7298 a43d
00000350: b3c4 a53c 40fa e33c e245 31be e634 08be
00000360: 0c35 533e 1252 833e 4bfa 523e 5a9a 0fbe
00000370: f628 c93d e810 533e 70ea 03bd 2044 e93d
00000380: 4a56 183e acd6 f23d 4ebc e6bd f283 49bd
00000390: 4bfe 343e 1573 d0bd 7b8b 763d f07d 64be
000003a0: 872f 5f3e 6437 a7bd 24eb a4bd cef2 65be
000003b0: 0cba 5b3e 06db 35be e928 5c3e 7153 003d
000003c0: 5081 743e 50e6 db3d 44a8 053e 0b1e 15be
000003d0: 5463 5d3e 1afc 39bc af3f f83d 49c6 2ebe
000003e0: 1027 e63d c813 03be bc0e 183d 4482 6a3e
000003f0: 66b9 cbbc d0ba 373e 3485 56be e667 8cbe
0.0141719 0.0730429 0.14093873 -0.21875487 0.19178662 -0.06293384 -0.050253868 0.1235175
0.14180312 0.05291441 0.2127184 0.17008659 -0.037517566 -0.15722851 0.070653915 -0.062154286
0.076115206 0.1397602 -0.18076679 0.1950768 -0.030259974 0.19043997 0.06161376 -0.014356839
-0.25010994 -0.17624445 -0.19886222 -0.11162515 -0.30946743 -0.05449468 0.18790396 0.010966063
-0.064013734 -0.14097765 0.21913075 0.09252334 -0.028161518 0.09660205 -0.15401605 0.19337362
0.06468404 0.18182763 -0.14257112 0.19772843 0.122592695 0.25710723 -0.167644 -0.030359091
0.17134558 -0.02773897 -0.17588764 -0.10277514 0.17929171 0.15586796 0.115434274 0.18830019
-0.11020358 -0.13968378 -0.24228752 -0.078601725 -0.1477357 -0.06909059 0.11262842 0.08604279
-0.053761348 0.023369556 -0.15328836 0.20404842 0.25226742 0.24447155 -0.19874766 -0.054803222
-0.08566429 -0.17504543 -0.14230692 -0.12530574 -0.24208528 -0.06648282 -0.045182653 -0.15544651
0.21729025 -0.21179782 0.09568877 -0.11683649 0.18506466 0.05568389 0.123463236 -0.22100554
0.1802912 -0.051067077 0.10198039 -0.11897664 0.14660951 -0.0955842 0.062023215 0.09563717
-0.25205135 0.19681484 -0.21995124 -0.11062391 -0.010013033 -0.15018082 -0.24508542 0.15019113
0.21589316 -0.10919556 -0.04334738 -0.14851446 -0.013071686 -0.0677207 -0.018277546 0.05263392
-0.14017835 -0.012462739 -0.04318211 -0.28688276 -0.20195739 0.12036333 -0.19319871 0.29440644
-0.16110317 -0.06409515 0.2754491 -0.1981573 -0.26546615 -0.07207294 0.07404432 -0.05920335
-0.08544487 0.16809888 -0.19934627 -0.2619501 0.044798434 0.25349873 0.033859506 0.16986516
-0.0955801 0.1147819 0.03999655 -0.17750089 -0.1295284 -0.1642719 -0.10943928 0.22010902
-0.21759096 -0.17098099 0.11258373 0.23186296 -0.05497751 0.14559634 0.17117329 -0.07950322
-0.2576788 0.15736154 0.083850384 0.10209174 0.16033281 -0.2612977 -0.14647147 -0.22840835
0.02414204 -0.038592707 -0.2129606 -0.2063977 0.08847325 0.036583725 0.006563676 0.16789296
0.11721529 0.1317054 0.104693845 0.15161574 -0.13671677 0.14127111 -0.0030137175 -0.12583768
-0.112845406 0.2528253 -0.24968475 0.1196755 -0.0113772955 0.1461384 0.10950484 0.23383096
0.11606459 0.051313482 0.16538402 -0.060493916 0.24685928 0.18217969 0.07135093 0.07873982
-0.12556218 -0.15882488 0.09285401 0.17615661 0.15902983 0.037694726 0.088460356 0.11729684
0.23658752 0.09454313 -0.08267927 0.24275872 0.20200402 0.120234296 -0.17791626 0.094842896
0.19361071 0.029955987 0.03886035 0.08036889 0.020235395 0.02782929 -0.17311814 -0.13301429
0.20625705 0.25648552 0.20603292 -0.14023724 0.09822266 0.20611918 -0.032206 0.11389947
0.14876667 0.11857352 -0.11266385 -0.0491981 0.1767513 -0.101782 0.060191613 -0.22313666
0.21795474 -0.08164862 -0.08052662 -0.22455904 0.2145769 -0.17759332 0.21499981 0.031329576
0.23877454 0.10737288 0.1305247 -0.14562242 0.21619922 -0.01135161 0.12121522 -0.17067827
0.11237919 -0.12800515 0.037123427 0.22901255 -0.024868678 0.17942357 -0.2094925 -0.27423018

arr_1 f4 [64]
00000000: d643 07be 2083 60be 9e5a 43be 8b0c 813e
00000010: 3e51 77bc b055 3e3e a6f7 383d 98ec 863c
00000020: c8fe 00be 9683 4e3e 0412 96bd c387 17bc
00000030: 6e7b 883e 581c 2cbe 42e4 71be a3fe 5cbd
00000040: 88ae 7a3e 720b 8d3c 80c2 f73d 0c82 1dbd
00000050: 135f 333e 2451 3d3e 7207 963e 687f b33d
00000060: a465 3abe 46de 223d 2ea5 4c3e 5c63 f1bd
00000070: 9466 693e 38f7 66be 46a6 313c a270 453d
00000080: 6c97 31be 841d 03be ad26 863e 9b8d 9e3c
00000090: 57d9 9d3c 121d 543d cc12 06be 7b72 8e3e
000000a0: 98a8 713e ac75 2dbe a7b9 073d e493 663d
000000b0: 4378 c73c 7649 8dbd 7acd 19bd f083 17be
000000c0: c3b6 d23d ec52 173e 7c9d 66bd b6b0 a63d
000000d0: 3efa c2bd b8c1 36ba 12ac fd3d 7829 66be
000000e0: a4cb adbd e2f6 093e 664c 253d 2226 623e
000000f0: 7ef8 c03d 9c69 57bc b446 a23c 4e32 44be
-0.13209471 -0.2192502 -0.19077536 0.25204882 -0.015095053 0.18587375 0.04515805 0.016470239
-0.12597191 0.20167384 -0.07327655 -0.009248677 0.2665667 -0.16807687 -0.2362223 -0.053953778
0.24480641 0.017217372 0.12097645 -0.0384541 0.17516737 0.18487984 0.29302555 0.08764535
-0.18202835 0.039762758 0.19984886 -0.117865294 0.22793037 -0.22555244 0.010842865 0.04820312
-0.17342919 -0.12804228 0.26201382 0.019354632 0.019268675 0.051785536 -0.13093108 0.27821717
0.2359947 -0.1693942 0.033136036 0.056293383 0.024349337 -0.06898777 -0.037549473 -0.14796424
0.10288765 0.14777726 -0.056302533 0.08139174 -0.09520386 -0.00069716154 0.123863354 -0.22476757
-0.08486107 0.13473085 0.040356062 0.22084859 0.09422396 -0.013147738 0.019809105 -0.19159815

arr_2 f4 [32, 64]
00000000: 1e36 953d 4bb7 a73c 4c6a f73d f879 08bd
00000010: 9ed9 9bbd cb57 9b3a cce5 653d faf5 fa3a
00000020: d2b8 8b3d 7094 01be 79c0 ae3d 3607 6abd
00000030: 7290 2c3d c2c0 00bd 6781 9ebd e6af 653d
00000040: 125c f7bd 1cc5 dabd 7cb0 38bd 926e 93bd
00000050: 668b 68bd c56a 0dbc fbc9 eb3c e612 ddbd
00000060: 865a 413d 8ef6 e3bd 4615 fe3d d8e1 93bc
00000070: dc59 ad3c 1327 f9bd a2d9 05be 0e22 4f3d
00000080: 0687 0abe 309a f1bb 46db 323c 2e0a e23d
00000090: 9a6e 6cbd 372c 49bd 1aae bdbd 9dfb a33d
000000a0: fa89 dcbd 4ce3 8d3c ac0d 41bc 384e d83d
000000b0: 069f 473d 9b62 493d fcb3 6a3d 2e7a f83c
000000c0: 3edc 7abd fcde 883d 9af3 483b 6c21 80bd
000000d0: 9a68 33bd 2660 68bc 4614 d03d 2c6d b7bd
000000e0: 0480 a83d 4e03 52bc 0e2d 07be 523f 30bb
000000f0: 6c55 b5bd 08a8 d2bc f38f 713d 246b 873d
00000100: a9cc a93d 305b 03bd 0d30 38bd 81e3 6f3d
00000110: 8c65 d3bd 8bdb 153c 48d7 4fbd beb3 fb3d
00000120: 681b c4bc d8c0 be3d f84f b4bd 6257 b03d
00000130: 78c6 6bbd 4147 f8bd da65 73bd 6046 8f3d
00000140: e439 a53c fca9 aa3d 0099 623d 4886 bfbd
00000150: e034 993d 1402 29bd 5789 8ebd 0860 793d
00000160: c6de 493d 00d4 dd3d d4a6 e4bd f6db 50bc
00000170: ec48 65bd 8e71 2e3d 8626 043d 96a4 69bd
00000180: 2a7b 4cbd 77ae 04be e62c 3abd f06b 6e3b
00000190: ba6a 9e3c aeb6 d3bd ca00 cf3d 73c5 b0bd
000001a0: 73a3 a8bd b881 c83d 76c5 aabc e80a bb3c
000001b0: 364c 553d 7c18 20bd dea9 a9bb 6257 5c3d
000001c0: fea3 e2bd 4dcf 9cbd 9803 ca3d 8027 a83d
000001d0: 7675 d8bd 7002 f6bd 4cbb 54bd 2104 c9bc
000001e0: f05a bc3d 089f 58bd 1072 b5bb e887 d3bd
000001f0: 689f 013d 9c35 cfbd 9a04 943d c955 883c
00000200: 8ed4 c83c c817 353b c914 4c3d 3ec3 a73d
00000210: 8167 a73d d5ee 4cbd 5ab0 b93c 4cdd b8bd
00000220: b03f 3fbd 1b53 d8bd 0c35 253d 1484 45bd
00000230: 566f 933c c6eb 6bbc e2be 7e3d 1ef7 8ebc
00000240: 5b41 323c 6006 7dbd bd38 e73c ac18 38bd
00000250: e58c 833c f3b2 a4bc 06fd 043e 9653 18bd
00000260: 3e6f e1bc 043f c83d dcc3 543d 383a e93c
00000270: 79cf 77bc 2152 3d3d 8ef3 c8bd c266 b5bd
00000280: 5c64 d6bd b82e 06bd 76b0 a6bd 2e64 e53c
00000290: ed43 a73d 1073 debd 204c a23d 6807 f3bc
000002a0: bb66 aa3d 15ac 06be c634 e13d 6e8b d23c
000002b0: baec 87bc 8523 593c 8884 603d 0270 183e
000002c0: e6f5 f8bc f5f3 e43d 5eb3 123d 16a2 9c3d
000002d0: 0a16 87bd a6e3 0b3d ca38 603d 44f3 043e
000002e0: 0b32 863d 729a f03d 5983 3f3c 426b e9bd
000002f0: b92b eb3b 52ca ad3d a410 55bd ead1 e53c
00000300: c940 81bd 082d 463d 3d9e 9b3d 34de 88bd
00000310: 19d2 36bd 56d7 28bc 9468 10bd 32c3 3fbc
00000320: bcea 9a3d 9852 b9bc 4a16 dc3d 7668 ca3d
00000330: 3ed7 f83d ac45 a23d d766 4dbd 62d5 1d3d
00000340: c94c 02bc 7870 74bd f796 ddbd 3abf 2c3d
00000350: 3829 b6bc b496 0b3e f018 cbbd 2fa8 aebc
00000360: 9453 edbd 4e36 ab3d 74ca eabc 60ed 7abd
00000370: 3d68 c53d 0ea8 373c e6f8 d9bd 2875 503c
00000380: 2309 01be 70e1 853d 90a5 1b3c de50 e4bd
00000390: ae1a 7bbd 4d9f 0c3e 556c 8fbd 1aa2 55bd
000003a0: 2482 3c3d f683 d93d 19ac adbc 60fb 08be
000003b0: f719 773d abcb a5bc aa4b 9f3d 64f1 973c
000003c0: 9e3e f1bd fc00 413c eae0 60bd 185f 14bd
000003d0: 7770 5f3b c4e0 8c3d 9978 a7bd a380 a0bb
000003e0: fff1 e5bd f86a 2ebd 8a32 f23c a16a 1f3d
000003f0: 4e28 67bd 3e80 83bd e7c6 0fbd 9e14 423d
0.07285713 0.020473143 0.120808214 -0.033319443 -0.076098666 0.0011851726 0.056127355 0.0019146793
0.06822361 -0.1265428 0.08532805 -0.057135783 0.04212994 -0.03143383 -0.07739525 0.056075953
-0.12078108 -0.10682127 -0.045090184 -0.07198824 -0.056773566 -0.008631413 0.028782835 -0.1079462
0.04720547 -0.11131011 0.12406401 -0.018052027 0.021161012 -0.12165656 -0.13071302 0.050569586
-0.1352807 -0.007373117 0.010916537 0.11037098 -0.057722665 -0.049114432 -0.09261723 0.08006976
-0.107685044 0.017320298 -0.011783045 0.10561794 0.04873564 0.049166303 0.057300553 0.030331697
-0.061245196 0.06683156 0.0030662776 -0.06256375 -0.043800928 -0.01418308 0.10160117 -0.0895637
0.08227542 -0.012818171 -0.13200781 -0.002689321 -0.088541836 -0.02571489 0.05897517 0.06612232
0.08290989 -0.032069385 -0.0449677 0.058566574 -0.10322103 0.009146581 -0.050742418 0.122901425
-0.02393885 0.09314126 -0.08804315 0.08610417 -0.05756232 -0.121229656 -0.059423305 0.06995845
0.020169206 0.08333203 0.055321693 -0.09351784 0.07480788 -0.041261747 -0.06959789 0.0608826
0.04928472 0.108314514 -0.111646324 -0.012747755 -0.055977747 0.042588763 0.0322633 -0.057041727
-0.049922146 -0.12957178 -0.045452975 0.0036380254 0.019338 -0.10337578 0.101075724 -0.086314104
-0.082343005 0.09790367 -0.02084611 0.022832349 0.052074634 -0.03908585 -0.0051777204 0.053794272
-0.11066435 -0.07656727 0.09863967 0.08210659 -0.10569279 -0.12012184 -0.051936433 -0.024538102
0.091970325 -0.05288604 -0.005537279 -0.103286564 0.031646162 -0.10117647 0.0722744 0.016642468
0.024515416 0.0027632583 0.04982451 0.08191536 0.08174039 -0.050032455 0.022667099 -0.09026584
-0.046691597 -0.10562726 0.040333793 -0.048221663 0.017997425 -0.0143994745 0.06219376 -0.017451819
0.01087984 -0.061773658 0.028225297 -0.044945404 0.016058395 -0.02010486 0.12987146 -0.03718909
-0.027518865 0.09777644 0.0519446 0.028470144 -0.015125149 0.046220902 -0.09812079 -0.0885749
-0.10468361 -0.0327594 -0.08139126 0.028001871 0.08167253 -0.1086179 0.07924676 -0.029666618
0.083203755 -0.13151582 0.10996394 0.02570125 -0.016592372 0.013253097 0.05481389 0.14886478
-0.030390691 0.111793436 0.03581559 0.07648103 -0.065960005 0.03415265 0.05474166 0.12983423
0.06552514 0.11748208 0.011689031 -0.11397411 0.007176843 0.08485855 -0.052017823 0.028054196
-0.06311185 0.04838279 0.07598541 -0.06683007 -0.04463396 -0.010305246 -0.035255983 -0.011704253
0.07564303 -0.022622392 0.10746439 0.098832056 0.12150429 0.07923445 -0.050146904 0.038533576
-0.007952877 -0.05967757 -0.1081981 0.042174555 -0.022236452 0.13631707 -0.09916866 -0.02132043
-0.11588207 0.08359967 -0.02866099 -0.061261535 0.096390225 0.011209501 -0.10643177 0.012723245
-0.12601142 0.065371394 0.009499922 -0.11148237 -0.06130474 0.13732643 -0.070030846 -0.052156545
0.04602255 0.10620873 -0.021200227 -0.13377142 0.060327496 -0.020238718 0.07778104 0.018547721
-0.117795214 0.01178002 -0.054901995 -0.0362235 0.0034094134 0.06878808 -0.08177299 -0.004898147
-0.11227798 -0.042582482 0.029565115 0.03892005 -0.056434922 -0.06420945 -0.035101797 0.047382943

arr_3 f4 [32]
00000000: 8c0e 8bbd 6073 e43c a8d4 0c3d cb96 a8bd
00000010: 3abe 1d3e 41d9 063e a0ae 4a3e 6831 e1bd
00000020: 0902 4f3e 3b8e acbd 0c34 6e3d a53c 25bd
00000030: 4390 fd3d 6f7e 53bd 1c3d ff3c 5b68 d33d
00000040: 79da 633e 523b 4dbd da9e 493e ae9c 303e
00000050: 7a40 0fbe b020 01be 2059 073e 5409 eebd
00000060: 4f35 763d d53e 6c3e 28d7 e93d e8c8 613d
00000070: 28e3 ab3d 2826 9dbd 8e59 6b3e 2abe 48bc
-0.06789884 0.027887046 0.034382492 -0.082318865 0.15404597 0.13168813 0.19793177 -0.109957516
0.2021562 -0.08425566 0.058155105 -0.04034104 0.12381031 -0.05163425 0.031157069 0.103226386
0.2225131 -0.0501054 0.19689503 0.17247269 -0.1398944 -0.12610126 0.13217592 -0.11622873
0.060109433 0.23070844 0.11417991 0.05512324 0.08392936 -0.07673293 0.22983381 -0.01225237

arr_4 f4 [1, 32]
00000000: 2b82 233d e27b 8dbd da94 f33d 2a53 9fbd
00000010: aa22 203e 640b b73d deab e13d 84bf a8bd
00000020: 97aa 0b3e 5a3b b13b 4948 013e cb3a 62bd
00000030: c446 413d 7f5d 5cbe 24ab 63be 1de0 0a3e
00000040: 6ddf f63d e27c cdbd f6b3 db3d c7b2 113e
00000050: 9c7c c8bd 02bc 27be da81 233e ca9b 81be
00000060: 2754 233e 139d 143e f874 463d 4e88 b23d
00000070: 3338 0a3e 565e 1fbe 4199 6d3e 7e9f febd
0.03991906 -0.069083944 0.118936256 -0.07779534 0.15638223 0.089377195 0.11019109 -0.08239654
0.13639294 0.0054086866 0.12625231 -0.05523185 0.047186628 -0.21520041 -0.22233254 0.13562055
0.12054334 -0.10033585 0.10727684 0.14228354 -0.09789392 -0.16380313 0.15967503 -0.2531417
0.1595007 0.14513044 0.048451394 0.08717404 0.13498001 -0.1556333 0.23202993 -0.124327645
