model_checkpoints/params_round_3.npz (npz, 26570 bytes, 6 tensors)

arr_0 f8 [64, 15]
0	0x3fc245de2a461938	0.1427571970381878
1	0x3fcb5771fef7e152	0.2136061186754526
2	0x3fb4c8e997255a92	0.08119068088613293
3	0x3f9fd077252e34ad	0.031068669933621496
4	0x3fa07aee48a1fe30	0.032187887541109794
5	0x3fb8b0a4117daba8	0.09644532610916079
6	0xbfab7420fdd73422	-0.053620367990881115
7	0x3f85cf05bc11d992	0.010648770143444595
8	0x3fab08c8b39ca94e	0.05280139153031148
9	0xbfb7a1c109c5a4d2	-0.09231192101073596
10	0xbfb628b53bf16fd0	-0.08655865395979778
11	0xbfceeff939bef539	-0.24169841117501692
12	0xbf64ac348d22cbca	-0.0025235201256576844
13	0xbfcdc119f7f2a3a2	-0.23245548827005985
14	0xbfc79cc5c9ffc3f9	-0.18447182048069502
15	0x3fc3dcc660ff8d6a	0.15517501579516174
16	0x3fcf5593589201e8	0.24479905914996825
17	0x3fc24d164200b0e5	0.142977506854897
18	0x3fc6a5302c4e2946	0.17691614306779452
19	0x3fa7533e49c23301	0.04555697107671187
20	0x3fb4003de7550602	0.07812868974453838
21	0x3fcdd646a540d690	0.23310168332107084
22	0xbfbbdd7ce644b5fd	-0.10884838697230488
23	0x3fc8ddbc3a58f0f7	0.19426682328219844
24	0x3f9609b3f3827a9e	0.02152138875737341
25	0xbfaec56a545b8da4	-0.06009990958934999
26	0xbfc403756104b116	-0.15635554539893154
27	0xbf9b25293c298500	-0.026508945748337176
28	0xbfb16d8550f9d825	-0.0680774042792512
29	0x3fc8d1839bfb9921	0.19389386288021007
30	0xbfcd8647313077a9	-0.2306603422338729
31	0xbfcc34293ecf8278	-0.22034183089182924
32	0xbf98f7d1907c6fd2	-0.024382852977495713
33	0xbfbffc83aa5ba090	-0.12494681271675945
34	0xbfb8b04cff735ee4	-0.09644013630474607
35	0xbfcbc42e76153336	-0.2169244839264139
36	0xbfa448eaa9f5e268	-0.03961880993569339
37	0x3fb198fbf3512a22	0.06874060335500379
38	0xbfbace1b1921dc31	-0.10470742572384563
39	0x3fbb20a7672fc2b8	0.10596700925067182
40	0xbfc4c31dd07ba6c1	-0.1622044818862403
41	0x3fb6747d844189fc	0.08771500090509926
42	0x3fcbf25466650408	0.21833281516777014
43	0x3f76c269925d87b7	0.005556499852760347
44	0x3fcd8faff752bdc2	0.2309474904663898
45	0x3fcd8464f0bcaa23	0.23060285334334293
46	0xbfbbb73e9871f1aa	-0.10826483938030287
47	0xbfcc142f896b5db6	-0.21936601839000297
48	0x3f9b04c2724ca295	0.026385343767432252
49	0x3fc45d8533392f92	0.1591040134538813
50	0xbfc48be2ddce31b8	-0.16051898794502306
51	0xbfd11f3940112356	-0.26753073936975136
52	0x3f818a580a1593b6	0.00856465130591198
53	0x3fc31b8603bc7988	0.1492774503939922
54	0xbf8cf9581cc70549	-0.014147461298196122
55	0xbfa7e5df1c10dea4	-0.046675655532849164
56	0xbfb64ea1adcaf84c	-0.08713732235898525
57	0xbfbb6c3ee6664201	-0.10712044835077707
58	0xbfc77a8394a1b160	-0.1834263301601693
59	0xbfcd19b93f0592e2	-0.2273475225184916
60	0x3fcfe8b154df4282	0.24928871769090583
61	0xbfcd42153f0d4648	-0.2285791929121379
62	0xbfc9fffde5094863	-0.20312474902545138
63	0xbfc157ea0f94dfa8	-0.1354954315263488
64	0x3fd0fa0b1ec7e31a	0.26526144033373245
65	0xbfc04abddbcd66d0	-0.12728093369042037
66	0xbfc67653649179a9	-0.17548601542052936
67	0x3fc5628e455312d3	0.1670701826571049
68	0x3fc19a2e03934f24	0.13751769232350697
69	0x3fcc94363412eb7c	0.2232730631129377
70	0x3fbc2c28e6ebeae6	0.11004882467015484
71	0xbfc93fdb0776515e	-0.19726121773113453
72	0x3f63ecf9f9b9b104	0.002432335122469211
73	0x3fce8744eb86a666	0.23850308895389388
74	0xbfc81ce4886409a4	-0.1883817354174201
75	0x3fc0675ad9281d9c	0.12815414050440388
76	0x3f8907d852c7f7d8	0.012221994425086466
77	0xbfcff7df76dcd9af	-0.24975198081820113
78	0xbfce15b734db7f56	-0.2350377090542632
79	0x3fad916df7634944	0.057750164459906134
80	0xbfccf6df6f5d4d26	-0.2262839597484369
81	0xbfc587e2fe93baaa	-0.16820943289299822
82	0x3fc93fb4f3514776	0.19725667839753286
83	0x3fcc4d74a3ca917c	0.2211137580644723
84	0x3fc0bdb643d55d34	0.13078954994373648
85	0x3fa58a15d2ec98bb	0.042069131848891904
86	0xbfb823a190e52076	-0.09429368770099864
87	0x3fcabff74d40cb4a	0.20898333809017294
88	0x3fc23046b825a570	0.14209827415042353
89	0x3fc174ce4c3dfec3	0.13637713167917384
90	0x3f595d512a703dbe	0.0015481274256251422
91	0x3fcdbc3821b07d76	0.2323064960955709
92	0x3fc1765333c31f42	0.1364234926934334
93	0x3fc8626cccc0d21e	0.19050369260516303
94	0x3fc6957dab3d9887	0.1764371000419411
95	0x3fa1666e8ab3b0a3	0.033984617644678104
96	0x3fbc1e31d3cf737e	0.10983573361541052
97	0x3fc179fec86caaf3	0.13653549944259388
98	0x3fc864ec32e85a62	0.1905799149105461
99	0xbfc4e1784b11ba16	-0.16313079514971268
100	0x3fcb125e4c52b185	0.2114980576201441
101	0xbfb1e9a43cfd590e	-0.06997133721356283
102	0x3fc543dc44af5210	0.16613343576194994
103	0x3fc2b16e1865734c	0.14603973571038364
104	0x3fc639fbbb75419c	0.17364451077675092
105	0xbfceec4c1a79bb0b	-0.24158622067212607
106	0xbfb06e828030fb58	-0.06418624524756689
107	0xbfc5b57e8b62323c	-0.16960126691664523
108	0xbfb222f7663e9afb	-0.07084604498104945
109	0x3fc93dd8da556a09	0.19719992314169613
110	0xbfa1bc43cce51278	-0.03463947178037058
111	0xbfb2fd2800f95fa8	-0.07417535804540754
112	0x3fcebb47d4f51971	0.2400903501349592
113	0xbf8c628ba69aef06	-0.013859835645568374
114	0xbfa917bf69e4b8b6	-0.0490093056454141
115	0xbfbe65eafb2ede8a	-0.11874264366530887
116	0xbfd029316a053556	-0.25251422265576673
117	0x3fbbdb40e0ca74e2	0.10881429184015048
118	0xbfc79a5d5d40f201	-0.1843983369198128
119	0x3fc8953961c8e6bc	0.1920539596047116
120	0x3fb2cfb382f9eb61	0.07348176906263638
121	0x3fd013a5eefe3f32	0.2511992296140192
122	0xbfc2fbeba8257560	-0.1483130045916523
123	0xbfcbf0fe8271b828	-0.21829205865236756
124	0x3fc3ed25b96ef057	0.15567466310847308
125	0x3fb70d55ac91c005	0.09004722083204804
126	0xbfc3d6d857369960	-0.1549940515371402
127	0xbfc43a23a1af2c96	-0.15802426714649148
128	0x3fbbf81bdf732b5b	0.10925459103888839
129	0xbfa5f7c4b029d521	-0.042905947212526614
130	0x3fc4de6746fc3ad7	0.16303721395566725
131	0xbf95539eb9cd2dd9	-0.020826797571585096
132	0x3fce33d180a013ee	0.2359563711217158
133	0xbf9ed9566374e8ef	-0.03012595159564396
134	0xbfb42de348c4d04f	-0.07882519270498388
135	0xbfcd5b4e3ef357d9	-0.2293489272475984
136	0x3fa364843e4b9b5a	0.03787625561181214
137	0xbfa8c8468c9b5dac	-0.04840298143761443
138	0xbfc1f2f997bbcde9	-0.14022750767581663
139	0xbfc9d0fd829b68f8	-0.2016903770189129
140	0xbfbda58351187e62	-0.11580677728533709
141	0xbfb00024f41ab263	-0.06250220260216958
142	0xbfb4a23bb0a3e44c	-0.08060048162941874
143	0x3fbf6d47ba17d1c0	0.12276123326575483
144	0x3fc545e810c9ec9a	0.1661958772636794
145	0xbfb00d64bb4fd2bc	-0.06270436833421916
146	0x3fc4ce7f9c3ad020	0.16255183342366397
147	0xbfc851c1ed3dd251	-0.18999504169518613
148	0x3fcd862327cf5ec6	0.2306560463318787
149	0x3fc8cd73915695ad	0.1937698802623066
150	0xbfb0f89584275308	-0.06629309154898178
151	0x3fb57ef235fc2417	0.08396829431525564
152	0xbfb6f53deb034810	-0.08967959392182956
153	0x3f99ba95bcc387a0	0.02512582745192271
154	0x3fc5bd8c7788ea96	0.1698470672289047
155	0x3fabc732d68f3e47	0.054254139605856504
156	0xbfd013b50509675c	-0.2512028264223909
157	0x3fc858a0f0f18b16	0.1902047325594018
158	0x3fc1db82bbc4e14a	0.13951143425380003
159	0x3fb02d9fa05eebc0	0.06319615998556483
160	0x3fc5de9113193924	0.17085469658418007
161	0xbfc6c6a184f27900	-0.1779367350727128
162	0xbfb7e2cd563d42a6	-0.09330447535945527
163	0x3fc514ace681b079	0.16469346289830236
164	0x3fc16c071b2d50e6	0.13610924555781095
165	0xbfaad884699167d1	-0.05243314541503675
166	0xbfc625735c03c46e	-0.17301790230661446
167	0xbfb8ad94c44a853c	-0.09639863769782137
168	0x3fb4cc11859cb75a	0.08123883735671936
169	0xbfcb6945213859e8	-0.21415008661342871
170	0x3fc3aad4b9aa35ba	0.15365084710758287
171	0x3fd0b3e5174708f8	0.2609799125022074
172	0xbf99291f4b71a2fe	-0.024570931415300194
173	0x3fce90f02544d800	0.23879815883418587
174	0x3fb37a35aa170aa6	0.07608352091396373
175	0x3fc8c803647b8e86	0.19360392004374577
176	0xbfc860f7bdbec3b4	-0.19045922055150089
177	0xbfcf3b6ce1f900c4	-0.24400101693936993
178	0x3fb5e656eb46b2ec	0.08554595226332723
179	0x3fc477e2e614d6fb	0.15990864023631687
180	0x3fc1d2fc2df6c3da	0.13925125355083773
181	0x3fb4a095588463e4	0.08057530795157636
182	0x3fa7537f906ed998	0.04555891645525206
183	0xbfc307d6a6c7570a	-0.1486767114972099
184	0x3fc31d9cc6ba7db5	0.14934119895495504
185	0xbfc127d20b70c1f0	-0.13402772482505965
186	0x3f52148786c9824d	0.0011035274029823794
187	0xbfa2d5b2ba9a68a0	-0.03678663757200806
188	0x3fbb7c25054678bc	0.10736304644385347
189	0xbfbec9dff8491920	-0.12026786624582941
190	0xbfc11a2569edc3fa	-0.13361041710189153
191	0x3fa46fa44486549c	0.03991425835116866
192	0x3f860a92298ff00e	0.010762349980716148
193	0xbfca692f1a00fec2	-0.20633496064873752
194	0x3f5cf559e6451b46	0.0017674806523062122
195	0x3fd101c12b45c964	0.2657320902427698
196	0x3fc23a5454c0c896	0.1424050725777916
197	0xbfcbfe7da5daa792	-0.2187039432367866
198	0x3fbb4895c545a96e	0.1065763098355654
199	0x3fc672077bdb90ee	0.17535489604700366
200	0xbf784a4feb723b4c	-0.005930244623541036
201	0xbfc5a4cb4698fdce	-0.1690916151728587
202	0x3fc14bd8e4a724e4	0.13512717404072483
203	0xbfc85d8f987f6aca	-0.19035525270631687
204	0x3fcb9bcbae833ea2	0.21569200535895044
205	0xbfc3064b22e56a84	-0.1486295624152555
206	0x3fc9d782590986ba	0.20188931796569937
207	0x3f90ae914dca97c7	0.016290922520646036
208	0x3f8f3ea94d2c3e74	0.015256235759380156
209	0xbfc91a6fae7e4a38	-0.19611927051717415
210	0x3fc5d13ce553a0b4	0.17044793317405083
211	0xbfc416e084e29b31	-0.1569481514790936
212	0xbfaefd5b66546299	-0.06052671074048028
213	0xbfc02077d148ba6a	-0.12599084586095738
214	0x3fc192ffebf5d727	0.13729857465266912
215	0xbfbeac846d011790	-0.11981990491139372
216	0xbfc326ba478c52d2	-0.14961937421380483
217	0xbfc100eb72a07c9a	-0.13284056756035484
218	0x3fc4a340dad318fa	0.16123209652705112
219	0x3fb716b22eee1e90	0.09019006391292295
220	0x3fc8de38d7a1457e	0.19428167847449268
221	0x3fa906e9f128dd22	0.0488808733829791
222	0xbfc6fde3f211a628	-0.179623120496488
223	0x3fcb9a0b59ada9c0	0.21563856009318094
224	0x3fca8aedfa525d47	0.20736479494801527
225	0x3fc250ca4d8885b2	0.1430905226307409
226	0xbfd05b1de20b9fcb	-0.25556132387873437
227	0x3fa9b7a2d4518007	0.05022915689255574
228	0x3fca02fba1592bc8	0.20321603182159564
229	0x3fc6da36f95800ce	0.17853438544262307
230	0x3fce591ef689dd07	0.23709475553526024
231	0x3fc0af781b466da0	0.13035489398758404
232	0x3fcdf54fb3d5ebbc	0.23404880791698968
233	0x3fd00b3111418ca0	0.25068308530007677
234	0x3fcc1d94ffd9d2bd	0.21965277188032487
235	0xbfba809490181c92	-0.10352448003696882
236	0x3fd016ba684ac16e	0.2513872164227199
237	0xbfcdc3d9de4ceef5	-0.2325393996669544
238	0x3fca5a61f6334be8	0.2058832599783209
239	0xbfb3f2a0a6862517	-0.07792095246817997
240	0xbfce1f1184fcab65	-0.23532313340669045
241	0xbf9b4b813a0c87ff	-0.026655215423609487
242	0xbf932cc73ae610e1	-0.018725502939120345
243	0x3f8dc9d394df4bb2	0.014545109730453951
244	0xbfcbb89132aca082	-0.21657004331905588
245	0xbfc2174a736eca1c	-0.1413357795368747
246	0xbfa1fa23547a0124	-0.035111526548464306
247	0xbf931ea26ee9c85b	-0.01867154886208087
248	0xbfc4c575cce0db5e	-0.16227600578141738
249	0x3fc41ce4e39cb6fe	0.15713177789569238
250	0xbf5c1cde3592a5d0	-0.0017158670437232744
251	0x3fc248ea81db2ded	0.14285022106774595
252	0xbfbc914943f1b77a	-0.11159189137262429
253	0xbfcb53d3d282c283	-0.21349571017119126
254	0xbfb314e490cdeee4	-0.0745375493551666
255	0x3fc3f0da0a61f7e2	0.15578771120993823

arr_1 f8 [64]
0	0x3fc07ab1eed63f47	0.1287443557926002
1	0x3fcafc6423610e35	0.21082736709114305
2	0x3fd0d10489c71a24	0.2627574296460884
3	0xbfaad399005d6858	-0.05239561204389592
4	0x3fa228e3838bd78a	0.03546820622243192
5	0x3fc3044b87fe49fc	0.1485685743360391
6	0x3fa5f91cd67cb87b	0.04291620367290335
7	0x3f92001552dd4d3f	0.017578442747731456
8	0x3fac304ec3d35874	0.05505605831574281
9	0x3fc83b593ca6c18c	0.18931117497914973
10	0x3fc36f46febb365f	0.15183341444064788
11	0x3fc43a8efecf8e71	0.1580370659058761
12	0x3fb4d11dc65773ca	0.08131586162876583
13	0xbfc628c83ed8111b	-0.17311957424693322
14	0x3fa7f5cfc0482e72	0.046797268125456606
15	0xbfc429718c2a8d22	-0.15751475662282483
16	0xbfc977cc932f6bea	-0.19896847903041187
17	0x3fc7c5c0b34b6953	0.18572243456476176
18	0xbfc2fdb207b04b2d	-0.14836717009947034
19	0x3fb1647996469015	0.06793937605704088
20	0x3fc8914433fb4516	0.19193317926559733
21	0xbfc3ef1ec259c9c9	-0.1557348679521751
22	0xbfc0f0d902cf30f8	-0.13235008847403384
23	0xbfc51ee07c3e0bea	-0.165004788079471
24	0x3fb3336ffa2c3c4c	0.07500362260565047
25	0xbf871f5e6d3a4cd8	-0.01129030009113878
26	0x3fc21a514e1adff2	0.14142814935416897
27	0xbfb29d7c26e7cb50	-0.0727155299171447
28	0x3fc128616fa0dfbd	0.13404481840711738
29	0xbfca7e032429ef7e	-0.20697058931170526
30	0x3f80108b87d4cd32	0.007844057162037819
31	0x3fcd00070778ef68	0.22656333794463568
32	0x3fbca4efac24a604	0.11189172699655364
33	0xbfcf207f18e3ab16	-0.24317921366977008
34	0x3fb2ffcfb4987a61	0.07421587142059984
35	0xbfaf6d1c27f7baee	-0.061379318121785306
36	0x3fb115e634eee458	0.06674040596307529
37	0xbf9e9d41d344255f	-0.02989676334349178
38	0xbfd02a5e81046d56	-0.25258600806565334
39	0xbfc2861314e4a058	-0.1447166301743461
40	0xbfd04756a9b58365	-0.25435415814540924
41	0xbfa95aa4fb900864	-0.049519687374428384
42	0xbfc5c8c41681a8b4	-0.17018939112614861
43	0x3fcc6f100d62fc6a	0.22213936475415902
44	0xbfd0c5d5a8ae9310	-0.26207486603588936
45	0xbf8311936ae7a093	-0.009310867023444558
46	0xbfc0059780baa82c	-0.1251706484375189
47	0xbfc7e7fe64bd6f66	-0.18676738661713016
48	0x3fc668a680fbbfe1	0.17506867692963993
49	0xbfa4826a16d93bb2	-0.04005748299515889
50	0x3fd08d236378d818	0.2586143943220818
51	0x3fbe4d9881168614	0.11837151671945662
52	0xbfbb046a56467f86	-0.10553612333614923
53	0xbfa0402efe33f723	-0.031739681749952696
54	0xbfc9ef8684f3a270	-0.20262223712713334
55	0x3fcae16374ef8ea9	0.21000331125025198
56	0xbfd03ac48b20e1c4	-0.2535868986774654
57	0x3fce9f652e052c10	0.23923935648994687
58	0xbfa95c13b3e11892	-0.04953061648170477
59	0xbfb6459a2b701e7f	-0.08699954567429734
60	0xbfa301f28984bbf1	-0.037124232565808664
61	0xbfc385dabc2a508c	-0.15252241313703896
62	0x3fabda90858954a4	0.05440189008792487
63	0x3fc82fdbf6d64910	0.18896054794874617

arr_2 f8 [32, 64]
0	0x3f8bbd69ecf3653e	0.01354487184873909
1	0x3fa9a3762eefbfb7	0.05007523844676547
2	0x3fb5cc4c2e67c16b	0.08514858372632765
3	0x3fbd7a67135a7ad4	0.11514896605010999
4	0xbf6d02f37282bbd0	-0.003541446192762511
5	0x3faa13270b848708	0.050927372127501924
6	0x3fb2659065d88f18	0.07186224447701439
7	0xbfbf94211bf25b1e	-0.1233540242413764
8	0x3fbb7ca0d3b9cbb0	0.10737042588316004
9	0x3f84126ad0b65974	0.009800753111261364
10	0xbfac064693f8e29b	-0.05473537975598682
11	0x3fb7455a9011631c	0.09090200440676849
12	0x3fb644abc531e526	0.08698533596352273
13	0x3fc1a12e8f9a1412	0.1377313805752754
14	0x3fb2ca8bca16f33e	0.07340310748891185
15	0xbfb7935252c4295a	-0.09209169884357973
16	0x3fad1b968919a9cd	0.056851104961271305
17	0x3fa2cb1ecf79cc2c	0.03670593531287411
18	0xbfb85f7df59ea160	-0.0952070927293156
19	0xbfb42a5b680463e4	-0.07877131738167936
20	0xbfb732269689d906	-0.09060898947959481
21	0xbfa82d2ba148b4c8	-0.047219623029698676
22	0xbf95605e925b1922	-0.020875432665684042
23	0xbfc1d291e5cafe44	-0.13923858375891218
24	0xbf828725e1b3882e	-0.009046836805684046
25	0x3fc10f1f8ad466ee	0.13327402380746584
26	0x3f8e1b84c513848c	0.014700925125398244
27	0xbfbd776e2f669b84	-0.115103613445724
28	0x3fa5e9944e5a4406	0.04279769379093783
29	0xbfb9415223cbaeb2	-0.09865296720425468
30	0xbfa3b434ff15a6b6	-0.03848424543214206
31	0x3fba99f46a38dbb2	0.10391166299164814
32	0xbfbdb6f5fc8bf4d6	-0.11607301154795677
33	0x3f8d926ccb57fe1a	0.014439439731176274
34	0x3fbc1f546107b67c	0.10985305184268584
35	0xbfa8e5cf7b9cf56a	-0.04862831481885162
36	0xbfb729c3e7f6288a	-0.0904810372650521
37	0xbfb61e2eda3edd5c	-0.08639805629979008
38	0x3fa4eb7318a0ea12	0.04085883784906143
39	0xbf9ced579d6eb4de	-0.0282491388167515
40	0xbf9d7bc62a3fd664	-0.028792473152824974
41	0x3f75eadfe8c67cac	0.005350947042102632
42	0x3fbcfb9f5699939e	0.11321445335631927
43	0xbfb4c19f784f4f7e	-0.08107945143939152
44	0xbfb9e088b6b8b04b	-0.10108236752483994
45	0x3fb60cafca30dbf3	0.08613108335781287
46	0xbfc03a3509edc128	-0.12677634224702072
47	0xbfaead7469f8adc9	-0.05991710465999806
48	0x3fb6eb6cd4aef57b	0.0895298022505439
49	0x3fab2fc658085e98	0.053098867651155846
50	0xbfb7e14f1e2abfb7	-0.09328169332979895
51	0xbfb3898f6a6418dc	-0.0763177523368514
52	0x3fb78367dca68924	0.09184884201980431
53	0xbfb5505eddbcfda2	-0.08325760758906722
54	0x3f9ea1f2b5318437	0.029914657887619902
55	0xbfb2765033d342aa	-0.07211781754746008
56	0x3fa5af4dc258abe0	0.042353086446688115
57	0xbfac01f2726e53c4	-0.05470235487806677
58	0xbfadade3aeb27702	-0.057967295718510684
59	0xbfb64fd33394c3d4	-0.08715553292564887
60	0x3fae9d6f46cbb57c	0.059794881240899905
61	0x3fa76bbd7c897a7a	0.04574386735179288
62	0x3face9b4fc15eb2f	0.0564705426904396
63	0x3fb659ab4b3843dc	0.08730574213429015
64	0xbfa620eda2643da4	-0.04321997268027225
65	0xbf9b7f265ec5cf0a	-0.02685222581335637
66	0x3f8209b812588302	0.008807600078456716
67	0x3fbd66d7eee0ae7c	0.1148505171010416
68	0x3fb44f9c64746174	0.07933976604943443
69	0x3fb63667b9cb78c0	0.08676765714651236
70	0xbfb8d325b3359ba3	-0.09697185158948556
71	0x3f8cb289aeb975c3	0.014012408871333265
72	0xbfbed96e64c41f38	-0.12050523719892403
73	0x3f80c076a365e95d	0.008179594861520806
74	0x3f9927f1f89361b8	0.02456644134221772
75	0xbf7c13d1bdf41adc	-0.006854838661871834
76	0xbfb323320d0ca75a	-0.07475579088773313
77	0x3fbe02abfb33385c	0.11722826845945761
78	0xbfb84aceb3a404e1	-0.09489147077330841
79	0xbf8a9958c88a980d	-0.01298779832843524
80	0x3fb8bb054be88c0e	0.09660370925171
81	0xbf6c9be0b0873bd5	-0.0034922970264470257
82	0xbfb4436053ac8a5a	-0.07915308039495397
83	0xbf9b1153748fb530	-0.026433280934658743
84	0x3fb102f7cf2198a8	0.06645153815188343
85	0x3fa482dabc5b1310	0.04006084012283939
86	0xbfb2ef9c17436028	-0.07396865432690503
87	0xbf88aa0f89315d5c	-0.012043115019123966
88	0x3f9d58b559e24d04	0.028658708201487762
89	0x3f71765cfc8c9c8e	0.004263270596118874
90	0x3fb37bd99f454794	0.07610855234568553
91	0x3f95061646beeec8	0.020531032627089357
92	0xbfa7da77287d7fce	-0.046588634197859954
93	0x3fa49c1fab594678	0.04025362936648674
94	0xbfafa376b646ac78	-0.06179400420236275
95	0xbfb0a02843f0f628	-0.06494380625459739
96	0xbf7a2094b213da7a	-0.0063787277624586195
97	0x3fbe185c0cd9a2f4	0.11755919755672634
98	0x3fa3950f3fabbf35	0.03824660923225879
99	0xbf5c7424f0577180	-0.001736675332146026
100	0x3fb43ce9cdb2111d	0.07905446311821547
101	0xbfb0aefe8307ec00	-0.06517019938466717
102	0xbfb21f0812c05f70	-0.07078600366400933
103	0xbfc1868ecbff53a0	-0.13691887818154402
104	0xbfb747e87ec7d82c	-0.09094098181944393
105	0xbfa25f5d6bff6bcd	-0.03588382666904231
106	0xbfa4a75984c4dd92	-0.040339276749757805
107	0xbfa18e49ba14a600	-0.034288696255611484
108	0xbf97ab9204f2a4cf	-0.02311542658995763
109	0xbfbb0bc6336c10ba	-0.1056484103720007
110	0x3fb71b561d9eeb06	0.09026087020076198
111	0x3fb91785e440b8b0	0.09801518271044318
112	0xbfbf30db5152eac4	-0.12183924422690057
113	0xbfae2f3909ff912a	-0.05895403143930118
114	0xbfad833ecf658848	-0.05764194757172497
115	0x3fbd6a1ad8692739	0.11490028174844448
116	0x3fb28cc09ae10456	0.07246021062111771
117	0xbf378d9ccd0dd658	-0.00035939291142681384
118	0x3fa0be9e7b33487e	0.03270430807028023
119	0xbf9ac2be9bc283ba	-0.026133516556573012
120	0x3faa37b61660d472	0.051206293327063515
121	0x3fb2c4711f4f53c9	0.07330996527100732
122	0xbf56a5a7c6ae45dc	-0.001382268756718089
123	0xbf9dc9a30b234e64	-0.029089496187977196
124	0x3fb371d56ffd2232	0.07595571502782475
125	0xbf859d34bb1c06c0	-0.010553752861145127
126	0xbfae13504d661ca3	-0.058741101692299645
127	0xbfa2252813a22eee	-0.03543973197619531
128	0x3fba28c380148013	0.1021845042891985
129	0xbf54a388edb23c2a	-0.0012596928779975516
130	0xbfb795b336fa9667	-0.09212799160249006
131	0xbfbe2550e6de9ee5	-0.1177568973204149
132	0xbfb2f11ba7945648	-0.07399151650710067
133	0x3fac1bdf1709a72c	0.05490014225217829
134	0xbfc3c86511460adb	-0.1545530638068929
135	0x3f9aa4b14ee6d3c4	0.026018877449775393
136	0xbf97f628c559c21f	-0.023399960561109375
137	0xbfc06c7c684f58fc	-0.1283107289625106
138	0x3fb41f2b5ac07f5c	0.07860060659049622
139	0xbf754a1126e7cbed	-0.005197588920498025
140	0x3fa3cc88e1fbbc73	0.038669850908143476
141	0x3fb08cc57e682a2e	0.06464800201516915
142	0xbf7c35b00ecf2f7a	-0.006887138105366003
143	0x3fa5bb50e402495a	0.042444732506867935
144	0x3fbd7830b3fffbb6	0.11511520761994984
145	0x3f886953e112dec4	0.011919646555142
146	0x3fbd93b8f6be2b8c	0.11553531669612321
147	0xbfa3fce347efab64	-0.039038755923533924
148	0xbfbe225415c94ffd	-0.11771131069082226
149	0x3faeb4c211d7124e	0.05997282474303188
150	0x3fbe0a4d46344a78	0.11734469379397605
151	0xbfbcf7fe32e28e03	-0.11315907232579296
152	0x3fb796a5d51ccb46	0.09214245274487806
153	0x3faecc5160055b66	0.06015257165079539
154	0xbfab57fa62ae2734	-0.05340559439271289
155	0x3fb1bb88e91b4c6a	0.06926780406074476
156	0xbf797f936e288a50	-0.006225181483872591
157	0x3fb3b748a70022fa	0.07701543881570308
158	0xbfb6854c130abbbb	-0.08797145333185956
159	0x3f9c0db00616a377	0.027395964023216614
160	0xbfb59e2be702f71a	-0.0844447554581759
161	0xbfb8c6bdc6810c62	-0.0967825517300738
162	0xbfc34b596d20b682	-0.1507369788027298
163	0x3fabfa9739f85eec	0.054646230532112344
164	0x3f9e61e82b991b34	0.02967036024190435
165	0xbf96c12e616efd64	-0.02222130269705981
166	0x3fb68e9028c0fbd6	0.08811284060446609
167	0xbfb83af3f7b5a280	-0.09464955136867026
168	0xbfb999a665a5b698	-0.10000076276420555
169	0x3f73daf9cf369f40	0.004847503488612237
170	0x3f93c1c0dced2381	0.01929379795481934
171	0xbfaa7f8f122fc3d2	-0.051754446954766956
172	0xbfba4552426a6bba	-0.10262025948979572
173	0xbfaa5df9df786b37	-0.05149823048505769
174	0x3fb006c5d3ee6745	0.06260334419348819
175	0xbfb03172b6c36df8	-0.0632545181464862
176	0xbfa0c80f2df5f81a	-0.032776331291629116
177	0x3fb04e4fe59e2597	0.06369494777586336
178	0xbf83ddbb345cde49	-0.009700262580380275
179	0xbfb4a5a66de5e2c6	-0.08065262015396532
180	0xbfb6d81ad7741716	-0.08923499832243595
181	0xbf7c1ef771bf8b9a	-0.006865469531450419
182	0x3fafb4cdd62a5484	0.06192630042384287
183	0xbfbbfcfa1552ea3e	-0.10932887096979813
184	0xbfb57c0f27209490	-0.08392424302344836
185	0x3fb75c875d752c82	0.09125562698061354
186	0x3fbb6f9d054843d6	0.10717183474504507
187	0x3f851e81776bcfb3	0.010312091309493931
188	0x3fb1087ce091f806	0.06653576357527421
189	0x3fb307bc365786fc	0.07433677984911563
190	0xbf5b081e5756c7bc	-0.0016498848247974282
191	0xbf91548ee9d472bf	-0.016924126645892153
192	0xbfbb2452cb4e9d33	-0.10602300132324131
193	0x3fba326984c0df0d	0.1023317288498868
194	0x3fae37e8c6a267bd	0.059020303962099764
195	0x3f893d833f589ceb	0.012324357386275206
196	0x3fb550cf528c4ca4	0.08326431050618283
197	0x3f8a75b9358ffce2	0.012919852206322028
198	0xbfa1ed852051bdb4	-0.03501525897524563
199	0xbfb5b05ce5a53ee5	-0.0847223339708268
200	0xbfb4785b3fe08902	-0.07996149358271867
201	0x3fc0d8496f1e2057	0.13160055089633957
202	0xbfa56416ecb1527b	-0.041779247658870276
203	0x3fb4f0c0c9f40e5c	0.08179860048772397
204	0xbfbf195dba891088	-0.12148080638968584
205	0xbfb8b080e6dcfb4b	-0.0964432300215609
206	0x3fac0c9ccf6a769e	0.054783726043053024
207	0xbfbfb32ae5a2d694	-0.12382763010358594
208	0x3f8e9cf5a4db45da	0.014947814076921629
209	0x3fa19db476c364a6	0.03440631818529853
210	0xbf666fd6a2a39e3b	-0.0027388755889779215
211	0x3f5647b67c538455	0.0013598711096210099
212	0x3fa9a174fe55eaa6	0.05005994419749031
213	0xbfb494725c1b4862	-0.08039011715598712
214	0x3fb9e0f92951e998	0.10108906992710442
215	0x3fbf0580b78d4474	0.12117771607633349
216	0xbfb5e35199b645ce	-0.08549985888227882
217	0x3fbbf2b2dca2a5fc	0.10917203795056446
218	0x3fb5e0de82130d8d	0.08546248126645235
219	0x3fa890bcd8dc4061	0.04797926089497718
220	0x3fbfbbf7286d98c6	0.12396187531485045
221	0x3fb035e80d191ba4	0.06332254714753432
222	0xbf8aa72cc9d2f923	-0.013014173421080749
223	0xbfabfd9bee099ae0	-0.05466925888759078
224	0xbfbcaae503f522be	-0.11198264452572013
225	0xbfc0bc813c0f85d0	-0.13075271065376493
226	0xbfba2ae40d678652	-0.10221696212058731
227	0x3fbc2e4727ded31a	0.11008114550970696
228	0x3fb34c9aa3d16659	0.07538763522588833
229	0xbfab31e81cad7d9f	-0.053115132809348646
230	0x3fa59df6531e53ab	0.04222078098897638
231	0x3fbdebe90eddcd5e	0.11688095677327712
232	0xbfb1ff6cf566a52c	-0.0703037356494362
233	0xbfb885e8030d8840	-0.09579324793369981
234	0x3fb1dceab55b5642	0.06977717330604441
235	0xbfa6a8a3bf43847c	-0.044255368325829075
236	0x3fb28f8e7e37ce6a	0.07250300008291224
237	0x3fbb9ee0e64de7bb	0.10789304373420709
238	0x3fa7bfefcdf213b7	0.04638623608574426
239	0x3f96395e39a54520	0.02170321680870757
240	0x3fbe34339a101d12	0.11798403273870786
241	0xbfb1ef22955585dc	-0.07005516191340838
242	0x3fb1a01aaf83bbae	0.06884924683593738
243	0x3f8e364d1ce334f4	0.014752008861615519
244	0xbfa058c8eb66f552	-0.031927374587648175
245	0xbfa3c3c8e1413b96	-0.038603093621183124
246	0xbfa79a5119c8b7de	-0.04609921874758503
247	0xbf65ac220196a0bd	-0.002645555895203071
248	0xbf6a3d659035ddab	-0.00320310436807932
249	0x3f864255913b553f	0.01086871003591716
250	0x3f7301796aa2c2c6	0.004640077861197417
251	0xbfb604d0baf400c9	-0.0860109764507825
252	0x3fbae91ea738e8aa	0.10511962492538154
253	0x3fb460dac396523a	0.07960288310125288
254	0xbfb51dc42c6ebe36	-0.08248544773845698
255	0x3fb476d9419159e7	0.07993848658347923

arr_3 f8 [32]
0	0xbfb06b1a8fab5491	-0.06413427360105774
1	0x3fbd381dbea0a437	0.11413751510612334
2	0x3fa196d21eb687a3	0.03435379624285353
3	0x3fad89756617c61c	0.05768935080767454
4	0x3fb6fc692a2eb327	0.08978898315281168
5	0x3fb79c26b2cec0cd	0.09222642770214691
6	0xbfb60ee63501e03a	-0.08616484445690356
7	0xbf845e22dcdbbade	-0.009945175519047774
8	0x3fa198760b38c11d	0.03436631094916918
9	0xbfb3a6814b57d531	-0.07675941552573275
10	0x3fb5d3be7b33fe7a	0.0852622080601523
11	0x3faf114b310eae04	0.06067881559223667
12	0x3fadfa05e3976e50	0.0585481491395653
13	0xbfb81d25a0f84e81	-0.09419474773340576
14	0xbfb74a1a23addfca	-0.09097445841859933
15	0xbfa56b978e2173f0	-0.0418364869117126
16	0x3fa57c514489c951	0.041964091888888284
17	0x3fa8bc61a659159f	0.04831223636260095
18	0x3fac7410b7350b1c	0.05557300793090844
19	0x3f97bf1eb312f833	0.023190002136054665
20	0xbfbe3cde828d22d3	-0.11811628997123629
21	0x3f848c92aeb7b89c	0.010033746678314075
22	0x3fb0356ae929a45e	0.0633150882000719
23	0xbfbcc540121cbfb8	-0.11238480035967668
24	0x3fb7d6ab15698ea1	0.09311932823907877
25	0x3fac2da7fcadd273	0.05503582915745122
26	0xbfb1eec447a9d6b2	-0.07004954099269403
27	0xbf9fb51a8b8f9da0	-0.030964293258788467
28	0x3f9b1b6b52fa3882	0.02647178358034142
29	0x3fc0eec77bc55ce8	0.13228696387771
30	0x3fb23e48a60fcca0	0.07126287512055507
31	0xbfb65ac1c24f5c32	-0.08732233995338914

arr_4 f8 [1, 32]
0	0xbfb04ba16373a19a	-0.06365402868289607
1	0xbfc122bcc2c64016	-0.13387259970159054
2	0x3fc4c46a62154d85	0.16224412717074813
3	0xbfa37e6b6ad9ff0a	-0.03807387999859031
4	0x3f4ed276cec21d68	0.0009406166186786526
5	0x3fc3438e28caa1c9	0.15049912444852812
6	0x3f9131f3d641493d	0.016792116119469503
7	0x3fb308326125e2a8	0.07434382316376775
8	0xbf9be76d96e35875	-0.02725001557777103
9	0xbf9f23779842eb08	-0.030408734005258814
10	0xbfc775b6d595fe9f	-0.18327985219001605
11	0x3fa99d5d94c8d3cc	0.05002872887818163
12	0xbfa4bbc12d738a70	-0.04049495391679592
13	0xbf95dbf75c5658ff	-0.02134691716272474
14	0x3fc09719fde4e5dd	0.12961125275778232
15	0xbfc2854d20fb1bb7	-0.14469303236384487
16	0x3fa7c036ae217b08	0.04638834834690014
17	0x3fbc711726729db6	0.11110062302269949
18	0xbfb160465f1c9388	-0.06787528822003541
19	0xbfadb724af083d24	-0.05803789745925261
20	0xbfbd10604a1a0f0e	-0.11353112992406642
21	0x3fc345b590b775c2	0.15056485716097084
22	0xbfb52eb1e765cd1c	-0.08274375819546659
23	0x3fbf5f52dd19d0d6	0.12254827402086063
24	0x3fbdf4eed29ec7ba	0.11701862947555144
25	0x3fa7cb22af4a5b60	0.04647167577529987
26	0xbf962a457975370d	-0.02164562753505721
27	0x3fc3b3a11dc4a20f	0.15391935304184343
28	0xbfc0b8eee9338a12	-0.13064371477874254
29	0xbfb43b74268a503f	-0.07903219166684126
30	0xbf96046b3416374a	-0.021501231245159937
31	0xbfc125b4e8a396d0	-0.13396321639372966

arr_5 f8 [1]
0	0xbf7e70ad77660549	-0.007431676486136248
