model_checkpoints/params_round_20.npz (npz, 26570 bytes, 6 tensors)

arr_0 f8 [64, 15]
0.02845026395697251 -0.25708416670329926 -0.263829762355165 0.1743901170151968 -0.14051611027444577 -0.01959076966664424 0.030489840941965128 -0.14719412102943052
0.01406644198004102 -0.16490101907662086 0.08484307449175313 -0.19197938136830395 -0.013972972124281322 0.09202431975212735 -0.1873926979736641 -0.25803022137271103
0.10751632857257207 -0.08030713675575732 0.12679530760456462 0.22019062555783875 0.2134039475249434 -0.08557547860077025 0.19231989950313175 0.20213069755442903
0.10629380487514195 -0.18310883475709816 0.12842176210325434 -0.2053585837789173 -0.008808358824101005 -0.21184454679196013 0.1609319167507243 -0.15157074910968688
0.12128364779107907 0.19564686663079878 0.04650826486024157 0.023870583420030934 0.0947644559244581 -0.2550043273583345 0.27435028020380775 0.07706913681801036
0.08601432788895713 0.3403765310943956 0.19891720471852925 -0.05513366494756217 0.0811910260209597 0.0836106974732459 0.23292137216268788 0.1199987954928226
0.11919815187525376 -0.021163479556996982 0.016674022131610927 0.07864533922238343 -0.04735807611710929 0.10073465052026745 -0.04509396819630401 -0.13491920014218445
0.24014208614553223 0.029152883463214627 0.2018989792688773 -0.042888318425123695 -0.27855653008454995 -0.21059622245365792 -0.24382618344956963 0.09042629678100474
0.0864445682380251 -0.17018211623725227 0.09676828758534761 0.22720938409264754 -0.09325170475201311 0.11054891854259763 0.10772766433612893 -0.054733846409058644
0.12311158874953332 -0.17535289180263947 -0.1394091034902284 -0.23610105653057079 -0.258807608524592 0.11503112303641069 0.035440180830213344 -0.2249013679953617
0.27660874719819933 0.005579478486827046 -0.23463659313237312 0.17468939859485788 -0.032087374627449775 -0.20043090874385974 0.09927809354813183 0.24286917533048286
-0.080203484178878 -0.25158701552355833 -0.20435010722999625 -0.2886595030256525 -0.004815219623810728 -0.10632197586115337 0.02310409515743042 0.031547902493862814
-0.11263371745882561 -0.20420509355390254 -0.2073352711601153 0.050282210607801026 -0.16679749982341271 0.047356438973934475 -0.22755456485438305 -0.11279600899040737
-0.006121470332005292 0.17700939669250243 -0.22255742231138342 -0.11162926641507798 -0.16141120115731103 -0.20177161652805725 -0.16097139260007243 0.023682953120083165
-0.23476110794433985 0.19336527150127053 0.12489700119911756 0.22824717384241275 -0.11859993021033574 -0.23308409449971398 0.05661792814811635 -0.13148783331813663
-0.1814376262993207 0.08081734746710204 -0.06206620664235529 0.1770025040370352 -0.2674609044098343 -0.2195063506269948 -0.06446005466019389 -0.22255880792591748
0.06403750868880734 0.09313809462095815 0.12973330909558917 0.1820693461825368 0.0907684516058227 0.14045790268750824 -0.05365779043228551 0.03604554874846302
0.23571820631995746 0.17063433491324417 -0.04169861217398946 -0.23706298465012726 0.06271178579856256 0.2706543646774128 -0.2591750365203256 -0.06949728826470172
0.02396814908955984 0.008731946997117344 -0.1911696932326482 0.13124691142157618 -0.15245303178360334 -0.24967308950754658 0.07127280912759967 -0.010213895563131244
0.20237716094289906 0.09739728571994924 0.24619678294733177 -0.003053747629208306 0.11644729174508472 0.06400046278459705 0.11379049461808563 0.17772524377847682
0.02681885252789739 0.07383162054667747 -0.19911064877266516 -0.12773369688487374 -0.08124666589265309 0.12259104963520219 0.2393389228731792 0.07364942865777765
-0.21924523574410992 -0.12424175499843698 0.14856209058448822 0.15745872444196846 -0.11989304703331022 0.026578783641645863 0.14499663369486054 -0.10487806736199975
-0.2001838744176433 0.013353074202799953 0.1863959597236854 0.09323702113712792 -0.1674891932079876 -0.22698571241978904 0.1453227744959657 0.24737156982376118
0.1703906599275094 0.08066661215571938 -0.14645404097687553 -0.24710498546995474 -0.13583146257266215 0.06747989770450208 -0.3061185027823182 -0.12250938539872475
-0.17154583290426945 -0.04646312422936608 0.15871336687252185 -0.16626997402202753 0.2131992125434436 0.11405053346118058 0.07263324470744734 -0.2853330127685487
0.2276958726505911 -0.11165440664110246 0.22250602504812722 0.10752031046681577 0.11490852951452205 -0.038249558827814445 0.04209432345528044 0.18200424485867878
-0.12554105267702478 0.1084481413603291 -0.23639402844434546 0.05184646422948824 0.05440887787098232 0.04898619985932374 0.13697543499202663 -0.08817462702645762
0.1520145626246729 0.25332539124600156 -0.17013818386381774 -0.28847885107220245 -0.020233325660610417 -0.257028163381937 0.08162524851608376 -0.24158505474618652
-0.0645700999197415 0.10975232299296397 -0.22495775988855565 0.2525064878718339 -0.054395632811116125 -0.08699522628831638 -0.06397873435626 -0.17460449961679098
0.20417818975804475 0.10249265473049851 -0.016433914683225526 -0.19321557005311893 0.14152683276305988 0.25064628951177764 0.1105355179256442 0.05006013362978687
-0.17107508904107252 0.0640600676023353 0.06364929831388129 0.2029780431245412 -0.12231336887065981 -0.21926906960908973 0.14327192949887618 -0.021821602605437244
-0.1474786817314711 -0.18203745997874 -0.19122085994708285 0.07332741239362922 -0.15993667736048825 0.2023733328009071 0.22879032485215017 0.15424318813739912
00000000: 6af3 07e5 1022 9d3f 64d8 1326 1174 d0bf
00000010: 7eb8 413a 96e2 d0bf 8cb6 a954 6a52 c63f
00000020: cc4d 1891 6efc c1bf 0e3a 164c 9a0f 94bf
00000030: f6ec d296 ba38 9f3f 3810 fec7 41d7 c2bf
00000040: b8ee 33e2 ddce 8c3f a66d 0102 7a1b c5bf
00000050: aaf2 3b96 46b8 b53f c0d8 3dc6 c792 c8bf
00000060: d8e5 6992 dc9d 8cbf 02a4 c5e3 e78e b73f
00000070: 0c2e a7e2 7bfc c7bf 503a 8b30 9183 d0bf
00000080: f653 01ab 3086 bb3f 425a 002e 028f b4bf
00000090: a553 b921 d43a c03f b80e d4d7 342f cc3f
000000a0: c07c ba0f d250 cb3f 0c0b ee49 46e8 b5bf
000000b0: db33 5e3f f09d c83f c8c8 c12f 6bdf c93f
000000c0: 98c5 b41f 1236 bb3f c8f8 713c 1c70 c7bf
000000d0: 7601 2ad2 1f70 c03f 0644 a4a8 3049 cabf
000000e0: 74c7 a5e8 1d0a 82bf 3a59 27dc b81d cbbf
000000f0: add9 a9c3 6a99 c43f e668 3a99 ab66 c3bf
00000100: 6361 cdf4 710c bf3f 7440 dfde f40a c93f
00000110: 090b 2369 eecf a73f ea7b 80bc 8771 983f
00000120: d5ce 04bf 7b42 b83f edeb 95ab fd51 d0bf
00000130: 2fec 477a f48e d13f d40f 2a8e cdba b33f
00000140: f03e 45f5 0805 b63f 3816 58a5 bac8 d53f
00000150: 685c 7074 1e76 c93f 5980 b7cf 7a3a acbf
00000160: e61b 7d61 efc8 b43f 984b 3ebb 8267 b53f
00000170: 4e35 fd15 5ed0 cd3f 0379 33b6 3db8 be3f
00000180: 4a40 0c24 c583 be3f ae78 4412 e1ab 95bf
00000190: 9800 feae fe12 913f 0466 f1d7 1922 b43f
000001a0: a0b9 3f58 513f a8bf 5afc 8efd bec9 b93f
000001b0: 78cb 4c7d 8e16 a7bf da48 1b48 0845 c1bf
000001c0: 04b3 31d3 f9bc ce3f 3903 3ce4 40da 9d3f
000001d0: 3a1e 8764 d3d7 c93f c85d 082a 75f5 a5bf
000001e0: 7639 b3c4 ded3 d1bf bfbf 0c28 d1f4 cabf
000001f0: e085 e945 b235 cfbf 2d70 5f83 2d26 b73f
00000200: d4c8 7f31 3b21 b63f 5e31 cd0f 87c8 c5bf
00000210: c80f 7876 cec5 b83f 3bd8 0275 3215 cd3f
00000220: dcc5 34fe 57df b7bf e0a5 bf15 ef4c bc3f
00000230: 42b9 324b 0a94 bb3f cf54 9f20 1306 acbf
00000240: c016 70b7 3d84 bf3f 1093 c6ab f671 c6bf
00000250: bcaa 2052 28d8 c1bf d8c7 2c36 8f38 cebf
00000260: 076c a4c9 4d90 d0bf 4eaa 76ff ad72 bd3f
00000270: 7a9b 4223 3725 a23f 8ed0 2e6a 91c9 ccbf
00000280: 393e c02c f5b3 d13f fc13 13da 81da 763f
00000290: 3265 f966 9208 cebf 101f f6e2 385c c63f
000002a0: 0a5f 47a1 c16d a0bf c5ca 1453 b8a7 c9bf
000002b0: bc9a ff04 4a6a b93f f21d a04e 5616 cf3f
000002c0: 27d3 922d 3788 b4bf 4267 f16c 001a d0bf
000002d0: a053 bef1 2428 cabf c52f 4bb5 6579 d2bf
000002e0: 18cd eaac 1fb9 73bf 1375 2bc1 ea37 bbbf
000002f0: 085a 6b94 99a8 973f 2ae4 eff2 0b27 a03f
00000300: 8c9d e934 90d5 bcbf 06cd 3e7b 6423 cabf
00000310: 8051 7850 f689 cabf 301e 4304 97be a93f
00000320: 5fe7 65d7 9e59 c5bf 9ecf 4b69 1a3f a83f
00000330: 7773 0d0b 8220 cdbf dcad bb01 33e0 bcbf
00000340: 9402 12ae d312 79bf b282 f070 3ea8 c63f
00000350: 249c 27f9 c27c ccbf b07b 8750 bc93 bcbf
00000360: 91e0 164b 1fa9 c4bf 2ae1 1fff a6d3 c9bf
00000370: a089 67e9 b59a c4bf de6b 7e14 5840 983f
00000380: 6e30 7fe8 a60c cebf e6da a376 31c0 c83f
00000390: 64c8 84f7 3ff9 bf3f 175f 8711 3437 cd3f
000003a0: aeaf 8fa5 905c bebf ab09 8c19 b3d5 cdbf
000003b0: 4ae1 866b 06fd ac3f 902e f6e3 97d4 c0bf
000003c0: 0017 9c1f 5939 c7bf 8a17 5218 72b0 b43f
000003d0: 706f 6e4f 24c7 afbf 2418 139f 04a8 c63f
000003e0: 4686 5957 141e d1bf 3a87 9aba c818 ccbf
000003f0: b0f5 a942 7480 b0bf 7e41 bd98 ce7c ccbf
00000400: 7a26 891d c364 b03f 12a5 68ee e5d7 b73f
00000410: a63a e2df 199b c03f f5a2 ba5f 0c4e c73f
00000420: 40d3 27eb 993c b73f fcf8 4049 86fa c13f
00000430: a621 2aae 0879 abbf e300 15ea 8f74 a23f
00000440: d1a5 9ba1 032c ce3f d777 038c 58d7 c53f
00000450: b8d8 263f 8559 a5bf 960c 1573 1458 cebf
00000460: 0b1e 142d e10d b03f 0ac9 33af 6652 d13f
00000470: 84d7 72e4 5296 d0bf aaf0 4104 93ca b1bf
00000480: 8cf5 f041 1b8b 983f 4ca2 4316 0ee2 813f
00000490: 74d5 359e 3f78 c8bf d8da 20e4 b2cc c03f
000004a0: 53e3 d7b8 9483 c3bf 1a27 10ad 49f5 cfbf
000004b0: 260e 4c50 ef3e b23f 846b 44db 05eb 84bf
000004c0: 9981 daab 7ee7 c93f d2e7 e24c 07ef b83f
000004d0: 52d1 914d 6083 cf3f 2074 5346 2c04 69bf
000004e0: b0be c05d 7dcf bd3f a9b5 9696 5562 b03f
000004f0: aef7 fab4 5f21 bd3f 36e1 d966 b3bf c63f
00000500: be21 18ba 6676 9b3f 089e a80b a1e6 b23f
00000510: c4c8 612e 757c c9bf eadd 5be9 9359 c0bf
00000520: fa00 ebdc 94cc b4bf 692b f784 2062 bf3f
00000530: ce38 3367 a8a2 ce3f 1649 745f b0da b23f
00000540: d091 a956 3a10 ccbf 1414 84c2 4ece bfbf
00000550: 982d 3e24 1504 c33f 565c f983 9b27 c43f
00000560: 949e 068c 4fb1 bebf 5687 08fa 7737 9b3f
00000570: 32f0 dfeb 3f8f c23f 7e31 63fd 49d9 babf
00000580: 84b9 e70c a09f c9bf 3a46 0448 db58 8b3f
00000590: 5c54 8fa3 d2db c73f 0678 8fa4 61de b73f
000005a0: 7080 a12f 4970 c5bf e449 c029 de0d cdbf
000005b0: ee7d e9c9 ef99 c23f cc36 2d21 dfa9 cf3f
000005c0: 825c f773 5ccf c53f a282 162d 91a6 b43f
000005d0: c06d 2e8a 01bf c2bf 40d1 a2db 22a1 cfbf
000005e0: 363b c2e4 ec62 c1bf 2c3c c7d1 5c46 b13f
000005f0: 7aa2 890f 7297 d3bf d496 bd6b c65c bfbf
00000600: aa61 0bbf 36f5 c5bf 45fa 11be 03ca a7bf
00000610: 72e8 1338 b850 c43f ca9d 5da2 5548 c5bf
00000620: fe19 b49e 1c4a cb3f b29f 4e6f 6a32 bd3f
00000630: 1ef0 9ea2 1798 b23f 24d8 9365 e542 d2bf
00000640: d0f6 3b6b 2325 cd3f 6e52 fa18 6295 bcbf
00000650: 2051 5fd2 137b cc3f 7959 1c79 7386 bb3f
00000660: d2db 4b38 a56a bd3f e0f7 8038 7295 a3bf
00000670: c4e3 2c1d 638d a53f 925a b343 ea4b c73f
00000680: 65d0 c6ad ba11 c0bf 9060 74e4 41c3 bb3f
00000690: 25af 91d6 2842 cebf 20ca 8ea8 9e8b aa3f
000006a0: 5ac7 22fe 7adb ab3f 61c5 b31c b814 a93f
000006b0: 56b4 d23a 6988 c13f f066 6ac3 9c92 b6bf
000006c0: 2e8e 7e93 3675 c33f 8778 a9b3 7b36 d03f
000006d0: b47a bf87 16c7 c5bf 3f56 bcff 6f76 d2bf
000006e0: bead 0180 0bb8 94bf 5a16 f840 2673 d0bf
000006f0: 2f8a e76c 64e5 b43f b42a ab52 42ec cebf
00000700: f869 7483 aa87 b0bf ee30 ea6d ba18 bc3f
00000710: 46f4 d976 6acb ccbf 7ffd dbf8 1029 d03f
00000720: 9d1c f08f bed9 abbf 1a02 d1b3 5145 b6bf
00000730: 8819 b30b e960 b0bf fe55 cbb3 7059 c6bf
00000740: c69c c8cb 8222 ca3f 60d0 2568 f53c ba3f
00000750: 4057 7058 0dd4 90bf e362 3aad 49bb c8bf
00000760: 98a5 1c1f 8d1d c23f fd46 14bc 960a d03f
00000770: 007d 8942 0e4c bc3f 2cf1 8b59 7ba1 a93f
00000780: a5bc 4bdc c9e5 c5bf 61e2 5497 3d66 b03f
00000790: 55e5 ab06 524b b03f 6253 833c 2ffb c93f
000007a0: d9be 29cf ed4f bfbf df68 7f45 0211 ccbf
000007b0: 76f5 d00d bc56 c23f 8e8a 25f6 6658 96bf
000007c0: 0a6a 72d9 94e0 c2bf 68b7 a0e4 004d c7bf
000007d0: 6192 e4d5 ec79 c8bf 7485 21d6 95c5 b23f
000007e0: 91db 5817 ce78 c4bf 9530 fb8e 5ee7 c93f
000007f0: 32cb 7059 0049 cd3f e027 57a4 3dbe c33f

arr_1 f8 [64]
-0.09772039158207682 0.11820268486578579 -0.112365183277538 0.05961322338517126 -0.05949231753264064 -0.27254209336853036 -0.048358006058901414 -0.061918036127647194
0.315359923868304 0.22756721745205521 -0.288382548470812 0.04108299664958528 0.008038448748316171 -0.08376369023218815 0.18813879534835592 0.1080019819373416
0.016197021619453918 0.05212680649951656 -0.06545668668494942 -0.14450141087319957 -0.09248777160913563 0.05565204549644019 0.15585015330749868 0.12041030043744352
-0.22123515569439703 0.17936148184558348 0.22898964353509216 -0.2613862209401575 -0.061002657544460596 0.0279513029919902 0.03736087123653644 -0.06561264983738338
-0.19829632524370355 0.025351876655312897 -0.20523326444211692 0.09133432563745802 0.12028026121829347 -0.015334121155963738 -0.050360184758469026 -0.20811390026228505
-0.21558274738902117 0.22876646183251736 -0.10349716807484906 -0.043075780204755554 0.11927352335636127 -0.15252316090188733 -0.21959567692565155 -0.005146275649443499
-0.07402282864894907 0.1039895050219855 0.10511534332586764 0.07056672736912725 0.15892045747556804 0.036519661995675294 0.2248989786952372 -0.047060447595485395
-0.22944409038312777 -0.04027007016704366 0.07210585865581427 0.006348375259327279 -0.1240383442664586 0.23549701608085044 -0.05645204587082206 0.17027953485409447
00000000: 4251 ff1d 3404 b9bf 1146 ccf9 8742 be3f
00000010: 9ad5 62f3 f6c3 bcbf 6e68 b2d9 9f85 ae3f
00000020: f4f5 54ec c675 aebf 2147 7364 5471 d1bf
00000030: 13a6 0b6d 61c2 a8bf 1ace 6688 b8b3 afbf
00000040: 48f0 de63 db2e d43f 0495 4c2e ec20 cd3f
00000050: 5cd5 9a13 dc74 d2bf f333 109e d408 a53f
00000060: c570 e053 7676 803f c3b7 2386 8971 b5bf
00000070: aea4 909a ee14 c83f ebf5 5294 04a6 bb3f
00000080: 22b7 97b8 f395 903f 9718 5262 5db0 aa3f
00000090: d8ca 9df8 c4c1 b0bf 648f f6b0 057f c2bf
000000a0: ec55 5752 47ad b7bf beb5 b9c6 6c7e ac3f
000000b0: 2e22 c4d7 e5f2 c33f 82f8 7a9e 35d3 be3f
000000c0: 6169 37ff 6e51 ccbf 2e2d 5829 51f5 c63f
000000d0: be8e 0d5b 884f cd3f 4e08 a445 8dba d0bf
000000e0: 57be 3e86 bd3b afbf b9bb ec30 449f 9c3f
000000f0: d3d3 38d0 f620 a33f ea65 4199 fdcb b0bf
00000100: 105a eb23 c661 c9bf 7cd6 81a4 d7f5 993f
00000110: 6244 6a67 1545 cabf f876 9db5 af61 b73f
00000120: c672 49ec afca be3f 2aaa 05e7 7e67 8fbf
00000130: cec4 1d65 cfc8 a9bf 3c19 bced 79a3 cabf
00000140: fc0f cf28 3798 cbbf 8003 ff2b 3848 cd3f
00000150: fd2e 1c58 ca7e babf d04d 7556 070e a6bf
00000160: ac21 18aa b588 be3f 3063 fa01 e185 c3bf
00000170: 418c 5e0d b61b ccbf 99db c4d9 4214 75bf
00000180: d263 34fc 28f3 b2bf 0458 3263 0e9f ba3f
00000190: 3475 e4d1 d6e8 ba3f 4e74 3c3a a910 b23f
000001a0: 28ef c26b 8157 c43f 7763 dd83 b4b2 a23f
000001b0: 1b2e 335f 7dc9 cc3f 9928 b796 4e18 a8bf
000001c0: 455e 3a88 6c5e cdbf 320a c054 479e a4bf
000001d0: 2dd7 c690 8775 b23f 69da f101 c100 7a3f
000001e0: c40d 1318 fac0 bfbf 2eb9 2f27 c424 ce3f
000001f0: 0c6d 9d55 48e7 acbf ca2e b044 b8cb c53f

arr_2 f8 [32, 64]
-0.05692977367455348 0.016819495233018032 0.038663280459132573 -0.005499887977943466 -0.031424312202722626 -0.04238649593474033 0.0889629504692457 -0.04313572917957968
0.003126736832835217 0.05488851592071556 0.07374375168427183 -0.19014311988258156 -0.05794359119318751 0.003789539757482699 0.1167095601771255 0.11217917346192302
-0.12177072658613522 -0.08005892563473856 0.06455137902663019 0.05624034577195723 -0.013799082561249319 -0.024330651133351817 0.09155702152103176 0.07756863831971608
0.10483706069415469 0.09213455780839452 0.024915695401506198 -0.006202359533846817 0.08999007052500183 -0.07765870674110878 -0.059948520115809034 -0.019793178604808018
-0.08290558388687803 -0.08905995748382681 -0.05876516902273393 -0.14313318581013146 0.06461680123029258 0.08506482317866819 0.14420683652088562 0.009952595797079189
0.10501295284930558 0.09928163800613721 0.012936354165926228 0.03898012673227725 0.0376854675320389 -0.0024943592584575854 -0.018754057802348505 0.10324057062266835
0.10839552545312872 -0.0059942952863400395 -0.042836989587313024 -0.10621889495880585 -0.10266063482179777 -0.1312926878560573 0.10347637200846035 -0.08600899890739179
-0.12800000237837478 -0.10739324355758242 0.08999872394926807 -0.10072949829538158 -0.05360635257039701 -0.04140503093242837 0.09718493820541486 0.11053389459370527
-0.038596448738782374 -0.07252722546940961 0.06688547481793612 0.05096903880044564 0.11349114010954794 -0.12293833170905846 0.16781926743887932 -0.05363183782662664
0.00496484684877193 -0.04397561148649676 0.12741688611679952 -0.0722675723934181 -0.1811864517388913 -0.00852243394711186 0.02179923699708293 0.057586491411408536
-0.05783887310760019 0.11171040247938059 0.089188664396122 -0.029619678696079215 -0.02609831950468877 -0.05766801579284138 -0.01657875266037456 0.12217765168614232
-0.03574047684688787 -0.12211824508979294 -0.049837194834388004 -0.08432291921396412 -0.008410269819938513 -0.08860517360150365 -0.06574072571896651 -0.1456984805406844
0.085353299797962 0.13001690699087926 -0.013988020891983902 0.0611702451437175 -0.08373066401353649 0.04282656476832015 0.0341897377843286 -0.01208765003060051
0.144107523097138 -0.13455256172199723 -0.09039227576870945 -0.105817226061539 -0.02954049755871012 0.029029557456852446 0.19162048984669433 0.047227377126966084
-0.05411616777269124 -0.12893654176210922 0.016989303130072714 -0.08565947209421046 0.07360724808126609 0.006290273563219321 -0.1366693671059504 -0.08495539716518757
-0.03336767289155471 0.11285717870093892 -0.0005664940284079657 -0.09849325497947642 -0.09855258878610598 0.047822454218370544 -0.08187314339655247 -0.006933443624502687
0.10019073541961698 -0.023213648179787952 -0.10740655095451987 0.1056971202590464 0.0339275340976619 -0.02044332871144162 0.07775878554830576 -0.10856722012364278
-0.15533333710910383 -0.15208889475892434 0.02978455613888966 0.04487113144271041 0.046432621214768696 -0.02720643720712109 -0.09943813248161658 -0.02647857669768678
-0.07518937265796861 -0.10500652063613636 -0.11300167492598796 0.01030407002291749 0.11907159523462021 0.0726184193049461 0.12386697883248607 0.03847253007771794
0.0022432659946024676 -0.15058067927678334 0.06819403025750365 0.10472714180551176 -0.009024328242530428 0.009637824292435778 -0.0006582733855376496 -0.025536433964414913
0.01557806665138669 -0.06237520277945112 -0.07705544339910311 -0.020569627183951226 -0.07449800516082966 -0.04187036113042364 0.06853991764011055 0.0019649974784767877
-0.021441411662875613 -0.0710184542384859 -0.1590143447089593 0.02449515609489781 -0.0773300986985284 0.03365334590204403 -0.11740300191309161 0.019660993642442427
-0.03902822788603014 -0.12648968237451655 0.027597358970614633 0.09075085235356722 0.12137033528955801 0.1366467258239319 -0.10455912592365205 -0.13785672372283272
0.05727024891280419 -0.03857809375264404 0.13394210840619003 -0.11309805330545951 -0.08637444153062414 -0.022240176564081504 0.17214525454039592 -0.06448870241903229
0.14011008899901606 -0.07643194668110267 -0.002634647903433628 0.06103299682659693 0.13253010991026293 -0.049234549364769495 0.08934864749434773 0.0019343059401204094
-0.05404612949246729 -0.013427339396053718 -0.06775824641366071 0.009609017614480393 0.11383419578858972 -0.10825775995177128 0.007345915622939919 -0.04144089217001935
-0.01933493433778258 0.06218484427967869 -0.04503777832105321 -0.1054965606402557 0.024607462584920546 0.031978357786945306 0.08480553929530579 -0.12712639723839997
-0.09023193525759955 0.10268936706291142 -0.10232944689046944 -0.1255964901410142 -0.13523880376857844 0.006835108953938063 -0.041710491111778554 0.1285059265575148
0.04442010051923361 -0.044971211167732186 -0.011096019835078491 -0.01801381810881393 0.04100574738653184 -0.10296514516191721 -0.03999997673341478 -0.09120622523230504
-0.05677910489789478 -0.09449470942222779 -0.008529145213088367 0.060979827300790365 0.05684684701921831 -0.030023190098770497 -0.09267338075930683 -0.03755785564645955
0.028498456726792305 -0.04737633537142839 -0.13192713385053606 0.12360477354192381 -0.10876218054798056 -0.08674356907679515 0.09577685417487342 -0.06787240139812387
-0.04348534094158927 -0.09806545865261071 -0.023774120874142685 -0.07708243839290065 0.015480351186956707 -0.012311498847063944 -0.008831549932717776 0.021327395698839423
00000000: b7a7 3338 e625 adbf f61a d837 2139 913f
00000010: ce8f 416a accb a33f aa6d f3ef 0c87 76bf
00000020: 7883 6bf2 d816 a0bf b3da a9cb aeb3 a5bf
00000030: 2d32 d2a2 46c6 b63f b616 3be4 e215 a6bf
00000040: 9454 160e 3e9d 693f c463 9cf9 581a ac3f
00000050: d0ae c4d9 dee0 b23f 8f40 ba18 9c56 c8bf
00000060: 7404 604a c8aa adbf 87b1 68aa 3d0b 6f3f
00000070: 4e5f 1780 ade0 bd3f 6caf 4f39 c6b7 bc3f
00000080: 1230 4cc8 5d2c bfbf 2da6 5ae3 bd7e b4bf
00000090: 76c1 d46d 7086 b03f ced1 9cdb 88cb ac3f
000000a0: 92e0 8582 b142 8cbf 32ed a15b 22ea 98bf
000000b0: 72e9 26ed 4770 b73f 6247 c7cc 89db b33f
000000c0: d214 1703 9ad6 ba3f 7054 9e60 2196 b73f
000000d0: 0653 a003 8083 993f 5eca b135 a567 79bf
000000e0: 2e9f ded9 9609 b73f 42e5 b3e5 70e1 b3bf
000000f0: 4897 ae8a 92b1 aebf c488 2abb a944 94bf
00000100: 552e 73e3 4c39 b5bf 2ab4 c624 a2cc b6bf
00000110: 986f 31de 7716 aebf 606e 0330 3052 c2bf
00000120: b165 0e08 ba8a b03f b3a7 97e9 cec6 b53f
00000130: d4c0 5b9f 5e75 c23f 808b abcb 0662 843f
00000140: 81e7 24fe 20e2 ba3f 4065 547c 856a b93f
00000150: 10b7 9310 607e 8a3f 51a4 0403 34f5 a33f
00000160: aa4d 2b75 824b a33f 75cb 10ee 0c6f 64bf
00000170: 5ea9 b683 4334 93bf 69da 715a f96d ba3f
00000180: ba9a da24 cfbf bb3f b975 7a63 798d 78bf
00000190: 1857 acda baee a5bf 7eb9 1058 2931 bbbf
000001a0: b06e 25a5 f747 babf 94d9 45e4 32ce c0bf
000001b0: 8e60 af71 6d7d ba3f f10c 788d af04 b6bf
000001c0: 7a30 0dd8 4d62 c0bf 5224 e4a4 1f7e bbbf
000001d0: fd38 0b08 280a b73f 98d0 eb8c 68c9 b9bf
000001e0: 6d9f 4bb6 4a72 abbf 8942 7d4b 0a33 a5bf
000001f0: b18b 41b3 1ce1 b83f 4c25 6106 f34b bc3f
00000200: 984d 26ea e9c2 a3bf 91f2 75ed 2491 b2bf
00000210: bda3 eb0e 681f b13f eb4f 8325 9d18 aa3f
00000220: ce00 285f c10d bd3f 227e 1df2 e278 bfbf
00000230: f4f2 a40c 1a7b c53f d3be fada a175 abbf
00000240: d8a0 85ed 0456 743f 10ed 4faa f883 a6bf
00000250: 3a37 6a4f 324f c03f 02b5 fdab 2080 b2bf
00000260: 6a31 591e 1e31 c7bf 526b aeb8 3574 81bf
00000270: f4bf eb07 8a52 963f 3855 9b02 fa7b ad3f
00000280: b488 de88 0e9d adbf a99d 458d 0d99 bc3f
00000290: f458 c17c 11d5 b63f 0b50 45fd 9e54 9ebf
000002a0: 2046 0393 84b9 9abf 8aff b583 a986 adbf
000002b0: 9f6a f041 05fa 90bf 8d47 4bda 0847 bf3f
000002c0: 02d3 6666 934c a2bf a6d3 e72c 2443 bfbf
000002d0: 944b e0c3 4284 a9bf 14c5 53d4 2f96 b5bf
000002e0: 350c 9e4e 6739 81bf dff6 df22 d4ae b6bf
000002f0: b96f fa5a 62d4 b0bf 8ee3 7f70 3fa6 c2bf
00000300: fee8 3cbf b6d9 b53f a2f8 b9dd 64a4 c03f
00000310: b57a 2262 c0a5 8cbf 01da c2d4 b451 af3f
00000320: f249 9c6f 5f6f b5bf a1f0 280e 5ded a53f
00000330: a8f6 483b 5181 a13f b60e 89ec 68c1 88bf
00000340: 9fa6 6785 1d72 c23f 2331 18b2 0439 c1bf
00000350: b0d4 3cbc f223 b7bf e9a9 4975 d616 bbbf
00000360: 7c5c b03b dd3f 9ebf c500 949f ecb9 9d3f
00000370: 6449 912c 0587 c83f 4bec 78d0 2f2e a83f
00000380: 7080 8945 1db5 abbf 1c55 101b fe80 c0bf
00000390: f84d 4dd5 a465 913f fabc 3c77 c7ed b5bf
000003a0: daf1 41b3 ecd7 b23f 046d ca73 d4c3 793f
000003b0: bee3 0abf 617e c1bf b473 710c a3bf b5bf
000003c0: 4d2e a04f 9115 a1bf 20ad a343 35e4 bc3f
000003d0: ce6d a6a9 1890 42bf d470 039d da36 b9bf
000003e0: 0ac0 c511 be3a b9bf 86c4 c349 2f7c a83f
000003f0: ce14 4f69 a3f5 b4bf a4b8 da19 3e66 7cbf
00000400: 304c fd9b 19a6 b93f b41c 038f 51c5 97bf
00000410: 5ecf b9e7 fe7e bbbf 7e42 cb6a f70e bb3f
00000420: be4a c422 f35e a13f 43b5 f290 18ef 94bf
00000430: 421a e8f0 ffe7 b33f 0443 d9b3 0fcb bbbf
00000440: bd5a 6e79 f6e1 c3bf d284 891e a677 c3bf
00000450: c66c 2bba d77f 9e3f 6573 2954 59f9 a63f
00000460: 7683 2b3b 04c6 a73f 5659 2e18 01dc 9bbf
00000470: 27de fb06 c774 b9bf d242 d833 331d 9bbf
00000480: 8d9e 9258 9c3f b3bf 80bb ff13 b5e1 babf
00000490: 9549 3382 aded bcbf 5aed 1cde 4c1a 853f
000004a0: 624d 6adf 797b be3f 5b80 00e8 1e97 b23f
000004b0: 56cd 230f bfb5 bf3f 57d3 f4e4 abb2 a33f
000004c0: 2851 a842 7860 623f ad9d 734a 3a46 c3bf
000004d0: 9c08 bdf9 2975 b13f fee7 0ee1 65cf ba3f
000004e0: 8a3c 5cd5 587b 82bf 0bf6 1fe1 febc 833f
000004f0: 30ba d354 ff91 45bf 923b ef12 3926 9abf
00000500: ecc0 6bb6 64e7 8f3f e6c8 0980 a4ef afbf
00000510: d2bf 60d1 e7b9 b3bf 3116 2f50 3410 95bf
00000520: dc72 c81f 4d12 b3bf 8029 742f 0870 a5bf
00000530: 661c bc00 d58b b13f 0d58 04fd e518 603f
00000540: 010e 7dc7 bcf4 95bf 9ce4 5df2 432e b2bf
00000550: 4657 0f01 955a c4bf fa1c 5a19 4215 993f
00000560: 0319 e8c4 e7cb b3bf fdba 19e8 023b a13f
00000570: 9040 ab85 1f0e bebf 5afb cdf2 0222 943f
00000580: 045d c804 82fb a3bf a93c 8a5c d030 c0bf
00000590: 7865 f068 7b42 9c3f 8454 f1a6 723b b73f
000005a0: daf0 c554 2012 bf3f 5077 42d1 a37d c13f
000005b0: 8226 570a 63c4 babf d72d f603 4aa5 c1bf
000005c0: 1082 3aac 8652 ad3f f8ed 0406 82c0 a3bf
000005d0: 40b8 94d7 0325 c13f bf2e 3078 fef3 bcbf
000005e0: 5994 95a9 a21c b6bf e0fe fffb 20c6 96bf
000005f0: f2cf 340f db08 c63f 8ae9 d9e3 5482 b0bf
00000600: fe92 0b9d 20ef c13f 7a6d 5d47 0b91 b3bf
00000610: 4b78 9dd2 4195 65bf d3b7 b18a b73f af3f
00000620: f861 e623 bff6 c03f 46c0 b556 4535 a9bf
00000630: 2418 ee8e 8ddf b63f 40ab 3530 11b1 5f3f
00000640: a882 4a2d efab abbf 5a72 a0fc ca7f 8bbf
00000650: 0a88 61bc 9a58 b1bf 3701 3583 e4ad 833f
00000660: 8c15 14e4 3c24 bd3f 9cf4 87d2 c7b6 bbbf
00000670: 5357 c135 c016 7e3f 02b2 2c99 bd37 a5bf
00000680: a9b5 9a7a 89cc 93bf a9e4 f920 b1d6 af3f
00000690: 4864 f211 310f a7bf 4856 ca95 d201 bbbf
000006a0: 66bb 28dc b232 993f e9da bfa1 775f a03f
000006b0: d200 cbd9 d0b5 b53f 1e72 4c83 ad45 c0bf
000006c0: 4176 fcaa 7019 b7bf ffa0 2eb1 d949 ba3f
000006d0: 32f5 cf3b 4332 babf 0ef3 d2b8 8b13 c0bf
000006e0: cc08 ab4f 814f c1bf 3488 bf96 21ff 7b3f
000006f0: c94b 73d6 135b a5bf e00e f4d7 e172 c03f
00000700: 8fc0 073e 3bbe a63f d22e 7472 7706 a7bf
00000710: 909d 7592 82b9 86bf 9421 9dde 3672 92bf
00000720: 3046 f28f b4fe a43f f62b 197b ec5b babf
00000730: 6a51 d27f e07a a4bf e879 908a 4a59 b7bf
00000740: a8e5 439d 2612 adbf c60d 9d26 ce30 b8bf
00000750: cf3e 067e ba77 81bf 96fb f177 bf38 af3f
00000760: 6611 a8a9 071b ad3f 181c 622e 66be 9ebf
00000770: a52b 9253 71b9 b7bf c33a 6b83 c83a a3bf
00000780: 021e 830e b32e 9d3f 119a 0c06 b641 a8bf
00000790: 9ee9 ab02 fde2 c0bf eaf6 fdfb 8fa4 bf3f
000007a0: fec6 7e98 d6d7 bbbf 18ba 5298 d334 b6bf
000007b0: 6414 65f8 d484 b83f 3651 4ef0 1560 b1bf
000007c0: 8d29 66ea b543 a6bf 66bb c761 d11a b9bf
000007d0: 8816 953e 3e58 98bf 4952 feb7 acbb b3bf
000007e0: 52eb a090 29b4 8f3f bc94 4d67 c536 89bf
000007f0: da75 1291 4616 82bf 1637 244c d9d6 953f

arr_3 f8 [32]
0.05383046464131804 -0.03517893056472857 0.0013158985452519636 0.06459993095206502 -0.028842975711929952 0.0062016867385194414 -0.05278427923566831 0.012466231043637536
0.06032392953463276 -0.07480477018929313 0.11008618203938117 -0.10482073645488707 0.01483565571721871 0.0986415365663958 -0.1898618945361577 -0.024918633022777942
0.13449160281608408 -0.12195224060009735 -0.006381553736337088 0.007797796626374301 -0.057406993970266385 0.019471602013817584 -0.07855863025212148 0.10974851083832356
0.027329565075581302 0.11327406417679148 0.058634632150392774 0.07785336827816469 0.05714761638116851 -0.017898945630928552 -0.14103607242142718 -0.08489852658018628
00000000: 936d 53aa aa8f ab3f 8449 9108 f902 a2bf
00000010: 7c98 de4d 478f 553f 7d52 c3fe 9e89 b03f
00000020: 00b6 9b55 0389 9dbf b438 8d9b f066 793f
00000030: 00c9 1e82 8a06 abbf 422c 1835 e587 893f
00000040: 05f0 0831 c7e2 ae3f 423d 8cc9 6726 b3bf
00000050: dac3 99a7 9b2e bc3f 2631 0423 88d5 babf
00000060: 931b f600 2862 8e3f 9471 945d 9240 b93f
00000070: 020b e501 654d c8bf 384f 9327 4584 99bf
00000080: 0842 d755 0537 c13f b824 0d15 4338 bfbf
00000090: 8214 8649 8b23 7abf 36b2 db17 95f0 7f3f
000000a0: 00f3 5313 7364 adbf de79 6617 5df0 933f
000000b0: ee5c c01b 6b1c b4bf 4dd6 d578 7a18 bc3f
000000c0: 6ba6 da10 48fc 9b3f bcd3 1f71 87ff bc3f
000000d0: 6073 ffc6 5b05 ae3f 885e a3c6 32ee b33f
000000e0: d28d cdce 7342 ad3f a68b 78e8 1954 92bf
000000f0: ce9b 4d53 780d c2bf f1f6 23eb e8bb b5bf

arr_4 f8 [1, 32]
-0.0667625373501326 -0.17721795498859233 0.15215961310810075 0.028259634386434758 -0.1085332096554962 -0.1587826779328035 -0.21248498435936197 -0.08922678575570439
-0.13432698685307976 -0.08893032264789198 -0.03939618232391158 -0.21745633169865963 -0.04216980525251029 -0.11057779265790589 0.11043382857133877 -0.23612046306559567
-0.048417954111486944 0.15136450657869413 -0.015025542826292829 -0.1524263578524311 0.04098955562430029 0.012167241916926174 0.06309097779809636 0.07727755821801122
0.06766669996429783 -0.23074402004110517 -0.185533692872819 -0.09826556582376018 -0.24657904968515598 -0.13775627003197766 -0.09470148434482271 -0.007296340361517508
00000000: e04c 8482 5917 b1bf 0e52 78f4 13af c6bf
00000010: 8b20 0959 f779 c33f 8255 f2f5 17f0 9c3f
00000020: 8a11 001a d5c8 bbbf bb43 72a4 fd52 c4bf
00000030: c275 5b3d b532 cbbf 9679 bf0e 91d7 b6bf
00000040: 9c89 c06f a031 c1bf 853a 653b 23c4 b6bf
00000050: 8a3f 5685 bc2b a4bf 7418 7aec 9bd5 cbbf
00000060: 775e e0dc 4797 a5bf cf2b 2183 d34e bcbf
00000070: 2802 1632 6445 bc3f ed3c 6401 3239 cebf
00000080: cc68 e5f2 3cca a8bf efec c382 e95f c33f
00000090: e83d 5938 b6c5 8ebf 9525 03f7 b482 c3bf
000000a0: 2094 c441 95fc a43f b3fd ec90 23eb 883f
000000b0: b0c3 50f6 ba26 b03f 12d7 4249 76c8 b33f
000000c0: aef9 5fd7 9a52 b13f 9c7c e921 0589 cdbf
000000d0: 5ef1 986b 91bf c7bf 5536 899f ee27 b9bf
000000e0: 7c64 23fd e68f cfbf e09a 4d59 ffa1 c1bf
000000f0: 87c7 2442 5b3e b8bf 8f32 bb73 c4e2 7dbf

arr_5 f8 [1]
-0.6032871232081318
00000000: f2db 08cc 204e e3bf
