model_checkpoints/params_round_27.npz (npz, 14022 bytes, 5 tensors)

arr_0 f4 [64, 15]
0.02532441 0.07979575 0.26617745 0.075596735 0.02808077 0.09479821 -0.10911593 -0.140282
-0.09812455 0.06987344 -0.08589402 -0.26262724 0.24564698 0.14523187 0.28290087 0.015061403
-0.092242956 -0.0131798675 -0.18927673 -0.3806503 0.044826273 0.08427042 -0.2835656 0.109058894
0.1764594 -0.09856253 -0.18134023 -0.08616346 0.2600253 -0.04098488 -0.05013399 -0.15826552
0.09308091 0.23199375 0.09834303 0.21027131 0.090575986 -0.09975232 0.24513108 0.07543633
0.09140389 -0.23344837 0.04160729 0.05107704 -0.07868499 -0.3409798 0.06706927 -0.034231
-0.21931921 -0.056073412 0.103810936 -0.1165692 -0.17488292 0.083353296 -0.20321415 0.12814371
-0.12790816 0.0761593 -0.29544878 -0.13707012 0.06349949 -0.20137921 -0.037158012 -0.23219988
0.29070872 -0.23670895 0.14992195 -0.11977306 0.110822484 0.20566493 0.2329277 0.25024217
-0.26415056 -0.1478904 0.29229748 0.077824056 -0.068124115 0.15892243 0.11839254 0.12052958
0.08355876 0.19351125 -0.07944445 0.01093418 0.24305418 -0.24639139 -0.002532054 -0.24336421
0.17770532 -0.19328347 -0.08242046 -0.36720425 0.15577438 0.13353963 0.048496287 0.067070834
-0.26918006 -0.12137538 0.013708144 -0.26961383 0.08498152 0.079328455 0.0059031984 -0.06565907
0.25193 -0.21712193 0.0038463175 -0.16925769 0.032073326 -0.36463153 0.11774077 -0.04562623
-0.11211523 0.06604931 0.044567578 0.258655 -0.097625494 -0.105988935 -0.02544557 -0.13320327
0.094277486 -0.33702344 -0.27098376 -0.21068394 0.08340603 -0.0717224 0.1799565 0.20552316
-0.026983788 0.041175246 0.13918447 0.1500797 -0.14753346 0.17587353 -0.20782462 -0.00545641
-0.16358823 0.33633813 -0.21900348 -0.012112343 -0.1099692 -0.097437024 0.114880145 0.19179633
-0.03298023 -0.25409272 -0.076734684 0.060519896 -0.11060076 -0.22860721 -0.12607044 -0.22165088
-0.095044695 -0.29181933 0.073574275 -0.004388285 -0.23380986 -0.25949118 -0.10079096 -0.07173118
-0.1427758 0.14037126 0.15205356 0.124153525 0.20800431 -0.30799493 0.13156608 -0.010992112
-0.121097125 -0.14760697 0.11459358 -0.010697783 0.08889665 -0.08071691 0.25843084 0.082302496
0.08281791 -0.059267905 -0.06272054 -0.22546238 -0.19302297 0.044168957 0.29712364 -0.15612242
0.0035632614 0.00190932 -0.21412006 -0.032371175 -0.044883464 -0.04746261 -0.089110605 -0.20998484
-0.05091601 0.14004838 0.105011165 0.037389737 0.27125198 0.12241294 -0.021950986 -0.011768538
0.100139216 -0.10032292 -0.011101867 0.26725477 -0.015932554 0.12755705 0.073235296 0.07188009
-0.06975307 0.020322286 -0.124776006 0.3259733 -0.11379853 0.17773005 0.07254636 -0.28561428
0.13952728 0.041150924 -0.065709785 -0.10898643 0.047356278 0.15798777 -0.014048491 -0.09487843
0.117404915 0.07506334 -0.12389419 0.04533211 0.23064218 0.23347294 0.16428 0.09118738
0.071464665 -0.20595795 -0.021001723 -0.34506962 0.15279706 0.02061097 -0.011349892 0.096326515
0.26682687 -0.18287556 -0.2620642 -0.23278108 -0.2648636 -0.06195773 -0.22422957 -0.11558023
0.08341687 0.18731426 -0.27643737 -0.04797598 -0.15822662 -0.0959274 0.04262139 -0.077668905
00000000: 2375 cf3c f46b a33d 6948 883e 76d2 9a3d
00000010: a509 e63c 9025 c23d 2c78 dfbd 16a6 0fbe
00000020: 86f5 c8bd ce19 8f3d 34e9 afbd 1477 86be
00000030: e28a 7b3e aab7 143e 62d8 903e 1ac4 763c
00000040: e0e9 bcbd 5ff0 57bc c2d1 41be 99e4 c2be
00000050: c19b 373d f895 ac3d 832f 91be 455a df3d
00000060: c6b1 343e 27db c9bd 41b1 39be 7876 b0bd
00000070: 0922 853e c3df 27bd 4c59 4dbd 5b10 22be
00000080: 34a1 be3d c58f 6d3e 1268 c93d 5d51 573e
00000090: e77f b93d f24a ccbd a403 7b3e 5d7e 9a3d
000000a0: f631 bb3d 170d 6fbe 686c 2a3d 2936 513d
000000b0: 9925 a1bd e894 aebe 9d5b 893d ce35 0cbd
000000c0: 3795 60be 3cad 65bd d49a d43d d5bb eebd
000000d0: 8214 33be 22b5 aa3d 5f17 50be 1b38 033e
000000e0: 5bfa 02be 68f9 9b3d 1045 97be 1c5c 0cbe
000000f0: 050c 823d 5a36 4ebe 0033 18bd cec5 6dbe
00000100: c6d7 943e d563 72be 2485 193e 944b f5bd
00000110: e6f6 e23d d499 523e 9984 6e3e be1f 803e
00000120: be3e 87be 9570 17be 04a8 953e 3862 9f3d
00000130: a884 8bbd 90bc 223e ca77 f23d 36d8 f63d
00000140: db20 ab3d d027 463e c6b3 a2bd 4625 333c
00000150: 32e3 783e 064e 7cbe d1f0 25bb 7834 79be
00000160: 62f8 353e 1aec 45be 0fcc a8bd 3202 bcbe
00000170: 5283 1f3e 9dbe 083e 0ba4 463d 6f5c 893d
00000180: f8d1 89be a893 f8bd 2098 603c d30a 8abe
00000190: cb0a ae3d f576 a23d 9e6f c13b 4378 86bd
000001a0: f8fc 803e 3655 5ebe 8012 7c3b e351 2dbe
000001b0: 525f 033d fcb0 babe 1322 f13d 92e2 3abd
000001c0: ab9c e5bd dc44 873d 7e8c 363d 6e6e 843e
000001d0: e0ef c7bd ba10 d9bd 3a73 d0bc 7066 08be
000001e0: 8e14 c13d 568e acbe 62be 8abe 88bd 57be
000001f0: c8d0 aa3d 32e3 92bd 8446 383e aa74 523e
00000200: 1b0d ddbc 60a7 283d 6086 0e3e 7eae 193e
00000210: 0313 17be 3118 343e facf 54be afcb b2bb
00000220: ac83 27be 8334 ac3e 7342 60be d972 46bc
00000230: 8837 e1bd 108d c7bd 4846 eb3d 4266 443e
00000240: 4716 07bd 7118 82be 1327 9dbd b6e3 773d
00000250: a782 e2bd 0218 6abe 9c18 01be 73f8 62be
00000260: cba6 c2bd 5869 95be 1cae 963d 9acb 8fbb
00000270: da6b 6fbe 07dc 84be 7e6b cebd cce7 92bd
00000280: d233 12be 7cbd 0f3e eeb3 1b3e 3444 fe3d
00000290: 15ff 543e 83b1 9dbe 42b9 063e 4218 34bc
000002a0: c501 f8bd 4826 17be 0ab0 ea3d c145 2fbc
000002b0: 720f b63d e84e a5bd 0c51 843e 368e a83d
000002c0: 709c a93d e7c2 72bd a073 80bd 9cdf 66be
000002d0: d0a7 45be 82ea 343d 9720 983e 8ede 1fbe
000002e0: 9b85 693b 2642 fa3a 4a42 5bbe a397 04bd
000002f0: b9d7 37bd 2768 42bd 9f7f b6bd 4406 57be
00000300: 4e8d 50bd d868 0f3e 1810 d73d fb25 193d
00000310: 8ae1 8a3e a3b3 fa3d 8ed2 b3bc d3d0 40bc
00000320: ca15 cd3d 1a76 cdbd 9be4 35bc 9ed5 883e
00000330: fd84 82bc 519e 023e 63fc 953d de35 933d
00000340: b3da 8ebd ec7a a63c 908a ffbd f9e5 a63e
00000350: 340f e9bd defe 353e 3093 943d 093c 92be
00000360: 3de0 0e3e df8d 283d da92 86bd 4734 dfbd
00000370: a8f8 413d 8cc7 213e a42b 66bc 9f4f c2bd
00000380: fd71 f03d cfba 993d 3dbc fdbd 2aae 393d
00000390: 772d 6c3e 8813 6f3e 0439 283e 73c0 ba3d
000003a0: 115c 923d a4e6 52be ce0b acbc f7ac b0be
000003b0: d576 1c3e 56d8 a83c e6f4 39bc d646 c53d
000003c0: 889d 883e bb43 3bbe 472d 86be 2a5e 6ebe
000003d0: 349c 87be 64c7 7dbd 709c 65be 54b5 ecbd
000003e0: 77d6 aa3d 4fcf 3f3e 3389 8dbe 7682 44bd
000003f0: 2906 22be 9675 c4bd c493 2e3d e010 9fbd

arr_1 f4 [64]
-0.039448507 -0.009570094 0.01736094 -0.10118035 -0.25538698 -0.16045493 0.05623655 0.20292434
-0.0113260355 0.25777036 0.17072958 0.05389513 -0.0033077244 0.062230323 -0.063379765 -0.20845246
0.15905416 0.08833773 0.112404816 -0.041236542 -0.04043941 0.07036914 -0.107967235 0.031720877
-0.3602358 -0.1704613 0.07966735 0.35944468 -0.15842253 0.27494335 0.09212679 0.028613478
-0.018315488 -0.084366366 0.3029783 0.11095767 -0.004120685 0.113866046 0.11539671 -0.072580345
0.11493478 -0.026637064 0.14906949 -0.09293893 -0.17329119 -0.33119756 0.15934855 0.16440752
-0.13788301 0.15254916 -0.10365012 0.26544818 -0.014351668 -0.07385859 -0.20638774 0.10827338
0.08828445 0.027683942 0.20240295 -0.14321531 0.2932964 0.029850045 -0.18550426 0.22691512
00000000: c294 21bd e2cb 1cbc 8838 8e3c a537 cfbd
00000010: 15c2 82be 4c4e 24be 4c58 663d 66cb 4f3e
00000020: d690 39bc 7afa 833e bcd3 2e3e 24c1 5c3d
00000030: 68c6 58bb 39e5 7e3d 40cd 81bd 9074 55be
00000040: 18df 223e 69ea b43d 7f34 e63d a6e7 28bd
00000050: cba3 25bd b21d 903d ed1d ddbd c0ed 013d
00000060: d470 b8be 688d 2ebe a328 a33d 2209 b83e
00000070: 8439 22be 60c5 8c3e f8ac bc3d d066 ea3c
00000080: 5d0a 96bc 46c8 acbd f91f 9b3e c63d e33d
00000090: d006 87bb 9a32 e93d 1c55 ec3d 01a5 94bd
000000a0: ed62 eb3d f935 dabc aca5 183e c456 bebd
000000b0: 3f73 31be ba92 a9be 442c 233e 725a 283e
000000c0: 3431 0dbe d935 1c3e 8446 d4bd d3e8 873e
000000d0: 4223 6bbc 2c43 97bd 4f57 53be 6fbe dd3d
000000e0: 7ace b43d 6fc9 e23c b842 4f3e 09a7 12be
000000f0: f22a 963e 1588 f43c d4f4 3dbe 705c 683e

arr_2 f4 [32, 64]
-0.04640601 -0.0059583313 -0.025284667 -0.075342685 0.011066166 -0.07077585 0.017515605 -0.088368155
-0.008110256 0.028096572 0.06353189 0.009810062 0.04953304 0.08409439 -0.04373736 0.08038392
0.04303042 -0.07778233 -0.04177868 -0.10645203 0.0112351505 0.039413616 -0.056645565 -0.073115066
-0.094812535 -0.05076891 0.076964825 -0.047266927 -0.100511745 -0.0066559934 -0.118036166 -0.011697794
-0.09339598 0.07108931 0.081203334 0.0037000482 0.064217575 -0.06706566 -0.014049652 -0.0914476
-0.006664587 0.0068260278 -0.0371161 -0.11171935 -0.08430664 -0.113712646 -0.0756064 -0.05643814
-0.10488235 0.03069127 -0.039151266 -0.12721957 -0.07050662 6.902072e-05 -0.08398034 -0.12408643
0.008387519 -0.07017763 -0.15539843 0.08793073 -0.0047068205 -0.055736985 -0.12015705 0.052464556
0.12709454 -0.030526724 -0.07191923 0.10029024 0.20048955 -0.018208575 -0.10078438 0.057636783
-0.07592168 -0.07328912 -0.09980005 0.056641024 0.08814161 0.11023915 0.065500036 -0.00304733
0.07906061 -0.071979605 0.044416945 -0.13307063 -0.024010295 0.09055536 0.104409695 0.0037097451
0.021913879 -0.16414444 0.008684063 -0.034552153 -0.1499975 0.055552877 0.030567594 0.08485861
0.07122488 -0.11434198 0.078693956 -0.11993012 -0.06766322 -0.105164655 0.059707124 -0.0931367
-0.049176358 -0.09915772 -0.06887232 -0.16890207 -0.022130428 0.10536356 0.113712735 0.042952243
0.1442025 0.052035525 -0.065593086 -0.021297976 -0.12642168 0.0036823435 -0.16159266 -0.0134371165
-0.13592643 0.0038469993 -0.024101522 -0.16058293 -0.16304958 0.020638458 0.06964788 -0.033750385
0.080539025 0.036908127 -0.074558474 0.06075667 -0.046266984 0.08564146 0.20995273 0.06865316
-0.017499551 -0.024391957 0.22164527 -0.042466704 0.13034391 -0.07891945 -0.053891335 0.13642237
0.014342023 0.13014337 0.006618922 -0.009456901 0.087034225 0.113187656 -0.072351895 0.07005234
-0.10339734 0.16375786 -0.009368701 -0.005685882 0.037380915 0.056608066 -0.08115378 -0.12121718
0.09579145 0.13464871 0.006781204 -0.062356215 -0.046674296 -0.016124578 0.09782837 0.14113002
-0.09850553 0.05184008 0.06780298 0.02572457 -0.02463211 -0.23436019 -0.03387453 0.08425422
-0.16792499 -0.044382766 0.24888077 0.08504679 -0.10834124 0.051171064 -0.006366637 0.08439616
-0.025462402 0.030033303 0.1393942 0.095266014 0.0035876483 -0.08958611 -0.029988596 0.04215411
0.07879658 0.13709626 -0.10752023 0.09943036 -0.121442415 -0.104466036 0.13477427 -0.020658702
0.09457439 0.16660595 0.068042785 0.037418567 -0.016243123 -0.021373019 0.04986701 0.1938133
0.028864253 0.013413104 0.08529788 0.019473048 0.045174867 0.042222284 0.049482435 0.13317019
-0.15909527 0.027612114 0.08730604 0.13001667 0.086043805 0.096170604 0.009002359 -0.14465018
0.10172457 0.06894675 -0.010233007 0.089955926 0.00046831183 0.037538648 0.08643098 0.1286948
-0.059640355 -0.006809349 -0.01724704 0.00969756 0.11254958 -0.04918523 -0.091794655 -0.009808347
-0.1664992 -0.001647653 0.21671075 -0.006757918 0.11045502 0.036915015 0.22849426 0.22955276
0.1484053 0.14379044 0.10244618 0.15963906 0.10841292 0.004370779 -0.078998595 0.06979434
00000000: 3a14 3ebd 1b3e c3bb ca21 cfbc 444d 9abd
00000010: dd4e 353c eef2 90bd e37c 8f3c 5dfa b4bd
00000020: e1e0 04bc c82a e63c 021d 823d 62ba 203c
00000030: 28e3 4a3d ae39 ac3d f225 33bd 53a0 a43d
00000040: aa40 303d 584c 9fbd 1f20 2bbd 8603 dabd
00000050: a313 383c 2c70 213d 2e05 68bd 5abd 95bd
00000060: 132d c2bd 10f3 4fbd bc9f 9d3d f79a 41bd
00000070: 1ad9 cdbd 851a dabb f2bc f1bd 1ba8 3fbc
00000080: 6446 bfbd 4697 913d ef4d a63d 827c 723b
00000090: 8184 833d b959 89bd 8330 66bc e148 bbbd
000000a0: 9c62 dabb dfac df3b 0d07 18bd 1dcd e4bd
000000b0: f6a8 acbd 2de2 e8bd 87d7 9abd ae2b 67bd
000000c0: 8fcc d6bd 426c fb3c 145d 20bd d945 02be
000000d0: c665 90bd 38bf 9038 e2fd abbd 0721 febd
000000e0: ce6b 093c 4ab9 8fbd c420 1fbe 0715 b43d
000000f0: ac3b 9abb 774c 64bd e614 f6bd 13e5 563d
00000100: 1225 023e 2e13 fabc 644a 93bd f864 cd3d
00000110: 224d 4d3e 262a 95bc 0b68 cebd 8c14 6c3d
00000120: d37c 9bbd 9b18 96bd f863 ccbd 6b00 683d
00000130: 9783 b43d 10c5 e13d e224 863d b7b5 47bb
00000140: 87ea a13d 0b6a 93bd 8bee 353d ab43 08be
00000150: 3db1 c4bc 1775 b93d c0d4 d53d 321f 733b
00000160: bc84 b33c 7b15 28be 9a47 0e3c 8f86 0dbd
00000170: f298 19be 6a8b 633d e468 fa3c 5aca ad3d
00000180: 5ade 913d 212c eabd 4c2a a13d ec9d f5bd
00000190: 0493 8abd 9160 d7bd 758f 743d 74be bebd
000001a0: 266d 49bd 3413 cbbd ee0c 8dbd aaf4 2cbe
000001b0: df4a b5bc dac8 d73d 39e2 e83d b1ee 2f3d
000001c0: d2a9 133e 3423 553d ab55 86bd 1879 aebc
000001d0: af74 01be 7953 713b 8c78 25be 5a27 5cbc
000001e0: 4c30 0bbe f01d 7c3b 8e70 c5bc da6f 24be
000001f0: 78f6 26be fc11 a93c 8ca3 8e3d d83d 0abd
00000200: a5f1 a43d fa2c 173d 1db2 98bd fcdb 783d
00000210: 7382 3dbd ca64 af3d d9fd 563e 079a 8c3d
00000220: 385b 8fbc a4d1 c7bc faf6 623e 91f1 2dbd
00000230: e078 053e 85a0 a1bd 29bd 5cbd 4eb2 0b3e
00000240: cefa 6a3c 4e44 053e 8be3 d83b 1ef1 1abc
00000250: 003f b23d eece e73d 3b2d 94bd 9a77 8f3d
00000260: fcc1 d3bd 24b0 273e 2e7f 19bc a350 babb
00000270: bb1c 193d dcdd 673d f433 a6bd b640 f8bd
00000280: 4f2e c43d 5ae1 093e dd34 de3b 3b69 7fbd
00000290: 8c2d 3fbd b117 84bc 3e5a c83d 6384 103e
000002a0: 44bd c9bd 4456 543d 4adc 8a3d 55bc d23c
000002b0: 47c9 c9bc 1efc 6fbe 05c0 0abd 7a8d ac3d
000002c0: 87f4 2bbe b4ca 35bd 9ada 7e3e 032d ae3d
000002d0: 03e2 ddbd c098 513d 399f d0bb e5d7 ac3d
000002e0: 8796 d0bc 6708 f63c 5abd 0e3e d41a c33d
000002f0: c01e 6b3b ec78 b7bd a5aa f5bc caa9 2c3d
00000300: 1a60 a13d f662 0c3e 9133 dcbd 25a2 cb3d
00000310: cdb6 f8bd 4af2 d5bd 4402 0a3e 703c a9bc
00000320: 38b0 c13d c09a 2a3e 045a 8b3d 3644 193d
00000330: 4c10 85bc 7816 afbc 5a41 4c3d fe76 463e
00000340: ba74 ec3c a3c2 5b3c a8b0 ae3d f185 9f3c
00000350: 4809 393d 46f1 2c3d 18ae 4a3d c45d 083e
00000360: dfe9 22be cd32 e23c 82cd b23d 1723 053e
00000370: bc37 b03d 18f5 c43d a17e 133c 2d1f 14be
00000380: f954 d03d f433 8d3d 58a8 27bc d03a b83d
00000390: c087 f539 20c2 193d ba02 b13d 92c8 033e
000003a0: 7249 74bd f620 dfbb aa49 8dbc 84e2 1e3c
000003b0: 6580 e63d 7476 49bd d6fe bbbd 30b3 20bc
000003c0: c47e 2abe 10f6 d7ba 6ce9 5d3e 8671 ddbb
000003d0: 3e36 e23d 3334 173d 66fa 693e e10f 6b3e
000003e0: 8ff7 173e cd3d 133e 4ecf d13d 6c78 233e
000003f0: 9807 de3d c038 8f3b 04ca a1bd 56f0 8e3d

arr_3 f4 [32]
-0.046655845 -0.14942268 0.1384285 0.18180528 0.16347891 0.21142064 0.12264365 0.06469795
0.18669361 0.0381776 -0.023090053 0.13234052 0.0458677 -0.047028176 0.07677844 0.10296295
0.03444709 -0.057700664 0.058878742 0.05623576 0.11172422 -0.009505525 0.0030593507 0.046253227
0.10346934 0.044760577 -0.054278065 -0.101946816 0.19898728 0.21999496 0.19303167 0.111651264
00000000: 331a 3fbd 4202 19be 33c0 0d3e 2a2b 3a3e
00000010: 0467 273e a77e 583e 982c fb3d 5c80 843d
00000020: 9c2c 3f3e 1d60 1c3d 5a27 bdbc 4684 073e
00000030: c5df 3b3d 9ea0 40bd 043e 9d3d 3dde d23d
00000040: 6418 0d3d 8857 6cbd d62a 713d 7857 663d
00000050: abcf e43d 10bd 1bbc 637f 483b 0674 3d3d
00000060: bce7 d33d de56 373d ad52 5ebd 7ec9 d0bd
00000070: 52c3 4b3e 5c46 613e 18aa 453e 6ba9 e43d

arr_4 f4 [1, 32]
0.115293056 0.17453721 -0.14374885 -0.090932705 -0.11497068 -0.08937583 -0.13228762 -0.1762546
-0.076210335 -0.1610501 0.2439875 -0.08015786 -0.21299973 0.18662064 -0.12407734 -0.09872031
0.1952084 0.32481378 -0.12417787 -0.14587262 0.24341092 0.3127525 0.2519181 -0.1043468
0.24318984 0.23314193 -0.12079954 0.2134343 -0.10789784 -0.06677222 -0.0785033 -0.12620737
00000000: c41e ec3d e2b9 323e e632 13be ed3a babd
00000010: bf75 ebbd ad0a b7bd 6876 07be 167c 34be
00000020: 2a14 9cbd 51ea 24be dcd7 793e ce29 a4bd
00000030: 9a1c 5abe 7b19 3f3e 431c febd e02d cabd
00000040: b6e4 473e fe4d a63e f850 febd a25f 15be
00000050: b640 793e 1821 a03e 69fb 803e c6b3 d5bd
00000060: c206 793e c2bc 6e3e c065 f7bd 858e 5a3e
00000070: 8bf9 dcbd e0bf 88bd 57c6 a0bd 813c 01be
