model_checkpoints/params_round_20.npz (npz, 14022 bytes, 5 tensors)

arr_0 f4 [64, 15]
00000000: fa51 ab3c 6bb2 a03d 8284 863e 1873 713d
00000010: 7407 d53c 4a9c b73d 5675 ebbd 1e6f 18be
00000020: 6c81 dcbd 6ca6 8c3d 1049 d8bd f825 72be
00000030: 2875 573e e6ee 1f3e 1238 7f3e 3771 a5bc
00000040: 8a08 8cbd f369 15bc 1660 2cbe 1511 b0be
00000050: 2279 5a3d d875 a53d 2f3b 87be 843d ff3d
00000060: d95f 343e 9ea0 fcbd b6b8 3dbe 7ef0 98bd
00000070: 6e27 853e 0c3a 27bd 190c 28bd e03d 1cbe
00000080: 9e03 853d 6465 683e ea1d e23d fe17 543e
00000090: 41a8 d53d 5382 02be e036 613e 6c31 9c3d
000000a0: 7a93 ba3d 5226 6bbe 769c ef3c 77d8 a73d
000000b0: 85f5 81bd a0bc a2be 2b23 6c3d 864c 61bd
000000c0: b29f 64be 3016 90bd 6a3d bc3d 826f fbbd
000000d0: 982e 22be 34d5 a23d 390b 46be 5e80 f63d
000000e0: e33a 1ebe 7b25 aa3d 508f 98be 6a95 ffbd
000000f0: 791c 6e3d a430 41be 337e 98bd ce7b 6abe
00000100: 4354 933e ca1a 76be 2248 233e af6a fabd
00000110: e943 013e 9384 3f3e 6265 6c3e d8ca 843e
00000120: dd35 77be 2753 18be 4983 913e 8db7 963d
00000130: e5fc a0bd 2cdd 1d3e 319a fb3d 41c2 f93d
00000140: 9989 ca3d c603 483e 8223 a2bd 069d 173c
00000150: bebc 5c3e 586b 84be 43f3 21bc 91b0 7fbe
00000160: 1a65 3c3e 0840 68be ccac 90bd e1e4 bdbe
00000170: fa29 283e 70c9 013e a00a ff3b d669 c43d
00000180: 11be 90be 2aad 02be dce1 23bc 02f4 85be
00000190: ef3e b03d e3d9 d03d 31a6 c4bc c1af 9bbd
000001a0: 23a4 763e 28d7 62be b305 f33b 8b19 4dbe
000001b0: 6a21 ba3c d174 b2be 67cf f13d 3ece 43bd
000001c0: 8621 fbbd 862f b83d 78b6 bf3c 2e2f 743e
000001d0: 7efe dfbd 7e9a 0dbe 7921 80bc d92d 03be
000001e0: 3c09 d03d 7bed a2be c533 80be 3e44 5fbe
000001f0: 6be7 983d f4c0 85bd a490 533e 6a7c 4f3e
00000200: 9392 17bd 9065 8d3c 7b1d 113e 2276 293e
00000210: 4ef5 1bbe 5872 203e 96ae 51be 021a 633c
00000220: 72da 23be eafe ae3e 8423 6dbe 7672 c9bc
00000230: a813 14be fd05 c2bd 66ea c03d 6c4b 393e
00000240: 9906 92bc c828 84be d4e9 b9bd 4aa9 4f3d
00000250: b855 e5bd d4ba 6dbe 564f 0abe 5efa 56be
00000260: dc3a bdbd 503f 89be 650c 863d 42d6 9abb
00000270: 9c5f 81be e2b0 83be ab06 ffbd 12aa a6bd
00000280: 81f4 30be 349e 073e 3227 193e 4fde fc3d
00000290: 2e38 4a3e 3862 9cbe 85f0 0a3e a42d 0c3b
000002a0: 00d1 f7bd 2389 fbbd 76df e53d d889 adbc
000002b0: 3805 9a3d d30c d5bd e692 863e fd6d 933d
000002c0: f01c 8e3d 49b4 95bd 60c0 8abd 2afd 5cbe
000002d0: f783 4ebe b9dd 763d 4f68 993e 6998 26be
000002e0: 1d21 47bb 9b5e 1a3c d29b 61be 7b6b 32bd
000002f0: 3df4 5ebd 3316 18bd 59e1 e9bd 19e0 63be
00000300: 6b53 99bd 9fe6 ed3d 884b a03d 766e 5d3d
00000310: 78f8 953e ba18 e83d 0f68 ed3b de95 19bc
00000320: 089f d83d 936d d3bd 0f9b 803c e857 943e
00000330: 7821 61bc e07f 0c3e 14b9 aa3d 4816 b73d
00000340: 5363 8fbd 0760 f73c 4bfa 0abe 7250 953e
00000350: 8cad 10be 501b 303e aa81 323d d0f1 84be
00000360: 2a1a 0a3e 7e69 3f3d aaf2 a4bd ae44 f0bd
00000370: 6ff2 523d d313 2e3e 7162 1dbb 564b b5bd
00000380: c251 c83d 2534 743d 3a0b 01be 631b 753d
00000390: daef 713e 8869 623e 96e9 173e 1d45 b03d
000003a0: 1ac1 953d b59e 57be 731c 9abc c668 aabe
000003b0: 2722 f33d e8bf 8c3c 3704 54bc aec2 c33d
000003c0: 9a8e 7a3e 372e 35be 07a5 7bbe 6b79 7dbe
000003d0: 6e6a 81be f7f3 a1bd 1405 6cbe 54e0 f4bd
000003e0: 8d67 d83d 900c 333e 7195 88be 5a08 3cbd
000003f0: 0276 29be ed81 f0bd 4d32 6a3d 1369 b2bd
0.020913113 0.078465305 0.2627297 0.058947653 0.02600453 0.08965357 -0.114969894 -0.14886138
-0.10766873 0.0686768 -0.105608106 -0.23647296 0.21040785 0.15618476 0.24923733 -0.020195587
-0.06837566 -0.009119499 -0.16833529 -0.34388033 0.053338178 0.080791175 -0.2641234 0.12462905
0.17614688 -0.12335323 -0.18527493 -0.07467745 0.26006645 -0.040826842 -0.041027162 -0.15257978
0.064948305 0.22694927 0.11040862 0.20712277 0.104324825 -0.12745027 0.2199359 0.07626614
0.0911016 -0.22963837 0.029249411 0.08195584 -0.06345657 -0.31784534 0.057650726 -0.05500462
-0.22326544 -0.07035482 0.09191401 -0.12277128 -0.15838087 0.079508215 -0.19340219 0.12036203
-0.15452151 0.0830793 -0.2979684 -0.1247967 0.058132622 -0.18866211 -0.074459456 -0.2289879
0.28775224 -0.24033657 0.15945485 -0.122273795 0.12623562 0.18702917 0.2308555 0.25936007
-0.24141641 -0.1487547 0.28420475 0.07359228 -0.07860736 0.15416402 0.12285269 0.12195254
0.09889526 0.1953269 -0.07916929 0.009253746 0.21556374 -0.25863147 -0.009884658 -0.24969698
0.18397942 -0.22680676 -0.070642084 -0.37088683 0.16422263 0.12674499 0.007783249 0.09590499
-0.2827001 -0.1276137 -0.01000258 -0.26162726 0.08605754 0.101978086 -0.024005027 -0.07601882
0.2408605 -0.22152388 0.007416451 -0.20029275 0.022721011 -0.3485475 0.11807137 -0.04780411
-0.122622535 0.089934394 0.023402438 0.23846123 -0.109372124 -0.13828465 -0.015640961 -0.12810458
0.10158011 -0.31821808 -0.25039497 -0.21803376 0.074660145 -0.065309435 0.20660645 0.20262304
-0.03700502 0.017260343 0.14171402 0.1654897 -0.15230295 0.15668619 -0.20476755 0.013861181
-0.16001299 0.3417886 -0.2315808 -0.024590712 -0.14460623 -0.094737984 0.09419708 0.18095177
-0.017825412 -0.25812364 -0.09077802 0.050698556 -0.1119799 -0.232158 -0.13506827 -0.20993945
-0.09239742 -0.26806116 0.06545333 -0.0047252486 -0.25268257 -0.25720888 -0.12452444 -0.08137907
-0.17280771 0.13243943 0.14956358 0.123470895 0.19747993 -0.30543685 0.13568313 0.0021389509
-0.121004105 -0.12282016 0.112242624 -0.021183893 0.07520527 -0.10402837 0.2628395 0.07198713
0.06939113 -0.07309777 -0.06774974 -0.2158095 -0.20167528 0.060270045 0.29962394 -0.16269077
-0.0030384727 0.00942197 -0.22032097 -0.043559533 -0.054432143 -0.037130546 -0.11419935 -0.22253455
-0.07486614 0.11616253 0.078269064 0.054060422 0.2929113 0.11332841 0.0072450708 -0.00937411
0.10577208 -0.10323634 0.015698938 0.28973317 -0.01374089 0.13720655 0.08336082 0.08939797
-0.070013665 0.030197157 -0.13572042 0.29162937 -0.14128703 0.17197919 0.04358069 -0.25965738
0.13486543 0.046731465 -0.08054097 -0.117318496 0.051500734 0.1699975 -0.0024014974 -0.0885226
0.09781219 0.05962004 -0.12601939 0.05984057 0.23626652 0.2211057 0.148352 0.08606932
0.07312222 -0.21056636 -0.018812394 -0.3328306 0.118717484 0.017181352 -0.012940458 0.095586166
0.2446846 -0.17693411 -0.24574672 -0.24753349 -0.25276512 -0.07907861 -0.23048812 -0.1195685
0.10566626 0.17485261 -0.26676515 -0.045906402 -0.16548923 -0.117435314 0.057176877 -0.087114476

arr_1 f4 [64]
00000000: 32fe 72bc 7fa9 dbbc 1fab a53c b2ed a8bd
00000010: 76a5 6dbe e47c 2abe 6aa7 983d 38f7 713e
00000020: da19 2bbc 6f9f 833e 5144 443e 283b 713d
00000030: 3e61 433c 2da9 ad3d a7b1 66bd fe76 4cbe
00000040: 48c8 383e 80ab e63d 36c8 133e dc14 11bd
00000050: ebb6 1cbd 055c a73d 3ce9 c0bd e2a2 513d
00000060: 2225 abbe 1a69 26be 2afe c63d 49b0 b83e
00000070: 35e9 0fbe acc8 8c3e 1825 c53d afb8 753d
00000080: 1924 b3bc 8aed bcbd 4c43 9a3e 0077 0c3e
00000090: 72e6 b13a e82e 093e f34d ea3d 4c7e 9abd
000000a0: 42a8 033e afbb 42bd 707d 233e 84df abbd
000000b0: 6d4e 17be 3c19 9bbe 203c 583e 6465 313e
000000c0: c051 0fbe 8eaf 293e b2d4 95bd 4a21 8b3e
000000d0: deef ae3b eb0e 90bd dadd 3fbe 7816 023e
000000e0: 98b1 e03d d418 503d 74ff 753e 1d63 02be
000000f0: e8a5 9e3e e73e 353d 4bee 1dbe 007b 663e
-0.014831113 -0.02681422 0.020223198 -0.08248462 -0.2320765 -0.16649204 0.07453807 0.23629463
-0.010443175 0.25707576 0.19166686 0.058894306 0.01192504 0.08479533 -0.056321766 -0.19967267
0.18045151 0.1126318 0.14431843 -0.035420284 -0.03826038 0.08171848 -0.09419486 0.051180728
-0.33426768 -0.1625103 0.09716447 0.36071995 -0.14053805 0.2749685 0.09626216 0.05999058
-0.021867799 -0.092249945 0.30129468 0.1371727 0.0013572706 0.133968 0.11440649 -0.075436205
0.12857154 -0.04754227 0.1596582 -0.083922416 -0.14776011 -0.3029269 0.21116686 0.17323834
-0.13996029 0.16570875 -0.07315959 0.27173835 0.005338653 -0.070340954 -0.18736973 0.12703884
0.10971373 0.050804928 0.24023229 -0.12733121 0.3098595 0.04424944 -0.15422933 0.22507858

arr_2 f4 [32, 64]
00000000: 2987 19bd 9078 5438 ee47 c5bc 4a79 9bbd
00000010: 4470 683c 77e1 93bd c2fc 7a3c d077 b5bd
00000020: 979f 0bbc ba72 da3c 0017 823d 6ed2 e83b
00000030: 988c 613d c004 a93d c492 39bd d886 b03d
00000040: b218 1f3d bc01 9ebd a8cd 07bd 8e56 dfbd
00000050: 4641 3f3c 5c81 3d3d 9887 56bd a843 8ebd
00000060: 1424 bdbd ecaa 49bd 4aaf ad3d 27b4 49bd
00000070: 72f1 d9bd 588f 09bc 6602 eabd 9e87 71bc
00000080: e48c c6bd 8aa1 7b3d 14fe a23d 57e0 8f3b
00000090: 4e68 823d 1648 88bd 8e77 73bc 469e babd
000000a0: 92bf 20ba 4c62 863b 7a1e 1cbd ae8f e5bd
000000b0: 6d65 abbd 5637 e6bd be99 9ebd 46b7 5dbd
000000c0: ac67 e2bd bd98 253d b618 2abd 96fc 00be
000000d0: f967 90bd 6102 cd3b 17ea b0bd c0ab 01be
000000e0: 6270 863c d696 91bd ad3c 1cbe b1a6 b73d
000000f0: 0a0e 623a 6e27 68bd 5fc9 eebd 039b 7c3d
00000100: 3674 f73d 2a3a febc 3aa9 96bd 3953 d13d
00000110: 3c7f 303e b524 ccbc fc21 dabd 4e27 963d
00000120: 0f46 9dbd 938e 4fbd 67a1 24bd f79b 443d
00000130: 82a4 b13d 081f 073e 980a 663d fd00 a63b
00000140: 529b c33d f088 72bd 56db 333d f9b1 f3bd
00000150: 60ca 4538 4cc1 a03d bcf7 c93d 48e3 15bb
00000160: 4a4a aa3c 64dc 0abe 8cc0 ac3c c05f 58bc
00000170: 57e0 06be 005e 783d 1ae2 e43c 804f a23d
00000180: e03f 833d 8d27 b5bd 34e6 a23d fa31 d0bd
00000190: 6e70 6bbd d445 87bd 2e07 3f3d 36ff 07bd
000001a0: e1eb 60bd 0a12 0fbd eb4d 4cbd 6ad0 26be
000001b0: 2481 5fbc b922 eb3d 6aee 063e 989d 073d
000001c0: 3783 0d3e 5dd7 553d be0e 3dbd df6e c3bc
000001d0: 7ca9 afbd 4d97 263d fc00 02be b281 5c3c
000001e0: 4ed7 01be 46ac 633c 7dcc e2bc 8c12 13be
000001f0: 809f 26be 2e12 a43c 2a9c 4b3d 925f 86bc
00000200: 5aa4 8f3d 16a6 363c b4a2 65bd e882 6b3d
00000210: ca5f a8bc d462 e83d 54ca 513e 40bc 983d
00000220: 4691 f8bc 4b55 15bd d8c9 5a3e 30b3 5bbd
00000230: ec0d 003e 5e04 a1bd 48c1 8fbd af15 073e
00000240: 9f23 503b 20d5 013e 645d 13bc 8a65 fcbc
00000250: 32e9 ab3d 108e d53d 2e45 2cbd d877 6d3d
00000260: e9b8 c9bd 11c7 173e 62c2 a2bc 0812 97b9
00000270: d22b 433c 3068 593d 5e9a a0bd 7c6c f2bd
00000280: 466f bc3d d23c 003e 076b 94bb 4ea1 84bd
00000290: dac1 bcbc 2240 a0bc 5540 aa3d de59 2e3e
000002a0: 4e93 c1bd 7507 6e3d 3ccc 8c3d dc2e 8f3c
000002b0: 139c 10bd af4c 4abe f081 bfbc 9288 c13d
000002c0: c3b3 25be ecb5 d3bc d853 713e bec5 b13d
000002d0: 071a e1bd 3a27 fc3c f08a babb d713 963d
000002e0: c10f f6bc 4bf8 bc3c 2a19 0b3e 9753 963d
000002f0: 2f2a 603c 321b 9ebd 12f1 e7bc 0e79 ca3c
00000300: 56f7 9e3d 68f0 003e f41f e3bd 774f a03d
00000310: 328c eebd 172f b5bd 3ee3 0c3e 6e0b 11bd
00000320: bf15 a33d 9d9b 2e3e 6219 6f3d c0d3 a13c
00000330: 4dcd a1bb 4697 02bd dc87 3f3d d3ac 383e
00000340: 949c 543c 8590 a7ba 52fb 9e3d f03a 3b39
00000350: 398b e53c 0309 1a3d 70d2 853d 70be ec3d
00000360: 57ef 1cbe 54b7 fbbb 8a08 9b3d 037c 173e
00000370: 7c20 933d 06d4 bb3d 45dd e83a 73d9 01be
00000380: 86c1 be3d c00e fa3c aa4d 49bc 846f ae3d
00000390: f81b b93c ee40 333c 1975 9e3d 9d3f 143e
000003a0: 5ead 48bd 342d 2bbc f523 d5bc 7518 1e3b
000003b0: 4681 d23d 04e7 e7bc ada9 a5bd fdef 843a
000003c0: 7f35 26be f1d1 0e3c 91c8 4c3e 8454 94bc
000003d0: 3af4 b23d 5f73 2b3c 185a 643e 5c86 623e
000003e0: 0f57 083e acaf 0c3e c21c bb3d 24a3 093e
000003f0: e57c f73d dce6 733b 4240 9bbd 0e97 6d3d
-0.037482414 5.065702e-05 -0.02408215 -0.075914934 0.014186922 -0.072207384 0.015319051 -0.08860743
-0.008521936 0.026666034 0.06352043 0.0071051633 0.05506572 0.08252859 -0.045305982 0.086194694
0.03884191 -0.077151746 -0.033155113 -0.10905181 0.011673277 0.046265945 -0.052375406 -0.06946498
-0.09235397 -0.04923527 0.08480699 -0.049244072 -0.10641755 -0.008395992 -0.11426239 -0.014741806
-0.096948415 0.061433353 0.07958618 0.004390757 0.06367551 -0.06654374 -0.014860047 -0.091122195
-0.0006132062 0.0041010734 -0.038115002 -0.11209045 -0.08368955 -0.11241023 -0.07744168 -0.05412986
-0.1105493 0.040428866 -0.041527472 -0.12596354 -0.07051081 0.006256387 -0.08638399 -0.12663174
0.01641101 -0.07108848 -0.15257521 0.08967341 0.0008623308 -0.056678228 -0.11659502 0.06167127
0.12082712 -0.031033594 -0.07356496 0.102209516 0.17236036 -0.024919847 -0.10651013 0.073317155
-0.07679378 -0.05067308 -0.040192988 0.048000302 0.086739555 0.13195431 0.056162447 0.005066036
0.095511094 -0.059212625 0.043910347 -0.1189918 4.7156936e-05 0.078493685 0.09861705 -0.0022871066
0.020787377 -0.13560635 0.021087907 -0.013206422 -0.13171516 0.06063652 0.027939845 0.0792532
0.064086676 -0.08845434 0.07954064 -0.10165782 -0.05748027 -0.066051155 0.046637706 -0.033202372
-0.05491245 -0.034929313 -0.049878996 -0.16290441 -0.013641629 0.11481232 0.13176885 0.033109277
0.13819586 0.05220734 -0.046156637 -0.023856578 -0.085772485 0.040671635 -0.12695688 0.013458656
-0.12679788 0.013896054 -0.027685398 -0.14362544 -0.16271782 0.0200282 0.049709477 -0.016402993
0.070137694 0.011147996 -0.05606337 0.05749789 -0.020553488 0.11346975 0.20487338 0.07457781
-0.03034271 -0.036458295 0.2136606 -0.053637683 0.12505311 -0.07862161 -0.07019287 0.13191865
0.0031759513 0.12678957 -0.008994434 -0.030810136 0.08394088 0.10427487 -0.042058162 0.05797562
-0.09849722 0.14822032 -0.01986808 -0.000288144 0.011912303 0.053077877 -0.07841943 -0.11837098
0.09200911 0.12523201 -0.00452936 -0.06476079 -0.023041654 -0.01956183 0.083130516 0.17026469
-0.09451924 0.05811258 0.06874892 0.017478399 -0.035305094 -0.19755815 -0.023377389 0.09449877
-0.16181855 -0.025843583 0.2356714 0.086802945 -0.109912924 0.030780423 -0.005692832 0.07328003
-0.030036809 0.023067614 0.13583818 0.07340162 0.013681932 -0.07720031 -0.028313193 0.024715926
0.07762019 0.12591708 -0.11090079 0.07827657 -0.11647834 -0.08846872 0.13758561 -0.03541129
0.07963132 0.1705155 0.058373816 0.01975429 -0.004937804 -0.031882547 0.046760425 0.18034677
0.012976784 -0.0012784159 0.07762779 0.00017855666 0.028020488 0.03760625 0.065342784 0.115597606
-0.15325676 -0.0076817665 0.07569988 0.147934 0.0718393 0.091713 0.0017766139 -0.12680607
0.093142554 0.030524611 -0.012286583 0.08517364 0.022596344 0.010940773 0.07737178 0.14477392
-0.04899346 -0.010447789 -0.026018122 0.0024123464 0.10278563 -0.028308399 -0.08089004 0.0010142323
-0.16231345 0.008717046 0.19998385 -0.018106706 0.08737989 0.010464518 0.22299993 0.22121567
0.1331446 0.13738889 0.091363445 0.1344114 0.120843686 0.003721646 -0.075806156 0.058005385

arr_3 f4 [32]
00000000: 1d30 54bd 8f24 17be d0c6 143e cc05 363e
00000010: c0b5 303e 2f6b 6a3e e235 e63d 7c62 8e3d
00000020: 36bd 423e 7c16 473d fc69 46bd 7011 0d3e
00000030: cc9a 623d dec4 4fbd dad0 b23d d4fa db3d
00000040: b65d d53c 2e74 79bd 0a7a 6a3d bdd1 513d
00000050: f182 cd3d d46d c9bb f6cc 52bc 58b0 403d
00000060: 78b7 a43d ae11 393d ac8e 3bbd 2cf9 f5bd
00000070: a1ca 4b3e 05e4 633e e59e 483e 00c5 ed3d
-0.051803697 -0.1476004 0.14528966 0.17775649 0.17256832 0.2289245 0.11240746 0.06952378
0.1901749 0.048605427 -0.04844092 0.13776183 0.055323407 -0.050724857 0.087312415 0.10741201
0.026045661 -0.060901813 0.05724529 0.051225413 0.10034741 -0.0061471257 -0.012866249 0.047043175
0.080428064 0.045182876 -0.04579036 -0.120104164 0.19901516 0.22254951 0.19591863 0.116098404

arr_4 f4 [1, 32]
00000000: 30b4 e63d b582 093e 1c49 11be 12cb b5bd
00000010: 9190 ebbd ad59 cabd 11d7 04be 306d 2cbe
00000020: 2273 a1bd ad31 2abe a049 4f3e 9cb4 b1bd
00000030: a5a7 5ebe 6e6f 183e ee23 04be 0a55 c6bd
00000040: 446d 293e e199 8a3e 5584 02be 8edd 08be
00000050: bce1 253e 9aa5 883e 9255 473e 276b d8bd
00000060: a493 3d3e 5d01 573e e86b 05be f4d8 203e
00000070: eff0 dbbd 0215 86bd 06fe 9dbd cce3 ecbd
0.11264837 0.13428767 -0.14188045 -0.08876623 -0.11502183 -0.098803855 -0.12972666 -0.16838527
-0.07883288 -0.16620512 0.2024293 -0.08677027 -0.21743639 0.14886257 -0.12904331 -0.09684189
0.16545588 0.27070525 -0.12745793 -0.13365766 0.16199392 0.26688844 0.19466236 -0.10567313
0.18513352 0.20996614 -0.13029444 0.15707761 -0.10739314 -0.06546976 -0.07714467 -0.11566886
