model_checkpoints/params_round_8.npz (npz, 14022 bytes, 5 tensors)

arr_0 f4 [64, 15]
000000 f4 de 9e 3c 6c e1 a7 3d 72 8c 10 3e 08 66 5e be
       0.019393422 0.08197293 0.14116076 -0.2171861
000010 11 66 49 3e 21 48 8c bd ec 67 4b bd 7e 64 03 3e
       0.19667841 -0.06849695 -0.049659654 0.12831303
000020 ce 87 0c 3e 24 cb 6b 3d e0 7f 55 3e 80 a6 2a 3e
       0.1372368 0.057566777 0.20849562 0.16665077
000030 c2 74 40 bd b6 c8 1c be c0 9d b0 3d ec 99 b1 bd
       -0.04698635 -0.1531094 0.086238384 -0.086719364
000040 00 67 a2 3d ca f9 0a 3e ea 15 43 be df e0 42 3e
       0.07929802 0.1357185 -0.19051328 0.19031094
000050 c6 32 99 bb 66 63 35 3e 42 0a 9c 3d 4e 48 9a bc
       -0.004675242 0.17713699 0.07619144 -0.018833306
000060 32 44 7a be 9e 58 39 be 1a b0 3b be 6b d8 f8 bd
       -0.24440077 -0.18100211 -0.18328896 -0.121506535
000070 dc c4 a2 be 2c f1 37 bd 32 75 42 3e af 47 db 3c
       -0.31790817 -0.044907734 0.18990019 0.02676758
000080 a2 6d 68 bd 2a 3f 17 be 38 6c 5c 3e a4 fc c0 3d
       -0.05674518 -0.14770189 0.21525657 0.094231874
000090 71 ce 05 bd ae ca c5 3d dd 90 19 be 10 6b 45 3e
       -0.03266758 0.09657799 -0.14996667 0.19279122
0000a0 e6 36 8a 3d 90 6f 44 3e b4 09 16 be 98 4d 42 3e
       0.06748752 0.19183183 -0.14652139 0.18974912
0000b0 06 78 07 3e 70 de 78 3e 8e 91 2d be 69 3b 57 bc
       0.13229379 0.24303603 -0.16950056 -0.013136723
0000c0 9e 25 2f 3e 6b 05 81 bc 94 9c 3b be 9a b4 d4 bd
       0.17104194 -0.015749654 -0.18321449 -0.103860095
0000d0 f6 e3 21 3e 00 79 27 3e 85 17 e1 3d 1f a6 47 3e
       0.15809616 0.16354752 0.10990814 0.19496964
0000e0 1a c7 e9 bd ee 84 0f be f8 1a 7d be 88 30 7d bd
       -0.11414929 -0.14015552 -0.24717319 -0.06181386
0000f0 d6 72 1f be c6 21 b1 bd aa b1 cb 3d 27 aa c3 3d
       -0.1557115 -0.0864902 0.09945996 0.09553938
000100 d0 e2 60 bd 80 07 e7 3c ec 26 18 be 68 a7 4f 3e
       -0.054903805 0.028201818 -0.14858598 0.20278704
000110 eb b8 7d 3e 26 3b 80 3e 94 26 55 be 66 dd 3b bd
       0.24777572 0.25045127 -0.20815498 -0.04586544
000120 62 f3 b9 bd 94 45 3f be 17 e4 1d be e4 96 0a be
       -0.09079625 -0.18678886 -0.1541904 -0.13534123
000130 f1 ed 79 be c5 79 90 bd 9a 3a 2b bd 74 bd 1a be
       -0.24407174 -0.07054476 -0.041803934 -0.15111333
000140 7e bb 61 3e f9 dd 55 be 6a 35 ba 3d 4c 16 eb bd
       0.22044179 -0.20885457 0.09092219 -0.11478862
000150 b9 fc 3c 3e fd fd 35 3d e1 3b e5 3d 90 55 5d be
       0.18455781 0.044431675 0.111930616 -0.21614671
000160 28 36 37 3e 7b b5 33 bd a4 3c e7 3d c4 6d fa bd
       0.17891753 -0.043874245 0.11290863 -0.122279674
000170 4a 05 1f 3e 89 6f cd bd dc 04 26 3d 3e a5 8e 3d
       0.15529361 -0.10031039 0.040531978 0.06965111
000180 16 26 80 be 64 91 3b 3e 29 16 5d be 4a 78 dc bd
       -0.25029057 0.18317181 -0.21590485 -0.10765131
000190 5e 11 89 bc 7e 52 21 be 73 52 7c be 18 2f 2e 3e
       -0.016731914 -0.15754125 -0.24640827 0.17010152
0001a0 bb a7 75 3e ca 14 cd bd 92 55 3c bd 79 6f 0c be
       0.23989765 -0.10013731 -0.045980044 -0.13714398
0001b0 50 a7 67 3a f7 bf 6d bd 3e 28 42 3b a4 4f 3f 3d
       0.0008836882 -0.0580444 0.0029626037 0.04670681
0001c0 fb 8a fe bd 7d ce 1c bd c3 c7 12 bd 82 0c 93 be
       -0.12428852 -0.03828286 -0.03583504 -0.2872048
0001d0 74 00 59 be a2 8b 05 3e 86 b6 3a be be 25 9e 3e
       -0.21191579 0.13041547 -0.1823369 0.3088817
0001e0 4e 1f 2f be 42 d7 b5 bd a3 03 8e 3e e5 6f 2a be
       -0.17101786 -0.08878948 0.2773715 -0.16644247
0001f0 1d 3c 87 be d0 c6 b3 bd 57 52 95 3d 98 dc 65 bd
       -0.2641305 -0.08778155 0.07291096 -0.056118578
000200 b9 c2 c4 bd d0 61 52 3e 5a 35 45 be 0a c6 8d be
       -0.09607453 0.20545125 -0.19258633 -0.27690154
000210 58 17 1a 3d 80 fe 84 3e 1c 0a b7 3d de 78 2a 3e
       0.03761992 0.25975418 0.08937475 0.1664767
000220 2e 05 b5 bd 48 08 f5 3d 12 22 39 3d 2a da 3c be
       -0.088388786 0.1196447 0.045198508 -0.18442598
000230 de 14 ff bd ca 30 24 be b8 c4 d2 bd 91 1b 5c 3e
       -0.12455152 -0.16034237 -0.102914274 0.21494891
000240 2c de 67 be 64 4c 2c be 4e 00 ea 3d 74 18 6d 3e
       -0.22643346 -0.16826016 0.11425839 0.2315386
000250 ba c5 33 bd 01 e9 18 3e 6b ba 2e 3e c4 84 9d bd
       -0.04388974 0.14932634 0.170633 -0.07691339
000260 42 92 84 be a8 3d 26 3e 5c a2 b2 3d c7 31 e7 3d
       -0.25892836 0.16234457 0.08722374 0.11288791
000270 12 34 17 3e c6 7c 82 be 8e 7d 15 be a7 f2 68 be
       0.14765957 -0.2548582 -0.14598677 -0.22748815
000280 c4 53 dc 3c ee b0 04 bd 05 ad 5c be 88 34 4e be
       0.026895411 -0.032395296 -0.21550377 -0.20137227
000290 46 10 bb 3d 86 14 5a 3b ea da 4e 3c 86 3c 46 3e
       0.09133963 0.0033276393 0.012625435 0.19359025
0002a0 8e 04 05 3e 47 aa ff 3d 84 fb e4 3d 2a ca 11 3e
       0.12990019 0.1248365 0.11180785 0.14237276
0002b0 1c 93 04 be ea b4 08 3e d2 c2 24 bc 78 4d 04 be
       -0.12946743 0.13350263 -0.010056214 -0.12920177
0002c0 98 fe f0 bd 1a 2b 82 3e 21 56 78 be 27 b4 07 3e
       -0.1176731 0.2542351 -0.24251606 0.13252316
0002d0 8e bc d7 bc 50 c9 11 3e 30 0e df 3d e5 68 6b 3e
       -0.026335027 0.14236951 0.10891378 0.22989233
0002e0 08 d3 f8 3d c5 b4 68 3d 78 f4 2f 3e e4 2c 42 bd
       0.12149626 0.05681302 0.17183101 -0.047406092
0002f0 8e ac 78 3e b6 9c 3b 3e 6e c1 9d 3d 64 ae b1 3d
       0.24284574 0.18321499 0.077029094 0.086758405
000300 c3 12 fb bd 25 aa 2d be 60 b2 a1 3d 92 55 35 3e
       -0.12259438 -0.16959436 0.078953505 0.17708424
000310 18 6e 29 3e 1e bc 15 3d 26 9c bd 3d 0e 77 05 3e
       0.16545904 0.036556356 0.092582986 0.13033697
000320 88 43 70 3e 38 50 c5 3d 9c fd 99 bd ba e4 79 3e
       0.23463261 0.09634441 -0.07519075 0.24403659
000330 ac 83 49 3e ca b7 f7 3d 1b 1b 34 be aa 9f b3 3d
       0.19679135 0.12095602 -0.17588465 0.08770688
000340 66 ee 4b 3e 1d 9b 07 3d 36 0f 26 3d 1f bd aa 3d
       0.1991516 0.033106912 0.04054185 0.08336853
000350 22 25 5e 3c 5a 2c ef 3c b0 e5 1e be b8 51 10 be
       0.013558658 0.029195953 -0.15517306 -0.14093673
000360 d2 da 55 3e 65 b7 7d 3e 0b 9e 4b 3e c0 53 06 be
       0.20884255 0.2477699 0.19884507 -0.13117886
000370 12 4a b6 3d ae 4b 45 3e 42 ba 30 bd 5c 4d fa 3d
       0.089008465 0.19267151 -0.04314638 0.122217864
000380 bc 3f 21 3e 08 35 00 3e 58 b3 01 be 91 62 06 bd
       0.15746969 0.1252023 -0.1266607 -0.032808844
000390 e0 15 2e 3e de 6a e9 bd 26 b2 0a 3d 89 3f 64 be
       0.17000532 -0.113973364 0.0338613 -0.22289862
0003a0 f4 c1 6d 3e 18 b2 8e bd 2d 52 a1 bd ad 3d 77 be
       0.23218518 -0.069675624 -0.07877002 -0.24144621
0003b0 af 12 54 3e 50 15 38 be fa c5 62 3e 06 a8 0e 3d
       0.20710252 -0.1797688 0.22145835 0.03482821
0003c0 92 89 6d 3e 38 b2 db 3d 80 ad 00 3e ad e3 19 be
       0.2319701 0.10727352 0.12566185 -0.15028258
0003d0 bc 50 5b 3e 24 da 01 bc aa 00 fb 3d e0 f3 28 be
       0.21417516 -0.007925544 0.12255986 -0.16499281
0003e0 48 bd f6 3d cc 7e d7 bd 47 06 22 3d 54 1f 6b 3e
       0.12047821 -0.105222315 0.039556768 0.2296117
0003f0 8b bf 19 bd ab 18 3d 3e 8c 0b 47 be 67 b0 8b be
       -0.037536185 0.18466441 -0.19437999 -0.27283022

arr_1 f4 [64]
000000 d6 14 15 be 41 a9 7b be f2 62 3f be ea 4a 7b 3e
       -0.1455873 -0.24576284 -0.18690088 0.24540296
000010 53 cb 00 bd 80 74 30 3e 5a d8 f1 3c f5 a7 91 ba
       -0.031443905 0.17231941 0.02952211 -0.0011112677
000020 e2 4c 0a be 4f df 43 3e ae b7 a7 bd 21 fd ef bc
       -0.13505891 0.19128154 -0.08189331 -0.029295506
000030 04 a3 89 3e b6 48 2f be fb 4d 7a be 1a df 80 bd
       0.26882184 -0.17117581 -0.2444381 -0.06292553
000040 78 3a 78 3e ab 8e c4 bc 75 88 f7 3d e9 20 6a bd
       0.24241054 -0.02399381 0.12086574 -0.05716029
000050 d2 41 2a 3e 78 4d 43 3e ca 82 94 3e c8 a0 a2 3d
       0.16626671 0.1907252 0.29006034 0.07940823
000060 22 03 4e be ba b1 32 3d 42 8f 43 3e ce 5e 00 be
       -0.20118383 0.043626525 0.19097617 -0.12536165
000070 fa 1b 69 3e f6 e9 70 be 54 a0 91 bc ed 09 cf 3c
       0.22764578 -0.23526749 -0.017776646 0.025273288
000080 ba 8a 36 be 78 91 08 be 90 12 86 3e 34 00 2b 3b
       -0.17826357 -0.13336742 0.26186037 0.002609265
000090 30 55 c3 39 66 ad c4 3c 56 98 07 be 16 17 92 3e
       0.00037256768 0.024008464 -0.13241705 0.28533238
0000a0 5e 14 6f 3e 1e c7 33 be 72 f5 f7 3c 82 89 8c 3d
       0.23347613 -0.17556426 0.030268405 0.06862165
0000b0 20 cb 93 3c f0 38 89 bd 46 e9 68 bd 2a ec 10 be
       0.018041193 -0.06700313 -0.056863092 -0.1415259
0000c0 b0 be df 3d 08 95 0e 3e f3 9e 8b bd 3a f9 9f 3d
       0.10925043 0.13924038 -0.068174265 0.07811208
0000d0 ce 5e ad bd 40 da b4 bb 12 60 f0 3d a1 8e 69 be
       -0.08465348 -0.0055191815 0.11737074 -0.22808315
0000e0 bf d4 ba bd d1 6d 06 3e 64 b6 27 3d 46 a6 59 3e
       -0.09122609 0.13127829 0.040945426 0.21254835
0000f0 7a 73 ad 3d 88 0d c9 bc 4e 0f ca 3c 66 0a 5d be
       0.08469291 -0.024542585 0.024665501 -0.21585998

arr_2 f4 [32, 64]
000000 74 22 91 3d e0 e2 a9 3c 2a ed f4 3d 01 71 ee bc
       0.070866495 0.020738065 0.11959298 -0.029106619
000010 1e 20 9e bd 6f b2 98 3b 74 bb 57 3d 91 41 b9 3a
       -0.077209696 0.004659943 0.052669004 0.001413392
000020 bc 08 6e 3d 84 9c 03 be c5 ce b3 3d f4 a8 6e bd
       0.0581138 -0.12852675 0.087796725 -0.058266595
000030 26 e5 1f 3d b1 17 ee bc b2 0d 9b bd d8 65 60 3d
       0.039036892 -0.029064031 -0.075709715 0.054784626
000040 f7 bf f5 bd 19 a7 d7 bd f4 5f 3c bd b8 50 8e bd
       -0.11999505 -0.10529918 -0.045989946 -0.0694899
000050 4c fd 7d bd 12 f9 f2 bb f7 d5 cf 3c 6a 44 df bd
       -0.06200914 -0.0074149454 0.025370581 -0.10901721
000060 a6 a9 39 3d 1c b1 e3 bd 16 b6 00 3e 62 3d 95 bc
       0.045327805 -0.11117765 0.1256946 -0.018217746
000070 27 5f a4 3c d9 cd f4 bd 1e d2 02 be a6 f2 49 3d
       0.020064903 -0.11953325 -0.12775466 0.049303673
000080 b8 86 0b be cc 6a 5f bc de d8 3f 3c 33 52 e1 3d
       -0.1362561 -0.013636302 0.01170942 0.110020064
000090 0e c9 6f bd 18 95 48 bd 04 a8 bf bd d5 bc a8 3d
       -0.05854135 -0.048970312 -0.09358218 0.08239142
0000a0 e4 01 e9 bd d0 1f 68 3c 3a e6 3a bc 2d ec d3 3d
       -0.11377314 0.014167741 -0.011407429 0.10347781
0000b0 20 47 34 3d 8a 76 64 3d d0 bd 5e 3d f4 0a ff 3c
       0.044013143 0.05577711 0.054380238 0.031133153
0000c0 a7 fe 80 bd 19 66 81 3d e1 f1 ca 3a b6 5d 84 bd
       -0.06298571 0.06318302 0.0015483462 -0.064631864
0000d0 f6 9b 4c bd bf 35 7b bc b0 9d d3 3d 94 4b ba bd
       -0.049953423 -0.015332638 0.10332811 -0.09096447
0000e0 36 ec a2 3d 2a 36 5f bc de 62 0a be 12 28 35 3b
       0.0795521 -0.013623754 -0.13514277 0.0027642292
0000f0 07 58 b6 bd 17 9c e8 bc cc eb 62 3d e4 75 8a 3d
       -0.08903509 -0.028394742 0.055400655 0.06760767
000100 9f 7e ab 3d 20 57 ec bc 4a e6 3d bd 88 4f 7d 3d
       0.083737604 -0.028850138 -0.0463622 0.061843425
000110 47 05 c8 bd 46 46 0b 3c 5e 72 26 bd 7d b3 04 3e
       -0.097666316 0.008500641 -0.040636413 0.12959094
000120 93 38 b2 bc 24 46 cc 3d a0 80 b4 bd 3c 24 c0 3d
       -0.021755492 0.09974316 -0.08813596 0.09381911
000130 5c 06 4f bd 18 e0 fb bd 96 ea 7f bd e7 ba 9b 3d
       -0.050543174 -0.12298602 -0.062479578 0.07604008
000140 5f 70 fd 3c b1 2c b6 3d 44 01 67 3d a1 28 b7 bd
       0.030937372 0.08895243 0.05639769 -0.08943296
000150 14 c2 a9 3d ee 25 4b bd 0c 8b 88 bd 5f c9 85 3d
       0.082889706 -0.04959672 -0.06667146 0.06532549
000160 ce 81 5f 3d 76 d0 d6 3d fe c5 dd bd c6 7e 86 bc
       0.05456715 0.104889795 -0.1082878 -0.016417872
000170 ee ee 49 bd e1 4c 30 3d 8a 06 0b 3d 26 b2 6e bd
       -0.049300127 0.043042067 0.033941783 -0.058275364
000180 40 bb 51 bd a9 e7 05 be a0 df 43 bd 26 99 e0 3b
       -0.051203966 -0.13076653 -0.047820687 0.006854194
000190 d7 a5 9e 3c 5d 42 c1 bd a4 6d c8 3d 5e 17 a9 bd
       0.019366188 -0.09436486 0.09786537 -0.0825641
0001a0 5b 92 a0 bd 28 86 d1 3d dd 08 91 bc a3 99 96 3c
       -0.07840415 0.102306664 -0.017704422 0.018383807
0001b0 b2 43 67 3d 66 ef 2d bd b8 d1 d9 3b 20 20 5c 3d
       0.056461044 -0.042464636 0.006647315 0.053741574
0001c0 4a bb e4 bd 1d 01 b1 bd 16 f1 c3 3d 30 5b b5 3d
       -0.11168535 -0.086427905 0.09567468 0.08855283
0001d0 ef 4c ca bd 46 e3 f3 bd ac 74 32 bd 18 11 f6 bc
       -0.09877955 -0.11908583 -0.0435683 -0.030037448
0001e0 27 62 c6 3d cd 62 52 bd 9c b3 22 3a 3e 33 d5 bd
       0.0968669 -0.051363755 0.00062065735 -0.10410164
0001f0 2a 25 e1 3c e4 bb d1 bd ee 67 81 3d 22 f5 a2 3c
       0.027483542 -0.102409154 0.06318651 0.019892279
000200 a8 aa 17 3d 97 79 16 bb 1e a7 7d 3d f8 ba ab 3d
       0.037027985 -0.0022960657 0.061926953 0.08385271
000210 e4 f3 92 3d e6 fe 32 bd 94 3e 3f 3c be 2c a6 bd
       0.07175425 -0.04370012 0.011672635 -0.08114003
000220 db 68 84 bd de 27 e8 bd 72 b0 43 3d e2 07 4b bd
       -0.06465312 -0.11335729 0.047775693 -0.049568065
000230 1e 16 c3 3c ae 55 b9 ba b4 dd 77 3d 8e bc 81 bc
       0.023814257 -0.0014139914 0.060514167 -0.01583698
000240 51 7d 48 3c 68 50 73 bd f2 07 fe 3c b2 42 43 bd
       0.012236909 -0.059402853 0.031009648 -0.047671027
000250 95 2b 88 3c f0 06 2b bc 40 68 ff 3d 41 51 08 bd
       0.016622344 -0.010438666 0.12471056 -0.033280615
000260 04 c6 eb bc 3e 03 c5 3d 03 46 5b 3d b2 fb fd 3c
       -0.028780945 0.09619759 0.053533565 0.031003807
000270 10 53 81 bc 02 56 39 3d be a0 c9 bd b4 71 b3 bd
       -0.015786678 0.04524804 -0.09845112 -0.087619215
000280 bc 7f f3 bd f7 d4 2f bd 8e 99 a3 bd be f3 e3 3c
       -0.11889598 -0.04292771 -0.079882726 0.027826186
000290 98 31 90 3d 42 29 d8 bd 36 30 a5 3d c6 bf e0 bc
       0.07040709 -0.10554744 0.08065836 -0.027435195
0002a0 6e a3 a0 3d ae f5 0b be cf b8 ed 3d 47 b2 d9 3c
       0.07843672 -0.13667938 0.11607515 0.026574267
0002b0 d8 ff 2b bc 9a 19 90 3c 1d d5 19 3d 1a 9c 22 3e
       -0.01049801 0.017590333 0.037556756 0.1587986
0002c0 90 9a 10 bd b8 06 e5 3d 88 6a 2e 3d 15 c4 8f 3d
       -0.035303652 0.11182922 0.042582065 0.070198216
0002d0 2c ce 95 bd 18 f0 07 3d c5 23 5b 3d 71 88 05 3e
       -0.07314715 0.033187956 0.05350091 0.1304033
0002e0 e8 f6 7e 3d c4 6d f9 3d c6 8b 37 3c cf 3e f5 bd
       0.062247187 0.12179139 0.011202758 -0.119748704
0002f0 38 1a 2e 3b d7 c0 a8 3d 6b 7e 56 bd 7a a1 db 3c
       0.002656592 0.08239906 -0.052366655 0.026810396
000300 f8 a8 6e bd a6 02 56 3d 10 49 88 3d 03 94 7e bd
       -0.05826661 0.05224862 0.066545606 -0.062152874
000310 77 54 1f bd 3a f5 5d bc f4 b7 00 bd 36 f4 9b 3a
       -0.03889891 -0.013547236 -0.03142543 0.0011898342
000320 0a d8 a2 3d fc 48 7a bc 9d 65 df 3d 6c c6 d8 3d
       0.079513624 -0.01527619 0.10908053 0.10584721
000330 f0 6b 02 3e 8a f1 97 3d 83 f3 57 bd b2 89 1c 3d
       0.12736487 0.07419117 -0.052722465 0.038217254
000340 04 a5 8b bc d0 74 5b bd 9e bc e9 bd 45 85 41 3d
       -0.017046459 -0.053578198 -0.11412929 0.047246236
000350 1e 60 9b bc 68 4f 0e 3e bf f9 be bd 26 d2 65 bc
       -0.01896673 0.13897479 -0.09324979 -0.014027154
000360 4e b9 e6 bd f4 0c a7 3d 4b 09 fb bc ec a7 84 bd
       -0.11265813 0.081567675 -0.03064408 -0.06477341
000370 2f 68 b2 3d c3 bc 02 3c 1b 15 db bd 78 5b 97 3c
       0.08711278 0.007979575 -0.10697385 0.018476233
000380 d6 7a 00 be 76 e6 8c 3d af 84 2a 3c 46 5e e4 bd
       -0.12546858 0.068798944 0.010407611 -0.11150794
000390 62 8e 5c bd ee 00 18 3e a6 da 93 bd 8e e3 60 bd
       -0.053846724 0.14844105 -0.07219438 -0.054904513
0003a0 f6 bf 21 3d a6 67 c8 3d 54 f3 7e bc 34 78 07 be
       0.03948971 0.09785394 -0.015560944 -0.13229448
0003b0 03 e4 6c 3d b3 ea d9 bc 46 dd b1 3d 63 6c 30 3c
       0.057834636 -0.026601171 0.08684783 0.010768029
0003c0 d6 74 e6 bd cf 7c c9 3b ea 72 6a bd c0 b1 0a bd
       -0.112527534 0.0061489115 -0.057238497 -0.03386092
0003d0 66 d2 f0 3b 8c bb 8c 3d 46 3a 98 bd 89 ec 4d bb
       0.0073493 0.06871709 -0.0743299 -0.0031421504
0003e0 6c 03 d4 bd 76 4b 15 bd 93 9a 10 3d 38 9d 3d 3d
       -0.10352215 -0.03644892 0.035303663 0.046292514
0003f0 54 ae 64 bd 5a 1d 7b bd b7 a8 3e bd bc 3e 5a 3d
       -0.055830315 -0.06130729 -0.046547618 0.053282484

arr_3 f4 [32]
000000 26 b2 88 bd 4a cb e1 3c fe bf 4e 3d 0a 5b a8 bd
       -0.06674604 0.027562756 0.050476067 -0.08220489
000010 8a 78 2f 3e f8 46 14 3e 8e 19 5e 3e c4 97 eb bd
       0.17135826 0.14480197 0.21689436 -0.11503556
000020 5e 7e 62 3e 92 eb a2 bd c6 22 8e 3d ef 4e 36 bd
       0.22118518 -0.07955088 0.06940226 -0.04450887
000030 b9 15 0d 3e 71 f5 6b bd e2 c3 85 3c 68 aa ee 3d
       0.13777818 -0.057607118 0.016328756 0.11653596
000040 06 bd 6e 3e 02 9b 64 bd 17 b2 4e 3e 64 03 3a 3e
       0.23314294 -0.05581189 0.20185123 0.18165356
000050 fe e0 17 be 09 37 04 be 14 24 1c 3e 91 0f 03 be
       -0.14831921 -0.12911619 0.15248138 -0.12798907
000060 ec d2 a3 3d ec 1b 75 3e 54 5e 08 3e a5 08 7c 3d
       0.079992145 0.23936433 0.13317233 0.06153168
000070 d9 db d4 3d e2 ea ad bd 90 54 83 3e 96 c5 c4 bc
       0.10393495 -0.08492066 0.25650454 -0.024019998

arr_4 f4 [1, 32]
000000 d2 6e 1b 3d 54 d7 ae bd ee 85 03 3e b4 01 b5 bd
       0.037947483 -0.08537164 0.12844059 -0.088382155
000010 f3 93 33 3e 9e aa cc 3d 80 1c f8 3d 8a fd c1 bd
       0.17536907 0.0999348 0.12114811 -0.09472187
000020 78 38 13 3e ec 21 3f 3c fd 9f 05 3e c6 30 52 bd
       0.1437701 0.011665802 0.13049312 -0.051316045
000030 37 b7 7e 3d c6 8a 81 be 4b 2c 7b be c3 48 0d 3e
       0.062186446 -0.25301188 -0.24528615 0.13797288
000040 b6 c5 08 3e 3e 52 e2 bd 04 2d dc 3d 40 2b 21 3e
       0.1335667 -0.11050843 0.107507735 0.15739155
000050 0b f6 f9 bd 93 e0 35 be d6 fc 34 3e fc fe 94 be
       -0.12205132 -0.1776145 0.17674574 -0.29100788
000060 e6 6b 2a 3e 46 1b 11 3e 57 2a 89 3d 07 a8 a2 3d
       0.16642722 0.1417056 0.06697529 0.07942205
000070 e4 27 10 3e 30 19 43 be 48 8e 81 3e e4 d1 14 be
       0.14077717 -0.19052577 0.25303864 -0.14533192
