model_checkpoints/params_round_12.npz (npz, 26570 bytes, 6 tensors)

arr_0 f8 [64, 15]
0	0xbf4125f23c912ab0	-0.0005233223720407434
1	0xbfcea6e805d106de	-0.2394685772324498
2	0xbfd14b99b53e2a64	-0.27023928355689564
3	0x3fc4edc0fe7263a2	0.16350567268525845
4	0xbfc32831b8eb5034	-0.14966413048989724
5	0xbfaa4af37eb212e2	-0.05135308190896183
6	0x3f8971ae4b1592a9	0.012423860231771515
7	0xbfc2c6e5a30b7c9c	-0.14669485531974125
8	0x3f91656c6b24f274	0.016988462485857572
9	0xbfc5353b7a610b2e	-0.16568702197590696
10	0x3fbd3255b6ef2f20	0.11404929844064471
11	0xbfc8fff1b10a4216	-0.19531079430136405
12	0xbf9f36ef34d65224	-0.03048299560539837
13	0x3fb8a2e47582902d	0.09623554104706562
14	0xbfcd35f09bca63bc	-0.22820861441576124
15	0xbfd0e4298940b359	-0.2639259186133152
16	0x3fbfe2e62d7ef785	0.124555955989278
17	0xbfb464e3e35e8ab2	-0.07966446209915537
18	0x3fc008de44ee3137	0.12527063718551698
19	0x3fcac1c10eef17f8	0.2090379069251751
20	0x3fcd50ee3d79d6d4	0.22903230668787578
21	0xbfb6030bea448728	-0.08598398656297646
22	0x3fca9512d327f1fe	0.20767436323502858
23	0x3fc8c6df727b6e1a	0.1935691174502246
24	0x3fb87b55ee0c7e06	0.09563195287454826
25	0xbfc7302313133f62	-0.1811565249577099
26	0x3fc403cce6be594a	0.15636597887778186
27	0xbfccf44e4cb9faf6	-0.22620562311563902
28	0xbf75b4c5f2fea8ec	-0.005299351920181144
29	0xbfcb99e06fab61aa	-0.2156334443341284
30	0x3fc25126c73ce9ab	0.14310154655852378
31	0xbfc880a220e1e0aa	-0.19142557721693737
32	0x3fc6230bbbda0091	0.1729445140117645
33	0x3fc845683d7251cc	0.1896181392700228
34	0xbf930120fd81a2cf	-0.018558993790437846
35	0x3f711014fb287dc2	0.004165727574700852
36	0x3fb7a2046972676c	0.09231593679797151
37	0xbfd10f91dc81edc6	-0.26657530340136437
38	0x3fd14fed43132e3d	0.27050334501538825
39	0x3fb48ad9df87f2d4	0.08024369914341928
40	0x3fb82a1cb6967def	0.09439258058272747
41	0x3fd37d7326b71560	0.3045318487241584
42	0x3fcbbc8703ff1cfc	0.21669089980262146
43	0xbfb5a70f603fd27f	-0.08458038425289692
44	0x3fa1b12c07652a29	0.034554839995127935
45	0x3fa0a9094e576478	0.03253964501681933
46	0x3fc99190a7d72256	0.199754793122582
47	0x3faf6136eeaf85c2	0.06128856338160517
48	0x3fc219659bbbc112	0.14140005211039203
49	0xbf8545d8f19d5b7f	-0.010387129662985604
50	0xbf91cc0fbef687b8	-0.017379995375115448
51	0x3fa7ccccbeef9360	0.046484373385999644
52	0xbfad9b244a78f850	-0.057824262705694296
53	0x3fb76b38966b230e	0.09147981331183194
54	0xbfae42bbdd8e5e70	-0.059102888865877
55	0xbfc1f0d22217c6aa	-0.14016176857653778
56	0x3fcc1162ecb40f50	0.21928059156209168
57	0x3f7b0844a64a92ce	0.0065996820091284835
58	0x3fcbfc60f5729143	0.2186394880747092
59	0xbf955e3bf686c5ad	-0.020867287561207416
60	0xbfcee67e785844a8	-0.24140911937914677
61	0xbfc9d4c90f023db3	-0.2018061946186954
62	0xbfd0b7af88999fb0	-0.261211284063843
63	0x3fb40a8031324226	0.07828522873956753
64	0x3fb587ae7bd5ac15	0.08410158656413132
65	0xbfc7fd70c79c4442	-0.1874218916568982
66	0x3fb55d71191000ab	0.0834570585429925
67	0x3fcc73717ca4bbfe	0.2222730501757439
68	0xbfba1aafbbcdb14b	-0.10196970305486734
69	0x3fc2980f644ead26	0.14526550672358346
70	0x3fb846ddf4d77d2c	0.09483134486753347
71	0xbfa803873ba51344	-0.04690191844068761
72	0x3fbfec483da8c9c2	0.12469913010935499
73	0xbfc71e671ceb6602	-0.1806153193672771
74	0xbfc3b08b9fb31a29	-0.15382523820717722
75	0xbfcd006a10dd7fd8	-0.22657514403817802
76	0xbfd0d7bc76ba4ba4	-0.2631674918604239
77	0x3fbf3af5c12bdd0e	0.12199340787980281
78	0x3f9730a8c89e7361	0.022646558041390267
79	0xbfca340af36cbb8c	-0.20471321950887178
80	0x3fd114c46fcad21d	0.2668925372811673
81	0x3f7dfc0475f0df93	0.0073204206701617145
82	0xbfce0a21fe2cc29c	-0.23468422804719047
83	0x3fc2b0531a5f9990	0.1460060004021213
84	0xbf9c3b7c945b7e9c	-0.027570673518197183
85	0xbfce8b2ec8466810	-0.23862252024702046
86	0x3fafcc539021d43d	0.062105761856323195
87	0x3fcc90d8609a1178	0.22317032544027504
88	0xbfa9f7e6d0813c66	-0.05071946425652456
89	0xbfcb2acb964af6b6	-0.2122435077525801
90	0xbfc942a847f5dba2	-0.19734672082605892
91	0xbfd19da9e6635b70	-0.27524802683676963
92	0xbf91069176fe7d27	-0.016626618278334917
93	0xbfbcdc5729ac513a	-0.11273712890062351
94	0x3f920bdab14269a0	0.017623345440918592
95	0x3f9f07d191efcad2	0.03030326321818217
96	0xbfba71678d7a0e22	-0.10329291538260368
97	0xbfc7f4f0e0dd76da	-0.1871625040029617
98	0xbfcc25551a6bd8fa	-0.21988929548360386
99	0x3fafdf3a2e4e8d16	0.06224996390599295
100	0xbfc451b92563abaa	-0.15874399495745922
101	0x3f9638f49e43a748	0.021701643142399335
102	0xbfc76fb92c5ba320	-0.18309702554622564
103	0xbfb43f3710cee2d1	-0.07908958587985217
104	0xbf83e2d6be3493bf	-0.009710004500968481
105	0x3fc77fe28f7479e2	0.18359024052274636
106	0xbfcbe946c318652a	-0.21805653120171914
107	0xbfbe8943d139f1c2	-0.11928199632706707
108	0xbfc6bb1a12e2309c	-0.1775848953442435
109	0xbfcddefb80e756e2	-0.2333673839008759
110	0xbfc63600b3754c08	-0.17352303278548242
111	0x3f9eef629d4c2f99	0.03021005711620681
112	0xbfcd1a902ad78c91	-0.22737314311880089
113	0x3fca463c2c1ac2fa	0.2052684035638988
114	0x3fc8cbc1418eb491	0.19371810627982147
115	0x3fc8fb0b888dd079	0.19516128699945393
116	0xbfc4ce50ff3908eb	-0.1625462766842881
117	0xbfcde20733cd738b	-0.23346033124371632
118	0x3fb1f736d686dcfa	0.07017843949767047
119	0xbfbe3c11adabee3c	-0.1181040810587825
120	0xbfc625c8bf522fe6	-0.1730280813393385
121	0x3fb1036949f80fd2	0.0664583020771368
122	0xbfae5f2c0be9272a	-0.05931985516924805
123	0x3fbd75a713161ef0	0.11507648673989102
124	0xbfcfd68220e437a0	-0.24873377424267762
125	0xbfcb84084165db73	-0.2149668044400773
126	0xbfb09d2b3ce41e73	-0.06489820705984943
127	0xbfce81dd357aa2d6	-0.23833813773423768
128	0x3fa72db674bae14b	0.04527063536574135
129	0x3fbc4c5aa269a0b7	0.11054007020141197
130	0x3fc0f7f4a6298350	0.13256700623881068
131	0x3fc917c7f8b6f36e	0.1960382427622806
132	0x3fb5f43364f3a528	0.08575745787279188
133	0x3fc1d87599818d04	0.139418315843706
134	0xbfa8a7ed0ba9fc26	-0.04815617339499338
135	0x3fb1cf8dbfe9d7b0	0.06957326827418231
136	0x3fcc3e00a7838aab	0.2206421678484579
137	0x3fc92bd90ed21e78	0.1966506311766698
138	0xbf9338d0c41b1b8c	-0.018771421403268415
139	0xbfcae1dc74a2285c	-0.21001773543349855
140	0x3fb141a661f045d2	0.06740798846319443
141	0x3fcfff883207c4b5	0.24998571818244888
142	0xbfcc56918227b958	-0.22139185767395975
143	0xbfb02febd67f48ef	-0.0632312201189824
144	0x3fa870340c9f6e56	0.04773104337774885
145	0x3fa699bb8f5ba980	0.04414163708664187
146	0xbfc967a32287f3e8	-0.19847525774085217
147	0x3fbe78e341a03654	0.11903210022156802
148	0xbfc19cccb31e4044	-0.1375976442909651
149	0xbfcbe8a503ec1d14	-0.21803724948424785
150	0x3fb3999bc4c9b710	0.07656262926476765
151	0xbf9b134b8f8de268	-0.0264407926910927
152	0x3fc751d1aadc3002	0.18218441813257874
153	0x3fb51601b4974f02	0.08236704501115003
154	0x3fcd8e3ed23d8302	0.2309034849704617
155	0xbf42fbb8e24b0ef4	-0.000579324031229038
156	0x3fc01c8b72f8d7fe	0.1258711158167784
157	0x3fb5cd9fc71b7cd8	0.08516882525462977
158	0x3fb98c3d9f36ec16	0.0997961534221051
159	0x3fc7218c31d631d4	0.18071129258568297
160	0x3fa23197babb7937	0.03553461222121473
161	0x3fb2c4a9e5320e38	0.07331334920495969
162	0xbfc7c82f22ceb48e	-0.1857966346700874
163	0xbfbeeda3a5c520db	-0.12081358716125427
164	0xbfb164981d332af2	-0.06794119561088133
165	0x3fb9fc5cf94eacda	0.10150700651745428
166	0x3fca2d4b931022a5	0.20450730019390054
167	0x3fac100bc0c74f15	0.054809920580423256
168	0xbfce12c9a1467c48	-0.2349483525731293
169	0xbfb94dd80a071fb0	-0.09884405369586946
170	0x3fc3628c65ed412c	0.1514449594201407
171	0x3fc22e8641e285ec	0.14204481331857666
172	0xbfc3899f1f766a8c	-0.1526373771310613
173	0x3fa43351313f24cf	0.03945401884227239
174	0x3fc356fd1d208d18	0.15109218523239387
175	0xbfb25372ed96ae25	-0.07158582973959733
176	0xbfcab48e7053ebd6	-0.20863514408833223
177	0x3f965b16fcd22298	0.021831854992827887
178	0x3fc483708638dcc4	0.16026121667684923
179	0x3fbbb6f50f22c55e	0.10826045627142863
180	0xbfc15550989d2566	-0.1354161019501518
181	0xbfc9e4a4d470c36a	-0.20229015706129455
182	0x3fc149e6120ecb92	0.13506770974853716
183	0x3fcb25f6a9831c20	0.2120960548110995
184	0x3fc986c8a2e5a8c2	0.19942577318153637
185	0x3fb9dce28cbf4180	0.10102668701370554
186	0xbfc350afc4b0bf17	-0.1508998594667836
187	0xbfcdb4bc92c548b0	-0.23207814375434088
188	0xbfc615970975362a	-0.17253387414750537
189	0x3fab252ffa1d5674	0.05301809242398017
190	0xbfd20c91453fe6f3	-0.282017057062702
191	0xbfbe0f5aa4c6e58c	-0.11742178461908831
192	0xbfc4061a56408439	-0.15643624507450385
193	0xbfb3c83ea381553f	-0.07727424136949866
194	0x3fc54c7362b2383a	0.16639559096478412
195	0xbfc8d592d1d2a6b0	-0.19401774640328062
196	0x3fc76e2d730e88f3	0.18304985158926676
197	0x3fb489316c036284	0.08021839987794449
198	0x3fb2b8a0a14a4ce5	0.07312969148397348
199	0xbfd0f442a80d840a	-0.26490847026258335
200	0x3fcb31bc23ead79b	0.2124552893998811
201	0xbfb86aafd0298af4	-0.09537791092001752
202	0x3fcb846c3bf84a5f	0.21497872284142525
203	0x3fbf94a499c2b19d	0.12336186174315462
204	0x3fbad6afa3ce4b94	0.10483834981123002
205	0xbf9b85dddd053f36	-0.026877848258038038
206	0x3fb4b1eead7b8b0e	0.08084003196158226
207	0x3fc5d5dc55c2aa8c	0.17058901011963135
208	0xbfbf3f47b72c1b10	-0.12205932828883825
209	0x3fc1508541df8b98	0.13526979176012044
210	0xbfcfb8009c2c46fd	-0.24780280709870076
211	0x3fb5a0a3134aeac4	0.08448237629901728
212	0x3fb18fc09c1a44bc	0.06859973727320584
213	0x3fb399944a1f0982	0.076562183471685
214	0x3fc099eec7004e8a	0.1296976539311923
215	0xbfb847b26ac19618	-0.09484400850632146
216	0x3fc309389685d6e1	0.14871890401598534
217	0x3fce1e31c84a5c62	0.23529646186645709
218	0xbfc85f12e539df1e	-0.19040142243078945
219	0xbfd102164e5c32ae	-0.2657523884998153
220	0xbf901f00f1a7650a	-0.0157432696813418
221	0xbfcfaf46276fbd81	-0.2475364391861881
222	0x3facaf1cc8e69d1d	0.05602350189593095
223	0xbfca51c0d3a8434a	-0.2056199105723187
224	0xbfa5510beed2afaa	-0.041633961585233095
225	0x3fb93197590833a4	0.09841295169481029
226	0xbfc7b590c1b72912	-0.18522843798411565
227	0x3fccda9c60638d53	0.22542147356498762
228	0xbfb034d54247db80	-0.06330616825276358
229	0xbfb656883a403f1e	-0.08725787565367368
230	0xbfab622a23f4acc8	-0.05348331154740432
231	0xbfc7d2dc7f6dd96e	-0.18612247678874944
232	0x3fced3f281317707	0.24084311779272857
233	0x3fbfe5810d877cc0	0.12459570484451188
234	0xbf9110243a11172c	-0.016663137477983245
235	0xbfca2ef44f3faa18	-0.204557932563447
236	0x3fc2aff6d016f287	0.14599499855639328
237	0x3fce78279abe7baf	0.23804183059561754
238	0x3fb4dbee8d48a8e8	0.08148089360534849
239	0x3faca5c99c123f20	0.05595235853354397
240	0xbfbe3caffed61318	-0.11811351749026888
241	0x3fb2090164b64d9b	0.07044991215507539
242	0x3fa00afc2b6308a7	0.031333809181448395
243	0x3fc750d7635d7d26	0.1821545825177761
244	0xbfbf1c017650e958	-0.1215210832459993
245	0xbfc9ac51920b9b36	-0.20057124739761328
246	0x3fc255d619f9fcd8	0.14324451702484597
247	0xbf9b0d0da2a6f954	-0.02641698174715519
248	0xbfc12a336e221c10	-0.13410036923980373
249	0xbfc4aae7b95de718	-0.16146561194528242
250	0xbfcaf66ea7f7ed5c	-0.2106455154570125
251	0x3fb5243a6ca1722a	0.08258404876819073
252	0xbfc5bfb506d5bab6	-0.16991293748602282
253	0x3fcb40f41aa0e47a	0.2129197244665056
254	0x3fcbca916519a7bb	0.2171193832066914
255	0x3fc549e3c195ae12	0.16631743385674774

arr_1 f8 [64]
0	0xbfbc22b0f66cb9ce	-0.10990434662082935
1	0x3fba2bc5add417c4	0.10223041051730691
2	0xbfbb44e4ac6bfbfc	-0.10651997766034066
3	0x3fac05c366e324f8	0.054731470403177995
4	0xbfb5723370add748	-0.08377381802514805
5	0xbfd0f98a6284d17e	-0.2652307474229686
6	0xbf8fa62ca4c22990	-0.015453671243695039
7	0xbf98a6e1176171b7	-0.024074093868294812
8	0x3fd0994b49c77308	0.25935632901182304
9	0x3fcd8e987be56d64	0.2309141735994259
10	0xbfd218accf0d96a8	-0.2827560445788131
11	0x3fa3b8aac1d48602	0.038518272553357505
12	0xbf2d5a14134514b0	-0.00022393698749049095
13	0xbfb4332074ac9d5b	-0.0789051327561671
14	0x3fc4e4c8640718ce	0.16323189624944806
15	0x3fbd6e6357ee4700	0.11496563812968574
16	0xbf863b0b740a5966	-0.010854806402943406
17	0x3f901bc3cc4341d6	0.015730914442260012
18	0xbfb3042cad4d56ab	-0.07428244811066047
19	0xbfc2c6d57acfb319	-0.14669292923590474
20	0xbfb0f7d3bd9c0601	-0.06628154162537926
21	0x3fadcf39669ad3be	0.0582216203451149
22	0x3fc2576058cdb39c	0.1432915147410342
23	0x3fc3fd990c5509cb	0.1561766920295454
24	0xbfcb66d91be2ea5f	-0.2140761743701942
25	0x3fc8900509546bce	0.19189513164096045
26	0x3fce54c45633ad10	0.2369618817241208
27	0xbfce066286030b61	-0.2345698503832763
28	0xbfaf055e007c7ecc	-0.0605878234475746
29	0x3f9bdb32e14359e4	0.027203364371269148
30	0x3fa85ed5fa2091de	0.04759854009924756
31	0xbfa2f99cba59c372	-0.037060640094643285
32	0xbfc7feb88b82febb	-0.18746096431822487
33	0xbf92d20bcf11dcf0	-0.018379387391601776
34	0xbfcaf3e890b0fd1e	-0.2105684954167168
35	0x3faea6a895dec980	0.05986525372954343
36	0x3fbf11f343917eda	0.12136764907472344
37	0xbfa5bffd914ad69b	-0.04248039625728702
38	0xbfa157c156e00ade	-0.03387264428603996
39	0xbfca6d5dc5f98ad8	-0.20646259466874173
40	0xbfc9b9d6c6b0a930	-0.20098385526336804
41	0x3fca085ffd6cb4f6	0.20338058351754967
42	0xbfb8a35388d25b93	-0.09624216165899062
43	0xbfad02ff3248971a	-0.05666348923504767
44	0x3fb53c4175880905	0.08295067901056903
45	0xbfc69b2833c325d8	-0.1766100170846545
46	0xbfcf95acf60f160a	-0.24675523771854585
47	0xbf9abb42ca1905fe	-0.026104968628947837
48	0xbfbb3bfe80d372d6	-0.1063841881290942
49	0x3fbbafc8880f3582	0.10815099069369263
50	0x3fb14e6697618427	0.06760255046675977
51	0x3fb79de47f923659	0.09225299944429234
52	0x3fc5e05888fdf8ea	0.1709089917093885
53	0x3fa2a11867c514de	0.036385309855669
54	0x3fcc29833b00aee5	0.2200168645953148
55	0xbfa854814f49622f	-0.0475197228703944
56	0xbfcd187c3d171e37	-0.22730973227429427
57	0xbfa4da08c4a15a4b	-0.040725969317169396
58	0x3fac51ecbe4114cb	0.05531253645362141
59	0x3fa0809756d6eef0	0.03223107276013859
60	0xbfbfa2619d55cb76	-0.12357149211110915
61	0x3fcf9d6be633dd2c	0.246991622356043
62	0xbfa32cf87ae40945	-0.03745247364169527
63	0x3fc73dc0e2767676	0.18157206590415215

arr_2 f8 [32, 64]
0	0xbf9e7306b8d2ee20	-0.029735665350683615
1	0x3f93c4874ef8068e	0.019304384417415714
2	0x3faf3658fafaf32c	0.06096151412700687
3	0xbf94f69bd914fbe0	-0.020471987843162398
4	0xbfa3bd283ab503fc	-0.03855252949370677
5	0xbfb039c2088df146	-0.06338131626939
6	0x3fbc67bf47af9c42	0.11095805645128201
7	0xbf933f84eaa19a37	-0.01879699403834875
8	0xbf9e52c90d818dc2	-0.029612676095337916
9	0x3faa7331ff74e1e2	0.051660120423949754
10	0x3fa8a8c7f49f65a0	0.04816269742122903
11	0xbfc0d00e7798a32c	-0.1313493808713927
12	0xbfb35424d7becc53	-0.0755026842805802
13	0xbfa21399725f7250	-0.035305781566169814
14	0x3fbc58f3cd6bef8c	0.11073230519462934
15	0x3fb9f731f16dbc26	0.10142814773801997
16	0xbfb81b33c83db49e	-0.09416507376382063
17	0xbfb5d2575144340d	-0.08524080022853316
18	0x3fb38e078ec8de1e	0.07638594852402789
19	0x3fa7747731b9e600	0.04581043703087673
20	0xbf9c2d650243e300	-0.027516916526084678
21	0xbf97b94103afd4bb	-0.023167625284220544
22	0x3fb639df2345d5bd	0.08682055102493443
23	0x3fa863f9780cea64	0.047637744812580235
24	0x3fb2565ef557691c	0.07163041581899104
25	0x3fbffd9b996b4532	0.12496349807340293
26	0x3f72d2fdfaa52d27	0.00459574900225882
27	0xbf5b5efd097a3158	-0.0016705962242751973
28	0x3fb6d6027d630f32	0.08920302926258897
29	0xbfb69299cb0c3bbe	-0.08817444998952248
30	0xbfab07dc495231c4	-0.05279434580834022
31	0xbf93c5d361b008c9	-0.019309332692508705
32	0xbfb5ac5855139ede	-0.08466102673593975
33	0xbfb98fbf04cbcee7	-0.09984964243977466
34	0xbfa3c0342253e0cb	-0.038575772467028445
35	0xbfbea1b6b6ab4008	-0.11965505561533984
36	0x3fad373068f85ec2	0.057061684430832496
37	0x3fc0ab991e6054aa	0.13023675902573945
38	0x3fc2581fc7b30bc8	0.14331433535525506
39	0xbf99a2566bf96e0d	-0.02503333124182743
40	0x3fb9367ff91a85f0	0.09848785239821445
41	0x3fb5a6b15e22b8b7	0.0845747809241598
42	0x3f4d0ee45c0917b8	0.0008867850338638494
43	0x3fa095188df6b959	0.032387511567651024
44	0x3faec3f67f178918	0.06008882810034971
45	0xbf5154a4d6eec306	-0.0010577783357172423
46	0x3f2cb661fc954aca	0.0002190584766973063
47	0x3fbd58a181bde148	0.11463364999315673
48	0x3fb3d37c246eaab7	0.07744575395069374
49	0xbf943a0bc533b3e1	-0.019752677832844404
50	0xbfb25b214f7603dc	-0.07170303525892002
51	0xbfc12a6381ea1c68	-0.13410610049706695
52	0xbfb52dbd2424a6da	-0.0827291692009128
53	0xbfbc704bf5acde3c	-0.11108851192408847
54	0x3fba77ef89c166b2	0.10339257348223432
55	0xbfb8102cbb4ed501	-0.09399680684039781
56	0xbfba63a0cbd1516d	-0.1030827043153459
57	0xbfc098a64e83242e	-0.12965849717719052
58	0x3fbe6167d7ea35f2	0.11867379208907616
59	0xbfbbb62c0394dd44	-0.10824847304762836
60	0xbfb875d6ccf03542	-0.09554808143021368
61	0xbf9c9f16ef213f62	-0.027950628609971225
62	0x3fa7a678e0951b87	0.046191956915712366
63	0x3fbeb2fac0eb246e	0.11991851053166311
64	0xbfaf30f5f35210ed	-0.06092041583272754
65	0xbfb79a210cbea02b	-0.09219557343624334
66	0x3fb0e96905ab7bc6	0.06606155765938046
67	0x3fa5ae58d5e1780a	0.04234578715180255
68	0x3fbdae7d36346e9a	0.11594374249801334
69	0xbfc05a65a23a4aeb	-0.12775869771265688
70	0x3fc7ea013fb92df2	0.18682876216404015
71	0xbfa3f48bf4b58f0a	-0.038975118276338774
72	0x3f89f4cb3bb1d5e6	0.012673938521610983
73	0xbfb073e14266f2d3	-0.06426818724771559
74	0x3fbe008e94654118	0.11719599841058359
75	0xbfb49c1b22f29118	-0.08050698855601401
76	0xbfc30569a090bf94	-0.14860267963512952
77	0xbf91ac8e693157a9	-0.01725981251760059
78	0x3fac308e53e8f696	0.055057952635690174
79	0x3facb625cdb4ed56	0.056077176438032936
80	0xbfaec55afd439e74	-0.06009945241549711
81	0x3fc006de07bafbfa	0.12520957353078171
82	0x3fc09e4bd7cee1ac	0.1298308185339584
83	0xbfb361a6f3a7be6d	-0.07570880364050377
84	0xbf8ea23d5ec9dc8c	-0.014957885222641097
85	0xbfb61a04f7ac724c	-0.08633452460021224
86	0xbf91ed832a55d1c2	-0.017507600268304342
87	0x3fb89d486aba4f68	0.09614994626673268
88	0xbfaad701de272ef4	-0.052421625488561135
89	0xbfc121a21cba14f6	-0.13383890536002924
90	0xbfb28fbac33a24ea	-0.07250563875472307
91	0xbfb525ab6031720e	-0.08260603998628133
92	0xbf8aa1a675d2cd87	-0.013003635855375574
93	0xbfb8aacaa542e119	-0.09635607275675219
94	0xbfb62c528b65bd56	-0.08661380675561267
95	0xbfbe4a92f2e359ac	-0.11832540922055185
96	0x3fb16bb67019e70c	0.06804981457562692
97	0x3fb6fee153239f1d	0.08982666282429048
98	0xbfb1da8606912e95	-0.06974065456705099
99	0x3fae68ac6fe12066	0.05939234605517711
100	0xbfa2af7566a76c22	-0.03649489286518583
101	0x3f9e7026008f3604	0.029724687370437777
102	0x3fb5c305e130dc36	0.08500706432174429
103	0x3f8774922e710bca	0.01145281032780145
104	0x3fc21bd527a1209d	0.14147438464192855
105	0xbfb9a23491bbe7fc	-0.10013130720099633
106	0xbfb36d373a525cbe	-0.07588524984236053
107	0xbfbc7c7428987ba4	-0.11127401343445215
108	0xbf8a15e7f2c7d3d4	-0.012737094971251674
109	0x3f9cf4aca7bb6dc6	0.02827710889583359
110	0x3fc45155440938a2	0.15873208829947766
111	0x3fad3e1526645fad	0.05711427777913456
112	0xbfa64f67248f5d52	-0.04357454606332091
113	0xbfbf3ebd03fdfb82	-0.12205106112922517
114	0x3fa38002ba086e59	0.03808601876172863
115	0xbfb6603c893ec3ac	-0.08740595198356854
116	0x3fb6994f0aaaa2c6	0.08827680597699858
117	0x3f96621639d2a5d4	0.021858546523309944
118	0xbfb8fe4bd082ab46	-0.09763025131784983
119	0xbfb6e46a6e6861aa	-0.08942284770490141
120	0xbfa5d259d4eec39c	-0.042620475046880574
121	0x3fbb278f73b171c6	0.10607239317454917
122	0x3f98cef6717c1ae6	0.024226999928056346
123	0xbfb56d795e466ee7	-0.08370169211996946
124	0xbfb6f523f3d902e2	-0.08967804625809664
125	0x3faaab098c933590	0.0520861610508333
126	0xbfa7c7aa23666b54	-0.046445195027635805
127	0xbf71c972c728249a	-0.004342506743804675
128	0x3fbcda7b937c972c	0.1127087817263514
129	0xbfa43dc6e3bc82ca	-0.0395338204382419
130	0xbfaebd74edf351a4	-0.060039190336883125
131	0x3fb8ce7968ff3960	0.09690054715540475
132	0x3fa4a80220e61dd2	0.040344301715829936
133	0xbf9c848f0d8ba455	-0.02784942169356371
134	0x3fb17d24938fe2c8	0.06831577875699246
135	0xbfbc832bee39e3dc	-0.11137651983325675
136	0xbfbf71fefeaf4a22	-0.12283319204224388
137	0xbfc3b9d5dfa66ff6	-0.15410874767701416
138	0x3fac69dd972cbeaf	0.05549519033809013
139	0x3f9e72d03bea119c	0.029734853417282645
140	0x3fa39a8728792a8e	0.038288329783047734
141	0xbf6b89f9d6ba45d8	-0.0033616904891651082
142	0xbfb518b6f173fd7c	-0.08240836520052669
143	0x3f2a30d9c5aa8400	0.00019982012130007054
144	0xbfb3415681afd853	-0.07521572748359633
145	0xbfb96f2058cb71c2	-0.09935190360869853
146	0xbfb90bd0733c9d21	-0.09783652127645272
147	0xbf958de83398359e	-0.021049144887049225
148	0x3fbd731591b7b4c0	0.1150372963672508
149	0x3fb69108e8fa8fa5	0.08815055549581403
150	0x3fc1b13d61e7eb80	0.13822142868579235
151	0x3facd902b4950265	0.05634315924044556
152	0x3fa1212724237206	0.03345606151717466
153	0xbfc2358671fec9d2	-0.1422584587686076
154	0x3fbabeb20419b6c2	0.10447228050335425
155	0x3fbe95088a10faa7	0.11946156855354194
156	0xbfa2c178f56a823a	-0.03663232799340617
157	0xbf96eb8d2f9afeb5	-0.022382932692152042
158	0xbf539292b8d7ee56	-0.0011946137268513866
159	0xbfa8959aea2a0774	-0.04801639660310189
160	0xbf90c0f4d7bcaf50	-0.016361070315880355
161	0xbfb0b39913e87cb3	-0.06524044738806616
162	0xbfb1d0e7d1579d0c	-0.06959389553923162
163	0xbf6769090e871bce	-0.0028577019586210955
164	0xbfb3e0bb280bc4b7	-0.07764787414250206
165	0xbf9a8816573fc474	-0.02590975673223679
166	0x3fac58f3e3fcd7ff	0.05536615522434828
167	0xbfa9389c6d95e432	-0.04926003301347527
168	0xbf86f044dda0ad0e	-0.011200464261568868
169	0xbfb4ba95af7ca378	-0.08097205671641727
170	0xbfbe02d8fdb51da2	-0.11723095125227315
171	0x3f97faf7d029d7b1	0.023418304519928494
172	0xbfab62b0da9f4e20	-0.0534873263237865
173	0x3f98f00d47ce25f4	0.02435322523846213
174	0xbfb8c235a98761c5	-0.096713403595806
175	0x3f9ffd89bb925640	0.031240608285392435
176	0xbfa37894092e6192	-0.03802931415629297
177	0xbfbb45e38b5c371a	-0.10653516914700525
178	0x3f96832a29629980	0.02198472859950007
179	0x3fabf022cd382c5a	0.05456646685714679
180	0x3fc57bda0da4dde1	0.1678421560879846
181	0x3fb67dfdc922fcb0	0.0878599754387206
182	0xbfb98f118eb3c9e0	-0.09983930334036684
183	0xbfb9a0cd502aca28	-0.10010989386754743
184	0x3f9da61533a81930	0.028953868177290676
185	0xbfac70592a3fc3a0	-0.055544649512632605
186	0x3fbf9e4e337a1890	0.12350929981957592
187	0xbfb9352e2e46401a	-0.09846771840807414
188	0xbfb9646a5c139708	-0.09918846843683238
189	0xbfa221c24ad0860a	-0.03541381037963383
190	0x3fc469bc8a4b6c37	0.1594768214480113
191	0xbf864efaac6d355c	-0.010892828356783006
192	0x3fc0c69ff0057c2d	0.1310615465144748
193	0xbfaedb8256bc3e8c	-0.060268471801575435
194	0xbf839891562ce9c6	-0.00956834358440951
195	0x3f95c5854fbc0c68	0.02126129435692939
196	0x3fc1fef0bf2e19e6	0.1405926640984056
197	0xbfb032d6aa86a613	-0.06327573455077866
198	0x3fbb9c69b6da2523	0.10785542215503034
199	0x3f84389e0bd4a96c	0.009873614059490797
200	0xbfa749e79c1ec541	-0.045485723312035826
201	0x3f419975d7f41c19	0.0005370927246141104
202	0xbfabe23b5556b512	-0.05446038643581565
203	0x3fa243602130c169	0.03567028432042003
204	0x3fb6370a1439cf46	0.08677733415407571
205	0xbfc09187cdc3fc84	-0.12944123789927542
206	0x3f8d12451863cbde	0.014195003325289276
207	0xbfac3e12927ab231	-0.055161075955173174
208	0xbf8ed10820aed006	-0.015047133920099053
209	0x3fb730a33d058d0a	0.0905859016398162
210	0xbf9e752a07dfd2ca	-0.02974382088719344
211	0xbfbcdb5a5afe9323	-0.1127220604090096
212	0x3fa9661d88f6eae0	0.04960720345430558
213	0x3f9762b02513f6f2	0.022837402594624252
214	0x3fb66092abbc582e	0.08741108601347555
215	0xbfb60b179a1572ce	-0.08610675346194371
216	0xbfba851556a771f0	-0.10359319081857854
217	0x3fb59c2aee2d8993	0.08441417994393978
218	0xbfabc57323e5daaf	-0.0542407971687927
219	0xbfc281dbcb0bd75a	-0.144587968963317
220	0xbfc4eb374221f37a	-0.1634282181657019
221	0xbfa229202d448b80	-0.03547001411995776
222	0xbfae8d744d839696	-0.0596729607221224
223	0x3fbca51753c1b010	0.11189409060324373
224	0x3fb0031dffa40ceb	0.06254756442290314
225	0xbfa075d85232889c	-0.03214908603082842
226	0xbfa8b81294c192aa	-0.048279362353047375
227	0xbf62061aaa39189b	-0.0022001763152586624
228	0x3fb0eef86ae0e1dc	0.06614639863335675
229	0xbfb961e772e7b4ba	-0.09915014796543434
230	0xbfb0806afd0d5248	-0.06445950201061479
231	0xbfab7edbde07d904	-0.05370223126731058
232	0xbfa3bdc4610c6bf7	-0.03855718311952921
233	0xbfba62d956230876	-0.10307081559133899
234	0x3f62c22d1cdda6e0	0.0022898560627496595
235	0x3fab14e39f84b213	0.05289374658818615
236	0x3fb60f720ffaf048	0.08617318048612888
237	0xbf5e76bf0daecaec	-0.0018593660122234136
238	0xbfb90a496151a914	-0.0978132116885358
239	0xbfa128415ad485d7	-0.03351024850622835
240	0xbf74bdb513f5ae27	-0.005063731513796499
241	0xbfa81acde25c38d4	-0.047079500085702414
242	0xbfbce8d42ba9ec9c	-0.11292768541345527
243	0x3fbca3942cc25978	0.11187101452592241
244	0xbfb354425fcf701e	-0.07550444449538005
245	0xbfb253952526974c	-0.07158786923409116
246	0x3fb9d1675d19f702	0.10085149786933914
247	0xbfb377cff585ae4b	-0.07604694122499571
248	0xbfa1530353e81a20	-0.03383646392108042
249	0xbfabf66d3fa9a632	-0.05461446191914056
250	0xbf9ad0a76dced5a4	-0.02618657691683314
251	0xbfadc02d4bedc5ce	-0.05810681869378308
252	0x3f98478e8a3006d8	0.023710467514326122
253	0xbf71c6d294743faa	-0.004340002610902541
254	0xbf6c2cc27401a0d5	-0.003439311782177249
255	0x3f9e0b4996fa49ac	0.029339933242747016

arr_3 f8 [32]
0	0x3fa5afbd7cac8d4c	0.04235641619586747
1	0xbfa2222ac1672b9a	-0.035416923626676325
2	0xbf9788224a4a2e04	-0.02298024729183902
3	0x3fb4340724587a3e	0.07891888272613642
4	0x3f646a29280ea075	0.0024920276486746725
5	0xbf96c2aecab3337e	-0.022227030870272106
6	0xbfa1b9b9cbc07154	-0.03462010013774611
7	0x3f937b606a11084a	0.019025331949031256
8	0x3fad0abe66286814	0.05672259327930376
9	0xbfb2329e1ca004ef	-0.07108486365179421
10	0x3fb98ad013082098	0.09977436508791226
11	0xbfbb0f38da342703	-0.10570102050055756
12	0x3f8a4540569775d4	0.012827398912970724
13	0x3fba53608a5d0235	0.10283473375330561
14	0xbfc48d6406de5a70	-0.16056490264300605
15	0xbfa94b08bd4ccc92	-0.049400590045842865
16	0x3fb8dde7fe87e1b7	0.09713602031832279
17	0xbfc220de23fae01f	-0.14162804371676516
18	0x3f86b36b1bdf51e3	0.01108440092858926
19	0xbfa20308bd663834	-0.03517939865115274
20	0xbf9e26aa1e7b6547	-0.029444368467783446
21	0x3fa0eebd2af7b994	0.03307143353946454
22	0xbfb845165bea3561	-0.09480418914809753
23	0x3fbccc08f91f702c	0.11248832780933132
24	0x3f9ff83d6cd1c096	0.031220397726827352
25	0x3fb623747d0176f4	0.086478500861144
26	0x3fa77794c1e2cee1	0.045834206264229634
27	0x3fb52cadee398eee	0.08271300378833832
28	0x3fad94281bbf05ba	0.057770970713601114
29	0xbfb2422e8f028df7	-0.07132235518889006
30	0xbfbe10eb3b1d99d6	-0.11744566148045207
31	0xbfb100ec9ebb24f5	-0.0664203536536155

arr_4 f8 [1, 32]
0	0xbf9dbd2076849178	-0.029041774019007843
1	0xbfc1740f88aa9308	-0.13635439084205125
2	0x3fc43dca29a16b3e	0.15813567192784633
3	0x3fb07a221c12defb	0.06436360535996848
4	0xbfb0268d9d8a08eb	-0.06308827491924134
5	0xbfc50a429e5bbc42	-0.16437561733570943
6	0xbfc5b0de542c1851	-0.16946009740803672
7	0xbfab884cd8483442	-0.05377426281129562
8	0xbfbd8bed7c710906	-0.11541637695430404
9	0xbfa3996bfb2a9a02	-0.038279890451395474
10	0x3f80e08a4091249e	0.008240776153018377
11	0xbfc9195d87f5049d	-0.1960865892270122
12	0xbf8ef144c19b678b	-0.015108620794695124
13	0xbfb8190f53b3a77e	-0.09413238328457216
14	0x3fbd55cfa46b6b66	0.11459062351370405
15	0xbfc87aada524b2a4	-0.19124384463920763
16	0xbf9815b036dd2758	-0.023520234440446458
17	0x3fc06758ac5e8553	0.12815388123002922
18	0x3f630f6e82bbe573	0.0023266943370542858
19	0xbfc2389452131336	-0.14235166556877638
20	0x3fb17f5a5d154cd2	0.06834950230158945
21	0x3f844ee0ccdbe72e	0.009916073085594581
22	0x3fb192268cc6c204	0.06863633095668581
23	0x3fb46a177c2ca616	0.07974383145906247
24	0x3fbcf477d23fff04	0.1131052864366176
25	0xbfc7c38988f10491	-0.18565482317538742
26	0xbfbdf79b318a78ce	-0.11705942115301868
27	0xbfb3dae5ee156b52	-0.07755887091245242
28	0xbfc9ebbebda25157	-0.2025068689296272
29	0xbfbcf913cbc8960a	-0.11317561841186588
30	0xbfba8e0a4c9e953c	-0.10372986193268202
31	0xbfb19b9d399f5de5	-0.06878073365020716

arr_5 f8 [1]
0	0xbfdcd1023488cac4	-0.4502568734198287
