model_checkpoints/params_round_16.npz (npz, 14022 bytes, 5 tensors)

arr_0 f4 [64, 15]
00000000: 74ce 093d ccd7 9e3d d10d 803e 30c1 803d
00000010: bce6 3e3d 963c a33d 882f edbd 2041 05be
00000020: e486 c2bd 12f8 9d3d 043d c2bd d41d 59be
00000030: 4647 543e 82c9 3d3e 459e 683e a65a 0ebd
00000040: a6f4 6abd 74c1 413b 2134 2cbe e8ad aebe
00000050: 25bb 593d 0547 a43d 121f 84be 5517 063e
00000060: 923f 2f3e 3c95 12be a8c9 38be 6454 6bbd
00000070: 84df 833e e572 e1bc a74a 19bd 08c9 21be
00000080: dec1 443d dcef 683e 1b02 fc3d f064 443e
00000090: ee4a d83d 00fa 0dbe 0aff 683e b854 7c3d
000000a0: da52 c33d 0ad8 76be 65e9 c63c face b53d
000000b0: dc34 41bd 04ac 9cbe f2e3 4b3d 525f a6bd
000000c0: 263b 64be a80b 7ebd 6431 d33d 38d9 04be
000000d0: 2576 16be 10fa 9e3d 5168 39be c49e f23d
000000e0: 3472 2abe 088c a73d 2aff 92be 3823 e6bd
000000f0: 4173 173d 297b 3cbe 7138 dabd 1d80 80be
00000100: 9914 883e 32c0 7fbe fa49 303e 8e82 fbbd
00000110: b4d7 063e ab5d 303e ee56 733e 60cb 883e
00000120: a097 5dbe aa3b 10be 045a 8c3e 7c58 923d
00000130: d3f6 80bd a4e6 253e d3e3 023e 3bdc 063e
00000140: ef22 e03d 594c 3e3e 8ad4 acbd 78ef 053c
00000150: 84fd 553e a256 8abe 3731 c0bc 1c34 87be
00000160: 4730 4a3e 07f2 74be e7ed 81bd 4a1f c0be
00000170: 87e0 1f3e 64b4 ef3d 4a32 81bc 3231 d43d
00000180: 7ea9 98be a8de 07be 16fe 83bc 9147 8abe
00000190: 1606 9c3d efc7 d03d 2a4d 32bd f06d b8bd
000001a0: 147d 753e fc51 73be ef4c 2e3c 6092 55be
000001b0: 46e2 a23c 2e92 a7be 2ca3 ee3d 32b0 3dbd
000001c0: ce16 07be 31e0 d13d a1a6 773c 265d 6d3e
000001d0: 89d3 f6bd 048d 1bbe 6d33 2fbc 34d7 01be
000001e0: 5418 e63d c0c7 9fbe 7e6e 73be 45b7 6ebe
000001f0: a8f7 563d c48a 67bd 8287 523e 264f 513e
00000200: 2659 18bd 6542 55bc 9483 1a3e b752 2e3e
00000210: 9474 1abe 017d 103e 56c6 60be 02c8 cc3c
00000220: 9683 18be a88d af3e 46a7 75be 2341 0fbd
00000230: ddaf 32be a432 c1bd 9fdc b73d 8c78 363e
00000240: a776 2dbc a312 80be 592c c1bd 5c8f 2e3d
00000250: 3194 e7bd 2814 72be 1ec0 15be b067 50be
00000260: 929f debd 31ee 84be b036 7d3d d8dc 44bc
00000270: 1e97 8bbe 40be 77be 4a46 09be 6e97 b5bd
00000280: 9c6c 33be 288b 0d3e 8eab 2d3e 2686 f53d
00000290: 9936 513e ec1f 9fbe 010d ff3d ea37 733c
000002a0: 5222 efbd 7c9c d6bd 94ba ff3d fa71 6cbc
000002b0: 06bc 9b3d af5f 02be dee7 833e 8e12 963d
000002c0: 4692 8b3d 842a a9bd 7227 8abd 523e 68be
000002d0: a903 58be 6f94 5c3d cc7d 9b3e ae67 27be
000002e0: 622e 8bbb 7b9c 233c e4ac 67be 2c50 3fbd
000002f0: 3899 81bd 5ad0 cabc 7907 fabd 19e0 66be
00000300: b744 babd a209 e93d 58c0 783d 4a41 813d
00000310: c084 9b3e 3123 f03d c236 f33c d6e1 38bc
00000320: 56aa d23d 72df d2bd aed1 a93c 9056 933e
00000330: 188a b0bc b82c 003e 8544 a63d 729b b63d
00000340: f40f 95bd ec0e e03c 4d61 0ebe 428e 8b3e
00000350: c102 22be e685 383e 9445 1c3d f069 78be
00000360: fb0f 0f3e 76e8 243d b2e5 c0bd eda8 e3bd
00000370: cc64 103d 4fc4 293e 70f3 c5bc 4ce7 b9bd
00000380: 0194 a23d d668 6c3d 1e70 ecbd 6dfb 9e3d
00000390: 8e02 613e be70 5a3e aeb8 183e ee8f 9c3d
000003a0: 2f4a 9f3d c528 54be a57e 3ebb 0f9e 9dbe
000003b0: 4651 e43d de3a c73c 4880 0c3c 8e9b d33d
000003c0: 96b1 623e c2dd 28be 66e0 6dbe 0a2d 81be
000003d0: 6c5a 7abe 690d bbbd da03 6dbe ca7b 02be
000003e0: 22ac d83d ecdc 373e 880f 87be 9123 8dbd
000003f0: 2e60 29be a10b 05be a5e8 923d 488a c2bd
0.033644155 0.07756004 0.2501054 0.062868476 0.046606764 0.0797054 -0.115813315 -0.13013124
-0.094983846 0.07713331 -0.09484294 -0.21202785 0.20730314 0.185339 0.22716625 -0.034754418
-0.05736222 0.002956477 -0.1681676 -0.34117055 0.05315699 0.080213584 -0.25804955 0.13094838
0.17114094 -0.14314741 -0.18045676 -0.057453528 0.25756466 -0.027520606 -0.03742471 -0.15799344
0.04803645 0.22747749 0.12305089 0.1917913 0.10561167 -0.13864899 0.2275354 0.06160423
0.09537287 -0.2410585 0.024281213 0.08877368 -0.04716955 -0.30599988 0.049777932 -0.0812365
-0.22288188 -0.062022835 0.10312155 -0.12973487 -0.14693506 0.077625394 -0.181062 0.118466884
-0.16645128 0.08181006 -0.287103 -0.11237186 0.03697515 -0.18406357 -0.106552966 -0.25097743
0.26578215 -0.2497566 0.1721572 -0.12280761 0.13168222 0.17223231 0.2376363 0.26717663
-0.21639872 -0.1408526 0.27412426 0.07145783 -0.06297078 0.16201264 0.1278222 0.13169949
0.10944163 0.18583812 -0.08438976 0.00817477 0.2089749 -0.2701922 -0.023460967 -0.26406944
0.19744979 -0.23920451 -0.063442044 -0.37523872 0.15612994 0.11704329 -0.01577105 0.10360946
-0.29816812 -0.1326853 -0.016112369 -0.27007726 0.07618348 0.10194384 -0.04353062 -0.09005344
0.23973495 -0.23761743 0.01063846 -0.20856619 0.019883286 -0.32728714 0.11652216 -0.04631061
-0.13192293 0.10247839 0.015115411 0.23180065 -0.12052066 -0.15190512 -0.010693413 -0.1267975
0.11235109 -0.31207085 -0.23772618 -0.233121 0.052482277 -0.05652882 0.20559505 0.20440349
-0.037194394 -0.013016318 0.15089256 0.1702374 -0.15083534 0.14110185 -0.21950659 0.024997715
-0.14893946 0.34287763 -0.23989591 -0.03497423 -0.17449899 -0.09433487 0.08977627 0.17819422
-0.010587371 -0.2501422 -0.09432287 0.042617187 -0.11307562 -0.23640501 -0.14624068 -0.20352054
-0.10870279 -0.25962976 0.061819732 -0.012015544 -0.2726373 -0.24193668 -0.1340572 -0.088667735
-0.175219 0.13822615 0.16959974 0.119884774 0.20430984 -0.31079042 0.12453652 0.014844874
-0.11676468 -0.10479066 0.12486759 -0.014431471 0.07604222 -0.12731813 0.25762838 0.07327758
0.06815009 -0.08260062 -0.06745805 -0.22680023 -0.21095146 0.053852495 0.30369413 -0.16348144
-0.0042474726 0.009986038 -0.22624546 -0.046707317 -0.06328052 -0.024757553 -0.122084565 -0.22546424
-0.090951376 0.113787904 0.06073031 0.06311281 0.30374718 0.11725462 0.029689196 -0.011284312
0.10286395 -0.10296525 0.020729866 0.2877698 -0.021550223 0.12517059 0.08118538 0.089163676
-0.072784334 0.027350865 -0.13904305 0.27256972 -0.15821363 0.18019828 0.038152292 -0.24259162
0.1397094 0.040260755 -0.09418811 -0.111162044 0.035252377 0.16578792 -0.024163932 -0.090773195
0.07938386 0.057717167 -0.11544822 0.077627994 0.21973631 0.2133207 0.149142 0.0764464
0.07777821 -0.20718677 -0.0029067185 -0.30784652 0.11148314 0.024320062 0.0085755065 0.10332404
0.22138056 -0.16490844 -0.23230132 -0.25229675 -0.24448556 -0.09133417 -0.23146 -0.12742534
0.10579707 0.17955369 -0.26379037 -0.068915494 -0.16540596 -0.12992717 0.0717328 -0.09499031

arr_1 f4 [64]
00000000: c2f3 ffbb a6cd bbbc c1be b83c 02a3 9fbd
00000010: 997b 58be 14ed 25be 126a c73d 3eaf 7b3e
00000020: ca88 80bc 928f 853e 5c8d 5c3e cef4 a53d
00000030: 55f1 d83c f8e0 cc3d c681 6bbd 3e12 54be
00000040: f0a0 3a3e 70bf f03d 569b 223e 80d8 ddbc
00000050: fa23 15bd b4db bb3d 1401 d8bd ddb2 7c3d
00000060: b621 9fbe c5fa 28be fff7 e23d e832 b83e
00000070: 2f95 f7bd e67e 8e3e d87b c73d 73af a03d
00000080: bda4 20bd 0048 bdbd fb4d 9a3e b2b3 203e
00000090: f1da a13c 1c80 1b3e 588e fa3d 8aa9 aabd
000000a0: d0bf 0c3e 487b 7abd 4cda 2e3e 3be0 debd
000000b0: 0f30 01be 1462 91be 8887 5d3e 3996 3c3e
000000c0: 5604 0abe 6380 333e 18a4 71bd 552f 933e
000000d0: 5826 a93c a0dd 69bd 72b6 3dbe 7593 143e
000000e0: 16d1 ea3d b22d 343d da0d 833e b889 febd
000000f0: ce93 9d3e 6216 893d 0a61 10be b6a5 6f3e
-0.0078110406 -0.02292521 0.022551896 -0.07794763 -0.21140899 -0.1620372 0.09737028 0.24578568
-0.015690226 0.26086098 0.215383 0.081033334 0.026482264 0.10003847 -0.05749681 -0.20710084
0.18225455 0.11755264 0.15879568 -0.027080774 -0.036411263 0.091727644 -0.10547081 0.061694015
-0.31080407 -0.16501911 0.11082458 0.35976338 -0.120890014 0.2783119 0.09740418 0.07845964
-0.039219607 -0.092422485 0.3013762 0.15693548 0.01975772 0.15185589 0.12234181 -0.08333118
0.13745046 -0.061152726 0.17075461 -0.10882612 -0.12615989 -0.2839514 0.21633732 0.1841668
-0.13478217 0.17529444 -0.058994383 0.2874705 0.020648167 -0.057096124 -0.18526629 0.14509375
0.11465661 0.04398889 0.25596505 -0.124286115 0.3077683 0.06693722 -0.14099517 0.23403057

arr_2 f4 [32, 64]
00000000: 5c7b 28bd ec12 84ba 94b1 e8bc ead8 9cbd
00000010: 4824 813c 6e94 9dbd bcb5 963c fafe b6bd
00000020: d00d 30bc 1c06 e13c 8250 8d3d 81a3 f13b
00000030: 118f 653d 0037 ac3d 4605 3fbd 9e37 ae3d
00000040: af76 253d 1c1b 9ebd e0ce 03bd 0cbe e1bd
00000050: 84bc 4b3c ebe5 413d 84f7 5dbd b65f 8fbd
00000060: 8ee8 b9bd f028 5ebd 1428 ac3d ed1e 45bd
00000070: 2e9e d9bd e277 7fbb b448 eabd 74ca e0bb
00000080: 02fc c8bd 9899 793d 1f15 ad3d 6ae1 3f3c
00000090: 951c 803d 02d7 83bd 0835 7abc 6ad8 bcbd
000000a0: 2e7a 36bb d03d 0d3c f4d0 0fbd 95e9 e5bd
000000b0: abad afbd e0f6 e3bd 807d 9dbd 3df2 69bd
000000c0: e029 e5bd a860 253d 9b47 19bd 999e 01be
000000d0: 582a 8bbd 852d a93a 84b8 b1bd 4645 01be
000000e0: f52b b03c 1b06 95bd 4536 1dbe 0c91 bf3d
000000f0: 63f1 b53b fc31 6fbd c843 f5bd 9c0e 703d
00000100: 6942 ec3d 17a9 0abd 0dc3 94bd c400 d93d
00000110: 5d5e 363e 3c59 01bd ec2a d4bd a774 893d
00000120: b16f a5bd 325e 86bd 48ca 04bd 92b3 c43c
00000130: 4c64 a33d 468d 053e 42f5 463d da39 4c3c
00000140: 2882 a13d 4f3b 04bd 0e7c 623d af16 e6bd
00000150: b0b0 1c3c 1ea5 ad3d f2d9 bf3d 60ec 02bc
00000160: 3258 133d cd7f efbd b835 a63c 2294 f4bc
00000170: 3e4c 06be 31f1 823d 1c31 d83c ca29 883d
00000180: 9b41 943d 560b a0bd 9402 813d 6074 c7bd
00000190: 5b8c 5abd 2c5b 2cbd 9ca3 1a3d 60ff 8bbb
000001a0: cb0a 76bd f62a 0dbd d2b0 39bd 940a 17be
000001b0: 7e63 84bc 2e53 e93d 882d fe3d 5aff 033d
000001c0: 0880 073e df25 4e3d 1551 16bd 22d6 febc
000001d0: 54fc bfbd a8f6 503d a9d7 fcbd 4e8f 153c
000001e0: aadf e4bd 2e73 313b 7c0c dfbc 7d2a 0bbe
000001f0: b4c4 2abe 3020 a53c 9b42 1d3d 6919 f8bc
00000200: e2ed 753d 7e87 613c e40e 4dbd 1c1b 863d
00000210: 256c 4bbc 5b49 dd3d 8b29 593e 94e4 a03d
00000220: b2fe 04bd 61bf 1cbd 9ee4 6b3e e9f4 5ebd
00000230: ba50 073e f917 b0bd fa98 95bd e1ce e13d
00000240: 0ba5 923c 9808 ff3d 5e0e 75bc bdc8 f1bc
00000250: ea11 aa3d 3542 c03d 80ca cfbc 5a32 823d
00000260: 7e85 d8bd ae34 073e 1611 b3bc 5824 0f3c
00000270: 15a6 833c fc7c 833d 48c5 a2bd 7c10 f4bd
00000280: bcac b23d 14f3 d93d 3044 1a3c b3b6 64bd
00000290: b0a8 a9bb 1b32 8dbc 4b8d ae3d 0270 2c3e
000002a0: 53e4 aebd 5927 7e3d f8fc 9c3d 5a17 493c
000002b0: cd9d 10bd fdc0 28be 968c 31bc 52f0 d63d
000002c0: 66af 19be eb99 b6bc 0bcf 603e bec0 d83d
000002d0: 106b bdbd 5977 173d b615 2ebc a276 b93d
000002e0: 71c2 fabc 5433 ef3b 9f00 0b3e 40b7 733d
000002f0: 217c ee3c b242 a0bd af6c 04bd 0e0b 293d
00000300: 79be a03d 7d51 093e 3431 c7bd e8f1 aa3d
00000310: 1004 cfbd b357 8ebd 6e59 0c3e f86b c0bc
00000320: f884 b43d 9afa 353e da3c 8a3d 02b4 3d3d
00000330: baf8 003c 6e81 05bd 09dd 883d 709a 373e
00000340: b9f6 ac3c ba2f 20bc 11dd aa3d 94fc beba
00000350: 73ff 103d 7c79 1a3d 46a2 a93d 4768 ec3d
00000360: 0673 1dbe 19de c2bc da5f a53d 9911 1d3e
00000370: ce10 b33d 3389 cc3d 40f1 a2ba f194 00be
00000380: 93d4 c23d 209a 263d a459 d7ba 6433 cd3d
00000390: cd6d 033d 9d9d 9a3c 8160 ac3d 48b3 0b3e
000003a0: c80c 1abd cc3c f0bb 55ae 52bc a0e4 fc39
000003b0: c4c6 d73d 15f3 2fbc 8888 a4bd 9449 8c3c
000003c0: 0778 21be 7608 e23c 7a67 423e 8976 8eb9
000003d0: 4fa1 df3d c582 953c 9cde 5a3e 1165 6a3e
000003e0: 0276 0f3e 88be 123e 46b6 af3d 8bfb f63d
000003f0: 7d65 0e3e b244 da3c 5e71 7cbd f9e2 873d
-0.04113327 -0.001007644 -0.028404988 -0.076585606 0.01576437 -0.07694326 0.018397205 -0.08935352
-0.010745481 0.027468733 0.06900121 0.0073742275 0.056044642 0.08408928 -0.04663589 0.08506702
0.04039639 -0.077200145 -0.032179713 -0.11022577 0.012435082 0.047338407 -0.054191127 -0.07000677
-0.090775594 -0.05423826 0.08406082 -0.048125196 -0.106258735 -0.0038981368 -0.11439648 -0.006860072
-0.09813692 0.060937494 0.08451294 0.011711458 0.062554516 -0.06437494 -0.015271433 -0.09220965
-0.002784382 0.008620694 -0.035111383 -0.11226193 -0.085780464 -0.11131072 -0.07689953 -0.057115782
-0.11189628 0.04037538 -0.037421804 -0.12658156 -0.06795186 0.0012907243 -0.08677772 -0.12624082
0.021505335 -0.07276555 -0.15352733 0.09353837 0.005552457 -0.05839728 -0.11975819 0.058607683
0.11536104 -0.033852663 -0.072637655 0.10595849 0.17809434 -0.03157924 -0.10359749 0.06711703
-0.08077944 -0.06560935 -0.032419473 0.024011407 0.079781145 0.13042173 0.04857374 0.012464965
0.078861535 -0.032283124 0.05529409 -0.11234795 0.00956361 0.08478759 0.09367742 -0.0079909265
0.03597278 -0.11694298 0.020289287 -0.029855791 -0.13115022 0.0639366 0.026390605 0.06648596
0.07239076 -0.07814662 0.0629932 -0.09738994 -0.05335651 -0.042079136 0.037753686 -0.0042723864
-0.060068887 -0.0344648 -0.045334645 -0.14750129 -0.016160723 0.113928184 0.12411028 0.032225944
0.13232434 0.050329085 -0.03669842 -0.031107966 -0.093743 0.05101648 -0.123458214 0.009128405
-0.11175473 0.002707671 -0.027227633 -0.13590427 -0.16676599 0.02015695 0.038393598 -0.030285554
0.060041316 0.013765214 -0.05006303 0.065481395 -0.01241592 0.10805007 0.21207254 0.07856098
-0.03246946 -0.03826845 0.2303643 -0.054432783 0.13214388 -0.085983224 -0.073045686 0.11025787
0.017900964 0.12452811 -0.014957039 -0.029514665 0.08304198 0.09387628 -0.025365114 0.0635726
-0.105723366 0.1320369 -0.021858733 0.008736692 0.016070405 0.06420323 -0.07947785 -0.11917207
0.08724353 0.106420666 0.009415671 -0.055838298 -0.00517758 -0.017235806 0.08523043 0.16839603
-0.08539643 0.062049244 0.076654375 0.012273634 -0.03530674 -0.16479869 -0.010836741 0.10495056
-0.15008315 -0.02229019 0.2195398 0.10583638 -0.09248936 0.036979053 -0.0106252935 0.090558305
-0.030610295 0.00729982 0.13574456 0.059500933 0.029111924 -0.07825221 -0.03233021 0.04127031
0.0784883 0.13409992 -0.097261816 0.08346921 -0.10108197 -0.06950321 0.1370599 -0.023488984
0.08814424 0.17771378 0.06749888 0.046314247 0.007871801 -0.032594137 0.06682784 0.17930007
0.02111374 -0.009777004 0.08342946 -0.0014571124 0.035399865 0.037713513 0.08282904 0.11543327
-0.15375909 -0.023787545 0.08074923 0.15338744 0.087434396 0.09987106 -0.0012431517 -0.12556817
0.095132016 0.04067433 -0.0016429913 0.100195676 0.032087136 0.018873984 0.08416844 0.13642609
-0.037609845 -0.0073314663 -0.012858947 0.00048235524 0.105359584 -0.010739108 -0.08033854 0.017124929
-0.15768443 0.027591925 0.18984786 -0.00027172666 0.10919439 0.018250832 0.21373981 0.22890116
0.1400986 0.14330494 0.08579688 0.12059697 0.13905902 0.026644085 -0.061631553 0.066350885

arr_3 f4 [32]
00000000: 8aa9 4abd da89 27be dd94 183e b7ea 453e
00000010: 3c18 353e 09b4 673e b85f e93d 203e 9f3d
00000020: 90b5 413e 93ed 3e3d 03ad 7ebd 52f1 073e
00000030: a078 363d 3921 62bd aece b33d 7e70 c13d
00000040: 350c aa3c bddc 93bd 1b44 413d 628b 303d
00000050: 7303 c13d d62d 55bb fb1f 89bc 150c 133d
00000060: f673 883d 445a fc3c dd6c 46bd 6f9f fdbd
00000070: 6e9e 523e baf7 5d3e a17e 513e 2679 de3d
-0.04947809 -0.1636118 0.14900537 0.19327818 0.17685026 0.22627272 0.1139521 0.07775521
0.18916917 0.046613287 -0.062176716 0.1327565 0.04454863 -0.055207465 0.087796554 0.09445284
0.020757774 -0.07219837 0.04718409 0.043101676 0.09424486 -0.003252854 -0.016738882 0.035900194
0.06662743 0.03080476 -0.048443664 -0.12383925 0.20568249 0.21676531 0.20458461 0.10862951

arr_4 f4 [1, 32]
00000000: dd3d e83d 602f f03d 01c0 17be 52af dbbd
00000010: 00c3 e8bd 5a28 d3bd 46db 0dbe 0ef4 36be
00000020: dd4d 9abd 5272 2abe 6a90 353e d7b8 a5bd
00000030: 9697 54be b106 043e 5602 0abe e425 adbd
00000040: d2fc 163e 296e 723e 84af 01be e415 06be
00000050: b989 023e c4b8 763e 886f 343e cc1e ccbd
00000060: 6eae 1f3e ca3c 363e b405 0dbe 5009 063e
00000070: eaaf eebd 995a 8abd fa79 b9bd a1d5 d7bd
0.113399245 0.11727786 -0.14819337 -0.10726799 -0.11365318 -0.10310431 -0.13853177 -0.17866537
-0.075343825 -0.16645172 0.17730871 -0.08091896 -0.2076095 0.12893178 -0.13477454 -0.08454493
0.14744881 0.23674835 -0.1266461 -0.13094288 0.1274785 0.2409392 0.17620671 -0.099668115
0.15593883 0.17796627 -0.13771707 0.1308949 -0.11654647 -0.067555614 -0.09056468 -0.10538793
