model_checkpoints/params_round_11.npz (npz, 26570 bytes, 6 tensors)

arr_0 f8 [64, 15]
00000000: 6b55 90d5 61b5 7abf f8a3 2d5b c1ed cebf
00000010: 1795 e704 e48d d1bf bb37 3f89 e597 c43f
00000020: 497f 80d8 9e71 c4bf c394 bd5e 1ae4 adbf
00000030: 5708 e25d 916c 843f 6e09 27aa 9a44 c3bf
00000040: 1d2f dc57 b541 803f 52a8 dfd1 f588 c5bf
00000050: 5c51 0ed6 6219 bb3f c0c7 f8d7 c1e4 c9bf
00000060: 1eaa 7149 b9fc 9fbf 302c 27b3 ab37 b63f
00000070: acdc 9d8b 09ca ccbf b7f7 adaf 09a4 d1bf
00000080: 9c30 0fdd a203 bf3f 58b7 c8f7 78c1 afbf
00000090: 4e3c f9ef cf9f c03f f3dd 2f97 6b76 cb3f
000000a0: 745b 1848 53ec cc3f 1e4e 5076 d982 b4bf
000000b0: f254 fe54 d592 ca3f 0ea3 93e6 89f9 c83f
000000c0: e4a5 0870 d8a2 b33f c855 63d2 2a28 c6bf
000000d0: 0219 ccbe 4ddf c53f e494 58a4 33ee ccbf
000000e0: a38e 3f03 0882 82bf b618 9efd 8dad cbbf
000000f0: 90cf ba54 33d3 c13f 66cb 187b cc1d c9bf
00000100: 389d 8200 51bd c53f 3984 c7f9 5e9e c83f
00000110: 8247 2a88 d11b 5cbf b293 e298 5aea 8c3f
00000120: f679 d497 805d ba3f 1749 3525 7d88 d1bf
00000130: 2bd4 9835 e328 d03f 0ee4 08c3 9e4f b43f
00000140: 5f59 f324 8df1 b53f 9431 af4e 8507 d33f
00000150: f488 040e 17a2 cc3f e5ef e1e2 3210 b5bf
00000160: 6b70 053c e993 a23f c566 96dd d766 9e3f
00000170: 6475 7897 7bc6 c93f a212 de18 b0e7 af3f
00000180: 588e 5efd ab39 c13f 8bcf a8b2 a2a5 73bf
00000190: fca6 ea6e a522 99bf 7458 0513 f8cc ac3f
000001a0: f174 9862 e3a8 adbf de9b bd1a b08e b93f
000001b0: 3b19 a186 b586 b0bf ec7b 5ac7 76df c3bf
000001c0: f818 153a a8d7 cb3f 60ca b7e4 09f5 35bf
000001d0: c4da d783 94e7 cb3f a8aa f956 14c0 82bf
000001e0: 1fd1 a0de 6745 cfbf 5cb9 fc66 c9b2 cabf
000001f0: fcb5 7742 441f d1bf 71fb c067 a0ba b13f
00000200: 8a23 3421 7de9 b13f 1ad0 53d6 5448 c7bf
00000210: b899 b758 e681 b43f 37c4 8ded ecd3 ce3f
00000220: 9ad9 b12a f3ce b8bf e275 cc03 867e c13f
00000230: ee01 509d f73b b73f 068e e425 3e03 aabf
00000240: d8c3 4175 652b be3f 965c e04b 4cb8 c6bf
00000250: 7e67 51b6 c194 c2bf ecde 73db f69d cdbf
00000260: acad 83bb 04f6 d0bf 2692 9838 ca8c bf3f
00000270: e85f 417a 56ce 8e3f 6aae 469a a655 cabf
00000280: f259 d6ee 32f3 d03f 1648 22f1 167a 7f3f
00000290: 7752 54b9 beb2 cebf 3003 a56c 34a2 c13f
000002a0: d822 21f2 3b03 9ebf 377e 440e 201e cebf
000002b0: 22da 37c5 eb28 ad3f 7be9 4e49 731f ce3f
000002c0: 5c87 5bc1 9db4 a6bf 7af1 5af5 6828 ccbf
000002d0: d45f d311 f09c c6bf ce8c 71f4 c462 d1bf
000002e0: 8b63 6564 b7d5 89bf 6654 543f 69a2 babf
000002f0: 6819 1368 81ca 9c3f 77c8 7cdd 3204 a13f
00000300: fe56 15af 37d4 b8bf e04c 92cb c30f c7bf
00000310: 66ef ff14 4f6d ccbf 10e6 cf0a 9fb5 b13f
00000320: 9a39 1c92 2f42 c5bf 42d8 dc27 dbcc 923f
00000330: 188b 3193 f775 c6bf f471 89e8 f0ca b5bf
00000340: c0a2 92b6 4f37 3ebf 6e2d 1c21 9e4f c73f
00000350: f010 38fc b4a4 ccbf 2655 d5d1 e909 bdbf
00000360: 1b59 f289 80c8 c6bf f041 a4e6 371d ccbf
00000370: cb34 6980 6267 c5bf d5e1 1b48 9592 a13f
00000380: 0414 800a d82a cbbf a77a e4fd bfec ca3f
00000390: a640 78c9 4bd0 c73f 901f 74dc fd4e c93f
000003a0: 22ef 0702 af7a c4bf 0e59 b033 226b cfbf
000003b0: 7a11 e18d 6682 b13f 4e11 4d54 8716 bebf
000003c0: 3960 e8fc 3355 c6bf d582 a983 2f21 b33f
000003d0: 0a56 1033 4f95 aebf 47cb b104 f36d bf3f
000003e0: 5adf a952 4b6f cdbf 68c4 3108 1537 cbbf
000003f0: aed8 925c f5ea acbf 19fe 2daf b153 cebf
00000400: 6e38 9823 346f a23f fe97 427c 8344 bd3f
00000410: 14fd aa5c 45d1 bf3f fcff f533 13cf c83f
00000420: 9591 d949 3a77 b43f 3ef1 92d5 856b c23f
00000430: fa55 b8f5 ada4 a4bf 1620 56c2 48ae b23f
00000440: 0883 b585 d61f cc3f 374f 7327 e8ef c73f
00000450: c021 c704 716f 94bf b899 c401 e676 cbbf
00000460: e0b2 1c15 e7b9 af3f 7c7a df5c bc37 ce3f
00000470: 4a0b c3b0 a40a ccbf 7ad6 38e6 0872 aebf
00000480: 609c 511c baee a93f 586a a2d9 c695 aa3f
00000490: 3c3b c682 9ade c8bf 9033 7d7c c778 be3f
000004a0: be43 6266 fa5e c1bf 1e48 39c9 0748 ccbf
000004b0: 2688 c404 5f7c b43f 667a e7ae d114 8abf
000004c0: f857 666e e23e c83f b82b 7ca7 00da b33f
000004d0: 5939 1f52 269a cf3f fa1c fea1 3e77 843f
000004e0: 1564 32a6 ad04 c03f 811a 0fac e2ec b53f
000004f0: 1413 aa93 3c73 b83f 5eeb 6bfd 821d c73f
00000500: dd0b 60d5 cce8 943f 1f3e 1394 2b6f ae3f
00000510: 37de 1d88 003b c7bf fd42 7942 709c bdbf
00000520: 0cd3 2489 5363 b5bf 3ef5 0158 cd11 b83f
00000530: d316 255b e2a3 c93f 2bb9 9247 0940 a63f
00000540: aea5 de56 a6f9 cdbf 9717 0861 d2cf b9bf
00000550: 9667 12a0 801c c33f 9734 3bb7 378c c03f
00000560: ff80 7ea9 b12b c3bf fb42 4a7c ed34 a23f
00000570: 72d7 5769 882c c33f 6ec0 af5e d4e6 a9bf
00000580: 81e7 8b20 d002 cabf 6612 7198 4cc4 903f
00000590: 0297 9d8f 97c0 c43f 0447 ad04 18eb ba3f
000005a0: adcf 1067 6e5b bdbf f04d 3627 657d cbbf
000005b0: d691 f5e9 8e35 c03f 089c 34d1 736a ca3f
000005c0: e67e cac0 a3a5 c93f 9177 a491 f526 b73f
000005d0: 8902 c248 380a c2bf a67f 5cbc 3014 cdbf
000005e0: b1cd 5193 6e45 c4bf 6bf7 0d24 8557 af3f
000005f0: c839 2e01 e2d2 d1bf a161 fac5 bd43 c0bf
00000600: 9060 7454 13bb c3bf 7ad2 4609 e61b b4bf
00000610: 2009 71ef f7c1 c63f f9f1 4824 c920 c9bf
00000620: 7aa5 9d40 005f c73f 1ca2 73cd 8827 b63f
00000630: 8653 7151 8ce0 b13f a475 dc22 eb55 d0bf
00000640: a101 936c 51f5 ca3f ae76 4fdb 6b19 b8bf
00000650: aa78 5453 1d56 cb3f 7adf 0922 e326 c03f
00000660: 26a7 ee96 1fb1 b93f dcf0 119f c8d6 97bf
00000670: 932e 0f55 ee4c b33f e071 e311 ecc5 c43f
00000680: c057 0c8e 4587 bbbf da31 aa8c d98a c03f
00000690: 285a ddf6 941e d0bf 4c73 6620 fdfa b03f
000006a0: f438 d7d2 bf8c b33f 6297 b595 f6e9 b23f
000006b0: 07b6 ec94 5087 c03f 2b90 d879 118f b7bf
000006c0: 803c 42fa 4c40 c33f dcd3 ca76 087a cf3f
000006d0: e8a3 7617 3267 c7bf eacb cff4 6999 d1bf
000006e0: d6b3 4e12 e4be 85bf 0c45 b782 a323 d0bf
000006f0: 087e 6a88 1064 a93f 4098 39ef f953 cabf
00000700: a8ea 89ae 7dfe abbf bf7e fe6f 1e5f b73f
00000710: 4af5 50f2 de7e c7bf 2f41 78bd 4a23 cb3f
00000720: 0002 2f08 f691 b1bf 504c 485b c3cb b4bf
00000730: 54e2 865a 0f26 acbf 84ae 6e0c 027d c8bf
00000740: 5a70 ebb0 f8c0 cf3f fa08 aa51 d60c c13f
00000750: 8e6e 9560 ee3f 8bbf 75c3 f29f 4499 c9bf
00000760: 2c32 7870 fe0b c23f de12 0775 7bac cf3f
00000770: d69b ce89 4283 b33f c2cf 8b37 6139 b23f
00000780: d1a6 b2e0 2fda c0bf 2bb1 fbe0 ce43 ab3f
00000790: 17a8 cbdb 5020 a23f 98ba a7aa d31a c73f
000007a0: d32a bdb4 440d c0bf b53a 180a bf5d c9bf
000007b0: a493 8eb2 36ac c33f b896 b452 18ec 9bbf
000007c0: 6e7d 4023 e690 c0bf fa68 558a e56e c3bf
000007d0: 4c92 14be 1fbf c9bf 1f08 7dbb 429c b43f
000007e0: 364b 396c c953 c3bf 86e6 9bdc da82 cc3f
000007f0: d0aa 0703 b717 ca3f 3e4a 0f36 7798 c63f
-0.006520635762190845 -0.24163071586670504 -0.27428532103506725 0.1608855171347708 -0.15971742221244714 -0.058380912842758835 0.009972701718883465 -0.15053113277651725
0.007937828773286132 -0.1682421946309796 0.1058561108205302 -0.20229361577508875 -0.031237502200761928 0.08678696750500658 -0.2249156886789242 -0.27563707500655305
0.12114923378902848 -0.06202295326907742 0.12987708299121653 0.21455140001465586 0.22596207638045096 -0.08012160433309432 0.20760599756309933 0.19511531599643955
0.0767035745162939 -0.17310080788472093 0.17087718788406653 -0.2260193397970972 -0.009037077521447506 -0.21623396762533326 0.13925782811349707 -0.19622188578213268
0.16983997845566434 0.1923330993295467 -0.00171561681841978 0.014118869581872893 0.10298923212801711 -0.2739556182251745 0.2524955771835404 0.0793399072798737
0.08571703102220372 0.29733402904528217 0.22369659599741676 -0.08227842368245282 0.036284721924602824 0.029689190768840818 0.20136971374533197 0.06231451324041372
0.1345725047259403 -0.004796634234072071 -0.024546227354824687 0.056251289674649124 -0.05792913988646287 0.09983349469040045 -0.06455549752090388 -0.15525707944922773
0.2175188335042504 -0.0003350400117760107 0.2180047649159943 -0.009155424980425167 -0.2443055951167787 -0.2085811379306034 -0.26753336420992446 0.06925394566586164
0.06996900616299065 -0.18189487900929252 0.08010711351344113 0.24084245299630577 -0.09690780441619609 0.1366736906574451 0.0907587775291245 -0.050805990338883375
0.11784967529980805 -0.1774993296137139 -0.1451646938538111 -0.23138318744144415 -0.2650157767481811 0.12324203378427309 0.015041995626390262 -0.20573885472309722
0.2648436863322835 0.007684793106948381 -0.23982986497198386 0.13776259713088157 -0.029309212354095532 -0.23529434868486174 0.056952827286228094 0.23533478812698747
-0.044346742490019436 -0.2199832151435535 -0.17666436071772174 -0.2716534030098047 -0.012614662886947922 -0.10404069706085436 0.028116247155389656 0.03323515847877528
-0.09698818230148373 -0.1801686042786974 -0.22208584332826858 0.06917757047622097 -0.16608233103074782 0.018359588916802012 -0.17547506987747208 -0.08512788464708604
-0.00046106048700748567 0.182117239157701 -0.2237764579332473 -0.11343251583942457 -0.17799383865048743 -0.21964167367742915 -0.16721755285326476 0.034321465542180775
-0.2122449923773787 0.21035003563971097 0.18604419076337314 0.1977231337007166 -0.15999400710267603 -0.24545695804472029 0.06839600528571124 -0.11753125961428632
-0.17447519158372574 0.07472512211235068 -0.059732890113235085 0.12277144302951824 -0.22995893036181309 -0.2126184740077719 -0.05648009066628511 -0.23692914060301076
0.03600466665749101 0.11432668479628202 0.12428697121048443 0.1938194278445734 0.07994427016234902 0.14390633514802603 -0.040318905110478157 0.07297186607877423
0.2197216179729582 0.18700887609758762 -0.01995636550580726 -0.21456599317862213 0.06196519978252524 0.23607592139065392 -0.21907480841590604 -0.05946376619651246
0.050649467427142936 0.051923955980971825 -0.19429332147088896 0.11903044499668014 -0.1357110023423313 -0.22094819379214042 0.0800227533950709 -0.012735021734383522
0.18941908255209206 0.07754520501127515 0.24689177522527464 0.009993066137907725 0.12514277091102657 0.08564583492907653 0.09550837140166052 0.18058812498187654
0.02041931202257873 0.0594419115310496 -0.1814881004936397 -0.11566831229107417 -0.08354684923399364 0.09402163885711887 0.2003138489764554 0.04345730780311138
-0.234181206147054 -0.10082735890327253 0.1493073255158463 0.12927910277213492 -0.14977093483049228 0.035560056135301076 0.14979653495509698 -0.05058921485749655
-0.20321084584412222 0.016373822025587258 0.16212744247894056 0.10514974703007957 -0.11467638031245882 -0.21476425566343904 0.12663446830550978 0.2063736697684535
0.20036742128012647 0.09043822103237022 -0.1409368853819795 -0.22717866132097447 -0.1583688945134845 0.06121460023039912 -0.2784962665108677 -0.12706730048081474
-0.1541465914131135 -0.07855069853287402 0.17779444877130235 -0.1963130404636926 0.1825867000109545 0.08654074684057672 0.06983258236262033 -0.2552440491143335
0.21061151315190066 -0.09413789848573614 0.2135655075916863 0.1261867443279206 0.10035893854970065 -0.023280272206179883 0.07539262367861914 0.1622901046129206
-0.10753283231710409 0.12923735969924516 -0.2518665705478349 0.06632978478451185 0.07636641404608097 0.07388249545109951 0.12912947913848447 -0.0920267984843696
0.15039980144181087 0.24591165352253952 -0.18283678193736752 -0.2749886408557233 -0.010618001755426858 -0.2521752144358096 0.04959155717119407 -0.205687753495285
-0.05467598682021918 0.09129514917594415 -0.18355929214332384 0.21201452495052694 -0.06863343906207575 -0.08123417833876201 -0.054977874565740464 -0.1913149414734684
0.24807652128845598 0.13320425975332012 -0.013305532763005414 -0.19998987016654338 0.1409910248916203 0.24745124067535235 0.0762216173594504 0.07118804555994898
-0.13165853950095266 0.053251709903494 0.035402800398358795 0.18050618965886112 -0.12540491891043945 -0.19817340844061496 0.15369304388619043 -0.027267818496645474
-0.1294219658020483 -0.15182179693767478 -0.20114514142291495 0.08050934865335123 -0.15099447044721054 0.2227433755104366 0.20384872100779328 0.17652788295397842

arr_1 f8 [64]
00000000: 0706 11b7 4722 c0bf b2e3 221b c2f3 b83f
00000010: 48fe ebec 147d bbbf 08db 5e1b 3cae b03f
00000020: 6ce1 a08c 6cbd b0bf 785c 178b e2b8 d0bf
00000030: 640b 124f dce1 6fbf 167a 2674 484b 90bf
00000040: fe91 7441 7efa cf3f 2411 f09a 3927 cc3f
00000050: 6cfc 51a1 6160 d2bf 3bf7 a16d a03a a03f
00000060: 808c ec71 bec4 f1be 9589 3b9e edb0 b4bf
00000070: 724c 87e1 c704 c73f d82f a448 9508 bf3f
00000080: aa52 465d 4013 84bf eba7 b516 480b 903f
00000090: 93dd f758 9321 b4bf b645 ea77 aa69 c4bf
000000a0: e8c0 4715 42e8 b0bf 16ce 0514 1e54 ad3f
000000b0: 3634 3d09 1f41 c13f 647f bae9 7ed5 c33f
000000c0: 96df 7be2 9b20 cabf 4f41 4f14 fae3 c73f
000000d0: 1e56 d308 6d43 ce3f a027 8a62 1451 cebf
000000e0: 969f 3879 1d71 b0bf ef8b 640a 3491 923f
000000f0: 3eae 28c8 24a6 a63f 0c12 f62e 894d 9dbf
00000100: 0678 b913 38bd c8bf d2d8 af41 561b 97bf
00000110: d0a8 08f0 b5b2 c8bf 0824 2a90 a777 b03f
00000120: f1b1 eb37 089d be3f 0a31 bef6 11b7 a6bf
00000130: df1e 3a66 2be2 a2bf b2c2 c7d2 4ea7 cabf
00000140: e0ee 7e89 81d5 c9bf 3097 0650 96d9 c83f
00000150: 89e3 597f 7b47 b6bf 3e95 1e6b bfaf abbf
00000160: 585e ba3c cf46 b63f fb55 d529 4f09 c7bf
00000170: 6238 db95 9a7d d0bf 3857 a089 e6e8 9abf
00000180: acd7 b1fa fc80 b9bf 06d1 66c0 64a2 ba3f
00000190: eaa7 b9df f9b0 af3f 7ad9 77cc 89cd b83f
000001a0: 8231 d32d 2aa3 c63f 34b6 8367 e90c a43f
000001b0: ffcc 1563 3ca4 cc3f d48e 0d50 e4f7 a7bf
000001c0: b5ec 10c0 d02b cebf 1dea bf5c 0c43 a4bf
000001d0: c06e 1576 358b a73f ef65 64ac 7462 a13f
000001e0: 7896 229b 1921 bebf 12f7 cfe0 511c d03f
000001f0: 9d24 02dd b27d a7bf 3676 d6e1 9ad7 c53f
-0.12604614676278933 0.09746945536143306 -0.10737734588837455 0.06515861194825956 -0.06539038117705837 -0.2612844808877024 -0.003891878405342041 -0.015912181939365132
0.24983194538175718 0.2199470526248969 -0.2871326518433708 0.0316972860173181 -1.6945391617128897e-05 -0.08082471001720244 0.179833397981017 0.12122471831770498
-0.009802344175832662 0.01566803587540015 -0.0786373226363735 -0.15947466712218067 -0.06604397792375816 0.057282390541242886 0.134799842368382 0.15495287334942554
-0.20412014540465567 0.18664480201415265 0.236432675656645 -0.23684935390002426 -0.06422599992276753 0.018132031568835968 0.04423632567735723 -0.028616088382039037
-0.19327450717077016 -0.022565219649515474 -0.19295381756211905 0.06432578344005446 0.11958361974001953 -0.04436546456335762 -0.03688178656471818 -0.20823083202369258
-0.20182818616546339 0.1941402331114488 -0.08702823504599001 -0.05407522375689176 0.08701796753518332 -0.17997159521716796 -0.25766625055701387 -0.026279070043606384
-0.0996244537398911 0.10404042908959718 0.06189709526081784 0.09688626520060054 0.1768543933634526 0.03916100872616504 0.22376208150999585 -0.04681313969811432
-0.23571214082935446 -0.03957403785894462 0.0459839541096847 0.03395428280255063 -0.11769256627538904 0.25172850565273663 -0.045880879858551916 0.17064224269135914

arr_2 f8 [32, 64]
00000000: 3a7b dd2f 4eea 9ebf af94 4950 b61f a13f
00000010: ed8f 3537 ba12 b13f 2fe4 264b 4bd9 9ebf
00000020: 659d c992 03cf 9bbf c497 5ef4 148e b0bf
00000030: c25f b809 ae60 bd3f f136 bb34 f460 97bf
00000040: 5d47 a312 7bf8 99bf c382 d203 15cf ac3f
00000050: b750 162f 61fe a93f 9a4b 1488 37af c1bf
00000060: d027 0c74 9b4c b9bf 46a0 15d6 bfd9 97bf
00000070: 178c d654 e531 bb3f b05f 06cb 808c ba3f
00000080: 1230 4cd5 aebb b7bf 9888 3532 10f2 b3bf
00000090: 2ecb 1fe7 9842 b23f dc3a b60c e770 a73f
000000a0: e9f8 229c 0d48 9abf c7cd 8ac8 1b3a a3bf
000000b0: 721f c8ca a83e b63f f87b 7d81 d904 a53f
000000c0: 6163 4c86 7b4d b43f d61a 2375 b30e c03f
000000d0: fb6d 249a 79a9 853f feb5 a93a e782 713f
000000e0: 8436 367d fc23 b63f ace9 e3fa 1077 b6bf
000000f0: 16ed c579 a3a9 a9bf bf97 f03d 68ea 95bf
00000100: fa20 afde a3ef b5bf 4fce 01b1 8274 b9bf
00000110: 1c14 b451 8551 a1bf 34e6 ec69 630c babf
00000120: 31c3 c1e9 27b4 a73f e82d c694 5e3f bf3f
00000130: f6bd 4729 b341 c33f 43cf 1364 89e5 a4bf
00000140: 80b1 91d1 d509 b63f 7605 c401 ce16 b83f
00000150: 4616 1982 351a 803f 0c87 f793 7583 9c3f
00000160: 4c73 a02c 48cf af3f a23d a2c6 515b 76bf
00000170: 2a7a cb17 fdcb 76bf d4cb 2f9e 5a59 bc3f
00000180: 27a4 87d1 0968 b33f e2e5 bbf7 2351 92bf
00000190: cd55 c8df b6fb b4bf 7853 cced c3f7 c1bf
000001a0: 008e c329 ff3b b2bf 200e 0359 aeaa babf
000001b0: a62b 9847 5839 bc3f 17f6 8229 a35b b7bf
000001c0: 3463 eeff f83f babf 6e6d ee47 8813 c0bf
000001d0: 3a41 c563 0edd bc3f 5577 060a d5b1 b7bf
000001e0: 907f 5046 6b12 b9bf 6dbb e3c2 2f30 95bf
000001f0: f0f5 9ace 3f19 a83f 3cd5 3a00 3f41 bd3f
00000200: 28bc 7bdc 7aa8 abbf e88c ff29 96b3 b7bf
00000210: 4f9a 14ee 7548 b23f f73c 4037 d77d a53f
00000220: a272 52f3 abdc be3f 3317 f90b b9f2 bfbf
00000230: 8882 241a af06 c73f 56f3 e9e0 53a7 a1bf
00000240: f17c dea8 2fa9 7e3f 368e 0800 2248 b0bf
00000250: 661b c012 d502 be3f 34cf db3d f7e7 b2bf
00000260: f664 e7c2 9ec0 c1bf fdb3 5e7d 05d6 8abf
00000270: 310d 976e 248f ad3f 6640 5fc2 10d4 a63f
00000280: 90ff 2a52 421c aabf f6b2 402f eea6 be3f
00000290: d8f2 e950 4f46 c03f 5433 8db1 c55d b3bf
000002a0: b665 a981 7cb4 82bf 75ae 1184 7b89 b5bf
000002b0: 766a 356e c43c 94bf 4a8c ea00 e42e ba3f
000002c0: 20e2 7ee8 5293 a9bf dd41 a9d4 246a c0bf
000002d0: 687c 4ff3 d7b9 b2bf 1ab9 0316 80fa b3bf
000002e0: eda5 d35f dd97 98bf f412 07d9 0bc3 b8bf
000002f0: 8502 4983 7c9d b5bf cc40 d908 e15f bebf
00000300: 6e44 db1c 7ef4 aa3f 40ca f489 f801 b63f
00000310: c25e c5a2 1389 b1bf e802 fbb2 386b ad3f
00000320: 206b 36f7 a41f 9bbf b075 84a6 e36a a73f
00000330: 74b9 3326 ffc3 b53f c6b2 99b1 4779 923f
00000340: 5ef1 f01d c828 c23f b529 d30d d9c3 b6bf
00000350: ac85 6036 2e1e b9bf 7110 ce84 0c87 b9bf
00000360: 8156 3c56 3dd8 90bf 0453 3413 18e9 903f
00000370: ae10 a10d 4f2d c43f ec1b 96ee 5839 ac3f
00000380: 6c15 7dd8 c1f5 a6bf bc1c e58d e67b c0bf
00000390: b090 d2c5 6773 a33f 61b0 3e7a 425b b5bf
000003a0: a094 9a40 ca27 b43f a47c edc6 db2b 9d3f
000003b0: d258 a6dd ff7e b9bf 7610 b905 445d babf
000003c0: e7dd f366 e141 a8bf 0626 d18b a445 bb3f
000003d0: f89a 0e0f dea0 9a3f 17d4 0ec0 1a9b b4bf
000003e0: 08b6 32f1 5e79 b3bf f51e 9adb 6bd6 a63f
000003f0: b092 2d67 7dce a7bf a46d a08e 6a4d 88bf
00000400: 0e34 7503 fd91 bd3f 07f8 8e34 72bd a7bf
00000410: 1130 a552 cad3 adbf 74e0 9e56 7e02 bc3f
00000420: 24b6 dee5 5b9c a13f 6d2b 3497 d16f a6bf
00000430: 149f d47e 02a8 b33f 9c68 7a4a a1a2 bdbf
00000440: 09b1 72cb d08d bfbf 8e0c c7f8 06e6 c1bf
00000450: ae9a 1d8c d291 ae3f 6233 be30 3cec 9a3f
00000460: 351a 6d2a 3155 a93f 76e7 0432 e405 8dbf
00000470: 28d3 bf27 5a80 b4bf 4708 092e 0b6b 833f
00000480: fa75 72dc 91b7 b2bf 5b04 905a db63 b7bf
00000490: 66d6 56a3 091e babf 2c0c 5d8f d2c6 87bf
000004a0: 5428 2fc8 e9d5 bd3f 5a07 14ec 23ed b33f
000004b0: e410 4909 e1d3 c13f ca37 e951 d238 ac3f
000004c0: 364f bd38 506e 9f3f 3cdf 5c1b 718a c1bf
000004d0: fed1 057b 7826 bb3f 9bfc f19a 1802 be3f
000004e0: b295 ce4b 7d3d a0bf 85a4 7802 d9d1 98bf
000004f0: 0ced 897d 440e 6b3f f8c9 dc21 f1cb a9bf
00000500: 6a8d 061e e846 8fbf 0b20 6067 566f adbf
00000510: 1445 32ce 5343 b5bf 9572 9ea9 09ba 71bf
00000520: 2430 4cb1 1408 b1bf 98da 6c68 e3bc 98bf
00000530: dd8b 3397 61f1 ac3f 343e 9208 0d49 a2bf
00000540: 20b1 7909 1fd5 f0be 361e 9275 d411 b4bf
00000550: 898a cb6a ac47 bbbf 3651 38c4 0c2f 9f3f
00000560: c0f3 95b9 2530 aabf cead b30b 1a9f 963f
00000570: e48e f863 1dee b7bf 971d 9e9d c706 a83f
00000580: 82ff 452e f99f aabf 36ad 903d eaa5 bbbf
00000590: afaf 7a0d e61c 9c3f 0ccd 1abd bb42 ae3f
000005a0: d42d e685 986e c53f 7a79 15f4 7311 b83f
000005b0: 95d4 11c6 05f6 b8bf b0fc edf5 1438 b7bf
000005c0: a0fd 3efe 630b a03f 34c7 0208 7e3a abbf
000005d0: 8c2a ab06 d26e be3f 27ad 22df e3fc b7bf
000005e0: b80a d7cb fa9a b9bf c73a c549 4f6f 9cbf
000005f0: ca11 b0e2 e86d c33f 496f 5f57 d774 81bf
00000600: 384b 892e 3a56 c13f fa91 dcb6 2164 acbf
00000610: 9258 ccd9 d86f 83bf 65f3 f8cf 1e7e 903f
00000620: 0a98 ddf1 640b c23f 9105 cbb9 90c9 adbf
00000630: 261c 023f f847 b93f badb 7114 990e 7b3f
00000640: a8ee 917c 3c9e a5bf 0006 3b23 443f 0fbf
00000650: 1cba 831a 176a b2bf 29fa 3df7 fe11 a73f
00000660: 4c45 e984 cda2 b33f 3823 059b 743e c1bf
00000670: 3e66 8dcf 2de0 9a3f d2c4 d269 67ed acbf
00000680: 7ea5 a244 4718 8ebf 5abb adc0 e92a b73f
00000690: 714c 5dc4 5843 97bf d425 5a8a ccac b8bf
000006a0: 4669 2d00 5c87 ae3f 46f9 5f4d 6cf6 953f
000006b0: acb9 1c0a cf0a b63f 1a5a e11f 434f b5bf
000006c0: 3f10 2725 fba5 b8bf e4fe d225 38d2 b53f
000006d0: 0b44 327f 0e05 a6bf 6cb5 7905 d024 c3bf
000006e0: 6aa0 4f0e 9dc6 c4bf ce9a 0216 d89f 98bf
000006f0: aa02 c613 c67b b2bf 3e6d 6fdc fe45 ba3f
00000700: e2f1 3748 8d02 ab3f 182b 5768 3fd3 a7bf
00000710: c2c3 fa21 7710 a6bf 104a 3a94 72eb 793f
00000720: 761b 45bb 4952 b03f c8d3 b94f c4d5 b8bf
00000730: 4306 6cb8 2584 b1bf ab2c 0685 d6a5 a3bf
00000740: c491 f2fd c1e3 a1bf 6486 818d a142 babf
00000750: cfd4 f2fa b706 793f c2ef ebfb 9134 b23f
00000760: fcf2 32d9 10ed b43f 52de a085 62e8 87bf
00000770: 7ccf f9b4 f7fb b7bf ae1a e019 f1c7 a1bf
00000780: 5bb1 9ff4 fd9b 853f 9370 272e 87bc a8bf
00000790: b8a3 df3b cc33 bfbf 0eec f788 d81e b93f
000007a0: 6eed f950 f730 b1bf 4869 3ab4 e0a1 b1bf
000007b0: 751e b98f dd09 b83f 01b3 86a0 c268 b3bf
000007c0: 8427 34ed c187 a1bf c230 dc6c 9b15 a9bf
000007d0: acb9 ffa2 7c28 91bf 49c8 5b2f 12cb b0bf
000007e0: 1a60 7675 04dd 933f 4dcf 1d00 4089 823f
000007f0: dac0 3b08 54a2 5abf b668 18f0 4eab 943f
-0.030190679236848462 0.03344506959982973 0.06669200752145317 -0.0301257862681476 -0.027156883081628353 -0.06466799703647924 0.11475646722135394 -0.02283078739019734
-0.025361941349565032 0.05626741096171408 0.05076888751787705 -0.13815969604965234 -0.09882518370810023 -0.023291585389785284 0.1062300998806197 0.10370640713369883
-0.0927075644250979 -0.07791234231766209 0.07132869379692572 0.04578325300382399 -0.025665486006567404 -0.037552707891702 0.08689360571599794 0.04105262475672328
0.07930728939790078 0.12544863910280551 0.010577154175328998 0.004275229681849789 0.08648660714080775 -0.08775430798770029 -0.05012236463059076 -0.021402004986292186
-0.08568786799071751 -0.09943405934773718 -0.033825079177440126 -0.10175153099125894 0.046296355519081074 0.12206069118672469 0.15044250026356537 -0.04081372591636392
0.08608757368501152 0.09409797232730974 0.007862489731574784 0.027845227390463953 0.06212831063041921 -0.0054581827518086785 -0.00556563248093637 0.11073843347530438
0.07580624928927247 -0.01788765143917271 -0.08196585620347392 -0.1403736983417294 -0.07122797746301757 -0.10416688607352187 0.1102500128546767 -0.09124202502695088
-0.10253864525146811 -0.12559607994340233 0.11274805007747526 -0.09255725378758702 -0.09793730227147379 -0.02069162966739262 0.047067636461615936 0.1142768264351916
-0.05401977483222026 -0.09258402371738195 0.07141816198837002 0.04197571324777443 0.12055468264083882 -0.12479740660009213 0.17989147926802596 -0.0344797336628974
0.007485567255485424 -0.06360065937820356 0.11723071773313407 -0.07385201702328176 -0.13869080082694268 -0.01310352600907016 0.05773271417595039 0.04458668110567103
-0.05099684956576234 0.11973465589171525 0.12714568568107754 -0.07564960083727829 -0.009133312899552642 -0.08412906622259604 -0.019763058878519556 0.10227799436920396
-0.04995211685258405 -0.12823925384374393 -0.07314824762532768 -0.07804108178581651 -0.02401681802158422 -0.0967261700489635 -0.08443430142598103 -0.11865049806624767
0.052646580717586086 0.08596757286140022 -0.06849787448788461 0.057458659980971494 -0.026487901295335736 0.045737375332673635 0.08502192194621278 0.018040771689288325
0.14186955892535996 -0.08892590129395368 -0.09811676814617581 -0.09971693270023409 -0.016449888599785915 0.016514183208602 0.15763271489607206 0.055125025867759664
-0.04484372871096806 -0.12878114632096593 0.03798984803987204 -0.0834237621735965 0.07873214795343353 0.028487619415838453 -0.09959410821315665 -0.10298562183112545
-0.04737762815232909 0.10653141416073461 0.02600428549672082 -0.08049170674242166 -0.07607072247147795 0.044604654843224546 -0.04649726757523831 -0.011866409757252346
0.11550885519427842 -0.04636723414976989 -0.05825645693639115 0.10941304793129963 0.03439604931859844 -0.043821859080785376 0.07678237530182869 -0.11576278751673147
-0.1232576843928578 -0.13983237407055465 0.05970628700634016 0.02629179046157349 0.04947808878801078 -0.01417139318128922 -0.08008349867288855 0.009481513349900562
-0.07311355239877307 -0.09136744462013395 -0.10202083814405113 -0.011609692573648266 0.11654530656156342 0.07783722413662755 0.13927853539838175 0.05512101411714772
0.030694249594787247 -0.1370374091727572 0.10605576518521073 0.11721948416560439 -0.031719127181797716 -0.024238005424340976 0.003302701730999785 -0.05038407839164799
-0.015271962562855197 -0.057490062827184905 -0.0830585840615366 -0.004327810043744625 -0.06652955368571206 -0.024158051727875746 0.056529092509457014 -0.03571358422879847
-1.6052727544056265e-05 -0.07839706297283375 -0.1065624008875067 0.030452918506925296 -0.051148585228453225 0.022091299976563943 -0.09347709360786954 0.04692672537845082
-0.05200174989567953 -0.10800041201644181 0.027453989575107304 0.05910288508803249 0.16743761575740612 0.09401631077841968 -0.09750400624928297 -0.09069949154035117
0.03133690336789674 -0.053180635908019275 0.11887848532493644 -0.09370254705088553 -0.10002105213701895 -0.027768362882222754 0.15179167813052025 -0.008523638109117508
0.13544394752769917 -0.05545144421765609 -0.00949067511241378 0.016106110995895224 0.14097272691577728 -0.058178446464363216 0.09875442064559134 0.006605718582355752
-0.04222287197714297 -5.959917726051575e-05 -0.07193130872085657 0.04505917327968618 0.07670292372610737 -0.13471849030818261 0.02624579982089003 -0.05649874846256754
-0.014694744855961114 0.09049855188434944 -0.022717844948897118 -0.09638670327890192 0.05962646009602905 0.021447841856564474 0.08610242840652543 -0.08324069526984382
-0.09628266961141295 0.08523894236986568 -0.043007329012773786 -0.1495609308944198 -0.16231120299130747 -0.024047256797213028 -0.07220113737822467 0.10263054734916907
0.05275384432386311 -0.046533566939237214 -0.04309437074460433 0.006328055929446311 0.06375561544437666 -0.09701182314331824 -0.0684226584671928 -0.03837461828069285
-0.03494077897019879 -0.10257920937285686 0.0061099230508052235 0.07111465835981703 0.08174233725271657 -0.011673707678809073 -0.09368847053866419 -0.03472855988370803
0.01055143740446656 -0.04831335485843726 -0.12188412153012862 0.09812692016559785 -0.06715341307601871 -0.06887630844213277 0.09390053519120463 -0.07581726473899765
-0.034238872724087904 -0.04899297431811213 -0.016756007622399302 -0.06559861808980928 0.019397802037559676 0.009050846103242494 -0.0016256161333636971 0.020184739498383585

arr_3 f8 [32]
00000000: 46d2 0368 45ad a43f 9479 7e45 428e 9bbf
00000010: c760 70e2 1b63 a1bf c7f8 b902 d719 b43f
00000020: 6883 fbc8 9d6d 7e3f d691 b87c d6b8 a3bf
00000030: deda 5d93 5515 99bf b44e dd3f 54b3 873f
00000040: 4bf6 82c1 a3a5 a93f 663c 69de 5233 b3bf
00000050: 1c23 3852 736c b93f 50df d79a 0a94 bfbf
00000060: 8263 7f0b 9044 7d3f ae74 8ef3 6385 ba3f
00000070: 9c2f 949a 6bbe c3bf f620 7e69 d4ba a7bf
00000080: 52e0 26c9 78b3 bb3f 1ce0 336d f874 c3bf
00000090: 93c4 0732 f7a0 933f 7cb4 1ed8 cd1b a7bf
000000a0: b395 c26d feda a1bf d497 9b92 73cb a73f
000000b0: 6aa7 5fde 9f88 b9bf 4194 bc4b b8ae bb3f
000000c0: 43c8 79a8 3f2f a03f 2874 622d a888 b63f
000000d0: bfa2 cadf 4fa6 a63f 93d4 7f4c 3886 b43f
000000e0: 1e2b a439 59d5 ad3f 0834 db19 88a6 b2bf
000000f0: e2ab 0a94 9731 bfbf 52c4 5f81 90b3 b1bf
0.040384453723082234 -0.026909862033443213 -0.033959266082264565 0.07851928535999085 0.007428757045745062 -0.03851957581017344 -0.0244954463191459 0.01157251186274464
0.05009185540391722 -0.0750018876071735 0.09931107289606839 -0.1233526828799516 0.00714546458763088 0.10359787651255445 -0.1542486672191189 -0.0463472727561242
0.10820727263387767 -0.15200715381774976 0.019168722561464135 -0.04513400328810577 -0.03487391557545596 0.04647408642431086 -0.09974097422641895 0.10813476418532365
0.03161047870243341 0.08802271945974438 0.044237609928420955 0.08017303340587238 0.058268345152177256 -0.07285357123619474 -0.12185046543406444 -0.06914618643328765

arr_4 f8 [1, 32]
00000000: de4e 1fc2 5cc9 9bbf 6fbb 0349 d79c bfbf
00000010: 469a dafe b059 c53f fa56 0487 9f76 b03f
00000020: ba78 69eb d1fe afbf 08ca 20be 1b27 c4bf
00000030: 6ab8 7d2f c923 c4bf aefa 6463 278f a7bf
00000040: c078 880f 8a76 bcbf 5c36 511b 221f a4bf
00000050: 9e45 e654 f62d 793f f91d 8348 7cf7 c7bf
00000060: 22e9 53ca f4da 82bf a48c a8ae 3520 b9bf
00000070: 36ce 0e52 8ab0 bd3f f93e 710b fb3b c7bf
00000080: 86f3 3492 2f6c 8cbf 1267 837b 5448 bf3f
00000090: 504c 6162 067d 513f 02fc 4e26 04c3 c0bf
000000a0: 2e58 e07c 1865 b33f c0fc 3f7f 6dd0 373f
000000b0: 22b3 1e5f 704f b33f 66b9 1510 8ad5 b33f
000000c0: d39e edf9 f221 bc3f 3149 6c74 b775 c7bf
000000d0: 2613 ea02 bb41 bbbf 4af0 33cd bf32 b1bf
000000e0: 2221 01ea 0a67 c9bf 6657 d654 b112 babf
000000f0: 167c 5d6a 4bff b8bf 52ed dd4b 8d8e afbf
-0.02713532385662531 -0.12348695309240808 0.16679966396368878 0.06431004568397816 -0.06249099730188008 -0.15744349273298064 -0.15734209841633923 -0.04601405227957876
-0.11118376616693393 -0.03930002768957472 0.0061473486261020265 -0.18724015751489256 -0.009206688332132066 -0.09814773096199986 0.11597504142155732 -0.18151796396931966
-0.013878223084810914 0.12219741836034029 0.0010674059244777552 -0.13095142241033392 0.07576134728182701 0.0003633754088240952 0.07543089220298474 0.07747710125633986
0.10989302255404292 -0.18327992615429303 -0.10647171803618657 -0.06718062171779696 -0.19845711160656615 -0.10184772797796668 -0.09764548632436773 -0.06163445998296403

arr_5 f8 [1]
00000000: f6ef 77ec b34c dcbf
-0.4421815690291163
